Assignment5/data/03001627/train/b0b75045d06201f9329df33f4ef71f97.npy (npy, 180128 bytes, 1 tensors)

array f4 [15000, 3]
0	0x3e88a4f2	0.26688343
1	0x3daa5a08	0.08317953
2	0xbe3fe592	-0.18739918
3	0xbe8a7774	-0.2704426
4	0x3c983ca4	0.018583603
5	0x3c28d0a0	0.010303646
6	0xbe8a845a	-0.270541
7	0xbe4bd173	-0.19904117
8	0x3e7f0baa	0.24906793
9	0xbe6b3b07	-0.22971736
10	0x3e4c7d92	0.19969776
11	0x3e6ce1cc	0.2313301
12	0x3e7fc069	0.24975742
13	0x3e400e69	0.18755497
14	0x3e84d6b8	0.25945067
15	0xbe1d0975	-0.15335639
16	0x3d52a26e	0.051424436
17	0xbe444f81	-0.19170953
18	0x3e85ade1	0.26109222
19	0x3e8b2fc4	0.2718488
20	0x3e858780	0.2607994
21	0x3e8a8416	0.270539
22	0x3e00225d	0.12513109
23	0xbdd8f584	-0.105937034
24	0xbdb116e6	-0.08646946
25	0x3e964762	0.29351336
26	0x3e9c30fb	0.3050612
27	0x3e578da6	0.21050128
28	0x3d14d10e	0.036332183
29	0x3d645928	0.05574909
30	0x3de8b772	0.113631144
31	0x3cabecee	0.020987
32	0xbe8caf43	-0.27477464
33	0x3e2af7ba	0.16696063
34	0x3d4d2dba	0.050092436
35	0xbd274544	-0.04083754
36	0xbe596fad	-0.21234007
37	0xbcc45b1a	-0.023969222
38	0x3e4abc0b	0.19798295
39	0x3e04cab6	0.12967953
40	0x3da05bda	0.07830019
41	0x3e36da3f	0.17856692
42	0x3aee8100	0.0018196404
43	0x3b937bcc	0.0045008417
44	0x3dc68398	0.09693068
45	0x3d028e38	0.03187391
46	0x3ce055b1	0.02738461
47	0xbd338b12	-0.0438338
48	0x3e63ba35	0.22239001
49	0x3e6170d5	0.22015698
50	0x3e8c0627	0.27348444
51	0xbe00c6ea	-0.1257588
52	0x3e32d2b4	0.1746319
53	0x3e61b9e5	0.2204357
54	0xbe8a845a	-0.270541
55	0x3da09c1e	0.07842277
56	0xbe6a5c06	-0.22886667
57	0x3e3431ca	0.17597118
58	0x3e3097c6	0.17245397
59	0x3e60c1c0	0.2194891
60	0xbc645cc0	-0.013938129
61	0x3d9ae089	0.07562358
62	0xbe8d76ed	-0.27629796
63	0xbd3b1b00	-0.045680046
64	0x3d1a4f69	0.037673388
65	0x3d3dc9a4	0.046334878
66	0xbdf29f50	-0.11846793
67	0x3c7c72ea	0.015408257
68	0x3cf46adc	0.02983611
69	0x3d486638	0.04892561
70	0x3dcd5574	0.100260645
71	0x3e40a055	0.18811162
72	0xbe5fcab5	-0.2185467
73	0xbc112d48	-0.008860894
74	0x3e489dad	0.19591399
75	0xbe3f9ca6	-0.187121
76	0x3d93332c	0.07187495
77	0x3e33fe2e	0.1757743
78	0xbd36a5e0	-0.044591784
79	0x3d808661	0.06275631
80	0xbe04d786	-0.1297284
81	0xbda2e19a	-0.07953186
82	0x3d652b88	0.055949718
83	0x3e2ce7b8	0.16885269
84	0x3d057810	0.032585204
85	0x3d5aaafb	0.053385716
86	0xbe683f85	-0.22680481
87	0xbe8a845a	-0.270541
88	0x3d4434a6	0.047901772
89	0xbe89f6af	-0.26946017
90	0xbb5db500	-0.0033829808
91	0x3d32da4d	0.04366522
92	0x3e4ca090	0.19983125
93	0xbdd0bd86	-0.10192399
94	0x3e3139bb	0.17307179
95	0x3e81a591	0.2532163
96	0xbe82d2b3	-0.25551376
97	0x3e69e9c5	0.22843082
98	0x3d8e0b50	0.069357514
99	0xbd75b448	-0.059986383
100	0x3df68ec9	0.12038953
101	0x3e6c1260	0.23053885
102	0xbe807161	-0.250865
103	0x3e6b8072	0.22998217
104	0x3de4bb02	0.111684814
105	0x3e6c549c	0.23079151
106	0x3d6e5b5e	0.058192603
107	0xbdc8141e	-0.09769462
108	0xbdf1b6e8	-0.11802465
109	0x3ea28600	0.3174286
110	0x3e988129	0.2978604
111	0x3e07bb3e	0.13255021
112	0xbc08fef2	-0.008361565
113	0x3e488bc0	0.1958456
114	0x3e6bab54	0.23014575
115	0x3d45c68d	0.048285056
116	0xbe308930	-0.17239833
117	0xbca745f0	-0.020419091
118	0x3d8acf9a	0.06777878
119	0xbe28f128	-0.16498244
120	0x3e8a69c1	0.2703381
121	0x3e16036c	0.14649743
122	0xbd70f0c8	-0.058823377
123	0x3e864ee3	0.2623206
124	0x3e703822	0.23458913
125	0x3daaf37c	0.08347222
126	0x3d658a10	0.05603987
127	0x3c5d5eb3	0.013511348
128	0x3d2a00a8	0.041504532
129	0xbe0bd976	-0.13657174
130	0x3c9b4542	0.018953923
131	0x3c037e30	0.008025691
132	0xbe840cb7	-0.2579095
133	0x3ea1a060	0.3156767
134	0x3e8b36ff	0.27190396
135	0xbe451b12	-0.19248608
136	0x3d088fe9	0.03334037
137	0x3d9d2ecc	0.076749414
138	0xbe43d830	-0.19125438
139	0x3ba1756b	0.0049273274
140	0x3e47beee	0.19506428
141	0xbd5fc3c4	-0.054630056
142	0x3d2fe406	0.04294207
143	0x3e4c6bc8	0.1996299
144	0xbdbca954	-0.09211984
145	0x3d08d518	0.033406347
146	0x3e49b3ca	0.1969749
147	0x3e369600	0.17830658
148	0x3d568b1f	0.05237877
149	0xbe6a94f6	-0.22908387
150	0x3e895639	0.26823595
151	0x3b112680	0.0022148192
152	0xbe8012ba	-0.25014287
153	0xbe834c33	-0.25644073
154	0x3d4d9f18	0.05020055
155	0xbe3c99f7	-0.18418108
156	0x3e873b18	0.26412272
157	0xbdf40b4a	-0.11916216
158	0x3e52d1af	0.205878
159	0xbe871844	-0.263857
160	0xbe03cf10	-0.12871957
161	0xbe954f75	-0.29162183
162	0x3e327d04	0.17430502
163	0x3df39658	0.1189391
164	0x3e6b6eb5	0.2299145
165	0x3e820616	0.25395268
166	0x3e1a5667	0.15072022
167	0xbddebaec	-0.10875496
168	0xbe802347	-0.25026914
169	0xbd90c8d4	-0.07069555
170	0x3e57c7d0	0.21072316
171	0x3e02f3fd	0.12788387
172	0x3ce6a4aa	0.02815469
173	0x3de7baa8	0.11314899
174	0x3d9068d8	0.07051247
175	0x3e815bfe	0.25265497
176	0x3e932fb7	0.2874734
177	0x3dff0f42	0.12454082
178	0x3d0431a5	0.032273907
179	0x3dac837e	0.08423518
180	0xbe10918b	-0.1411802
181	0x3d8d91ca	0.06912573
182	0xbe329f98	-0.17443693
183	0x3e6bab46	0.23014554
184	0x3d6bb3ea	0.057544626
185	0xbdbec380	-0.093146324
186	0xbe8a845a	-0.270541
187	0x3d960cef	0.07326686
188	0xbe82e8c3	-0.25568208
189	0x3cc50510	0.024050266
190	0x3cd870a0	0.026420891
191	0x3e00539c	0.12531894
192	0xbe84a657	-0.25908157
193	0x3e7794de	0.24177882
194	0x3dccb328	0.09995109
195	0x3e583d84	0.21117216
196	0x3d862656	0.06550281
197	0xbe18953a	-0.14900675
198	0x3ddb42b4	0.10706082
199	0x3e386a0b	0.18009202
200	0x3e642800	0.22280884
201	0xbe86bd4e	-0.26316303
202	0x3e8ffc1c	0.28122032
203	0x3e867211	0.262589
204	0x3e711039	0.23541345
205	0x3e5bdcc9	0.21470942
206	0x3e73902a	0.23785463
207	0xbe1ba1ed	-0.15198489
208	0x3e3f67ec	0.18691987
209	0x3e6731f0	0.22577643
210	0xbda5b14c	-0.08090457
211	0x3ce981ea	0.02850433
212	0x3e1ce037	0.15319906
213	0xbe82f6c8	-0.25578904
214	0xbde87fe4	-0.11352518
215	0xbe869610	-0.26286364
216	0x3e61ae8c	0.2203924
217	0x3e6752af	0.22590135
218	0x3e8d4a41	0.27595714
219	0x3d7be6b0	0.061499298
220	0x3e6d8af0	0.23197532
221	0x3e7b3f60	0.24535894
222	0x3e8a8416	0.270539
223	0xbe639cdc	-0.22227806
224	0xbe9414f9	-0.2892225
225	0xbdceef50	-0.10104239
226	0x3d49740a	0.04918293
227	0xbe363106	-0.17792138
228	0x3e6ecd8e	0.233206
229	0x3d85241a	0.065010265
230	0xbe150aee	-0.1455495
231	0xbe5028b9	-0.20328034
232	0x3d3d217f	0.046174522
233	0xbc5a8250	-0.013336733
234	0xbd1d0588	-0.038335353
235	0x3d783320	0.06059563
236	0xbe90b82f	-0.2826552
237	0x3e68db42	0.2273989
238	0x3d855ab4	0.06511441
239	0xbe15ca8f	-0.14628051
240	0xbe815970	-0.25263548
241	0x3e902790	0.28155184
242	0x3e998e1a	0.29991227
243	0x3e1aaa0e	0.15103933
244	0x3d9f2cb8	0.07772201
245	0xbe7069fb	-0.23477928
246	0x3db14ff8	0.08657831
247	0x3d897dec	0.06713471
248	0x3e31e218	0.17371404
249	0x3d9dc7d8	0.07704133
250	0x3d1ac9b0	0.03779
251	0x3d3a6f58	0.045516342
252	0xbe7e82ca	-0.2485458
253	0xbe52e8a8	-0.20596564
254	0x3e7c35b9	0.24629869
255	0xbe7db22a	-0.24774995
