Assignment5/data/03001627/train/b1908805f05c6f47f51f77a6d7299806.npy (npy, 180128 bytes, 1 tensors)

array f4 [15000, 3]
0	0xbe743e6c	-0.23851937
1	0x3deaa2f2	0.114568606
2	0x3d914672	0.070935145
3	0x3d43761d	0.047720063
4	0x3d9bb58d	0.076029874
5	0x3e81687b	0.25275025
6	0xbe5f1ce2	-0.21788362
7	0x3eb3a815	0.35089174
8	0x3deee3e4	0.116645604
9	0x3e3d5be7	0.18492089
10	0xbb76910a	-0.003762307
11	0x3deefdc5	0.116694964
12	0xbe9889d9	-0.2979267
13	0x3d7a8d91	0.061170164
14	0xbd4acea6	-0.04951348
15	0x3e117879	0.14206113
16	0x3d92403c	0.07141158
17	0xbe16f938	-0.14743507
18	0x3e72ff76	0.23730263
19	0x3e770501	0.24123003
20	0x3e3edcda	0.18638936
21	0xbd9cfad3	-0.076650284
22	0x3eb20f6f	0.347774
23	0x3ea6adee	0.32554573
24	0xbe00137f	-0.12507437
25	0x3e0a6187	0.13513766
26	0x3d797abd	0.060908068
27	0xbe130fe9	-0.14361538
28	0x3a96931c	0.0011487934
29	0xbb311f9f	-0.0027026904
30	0x3ddc78b3	0.10765209
31	0x3e086391	0.13319232
32	0x3daa6e7a	0.08321853
33	0x3e420296	0.18946299
34	0xbb7adda8	-0.003827909
35	0x3d8c4f38	0.06851047
36	0xbe98e5f8	-0.29862952
37	0x3d62b460	0.0553478
38	0xbdcf793b	-0.10130545
39	0x3de10a8f	0.10988342
40	0x3d2695b1	0.0406701
41	0x3e3f965b	0.187097
42	0x3e77001a	0.24121132
43	0x3e939574	0.2882496
44	0x3e4053cf	0.1878197
45	0x3e227e31	0.1586845
46	0x3df68d88	0.12038714
47	0x3de869c5	0.11348299
48	0x3c5d9b40	0.013525784
49	0x3d69ddf0	0.05709642
50	0x3e816706	0.25273913
51	0x3e32fea4	0.1747995
52	0xbb1ece8f	-0.0024232005
53	0x3e265355	0.16242726
54	0x3d0bfe6e	0.03417819
55	0x3da394d6	0.079873726
56	0x3e68fc21	0.2275243
57	0xbe267f7b	-0.16259567
58	0x3bab01c8	0.005218718
59	0xbd909add	-0.07060788
60	0x3e4dcacd	0.20096894
61	0x3df108da	0.117692664
62	0x3db29630	0.08720052
63	0x3e80398a	0.250439
64	0x3e9367bf	0.2879009
65	0x3dcfde08	0.10149771
66	0xbd187cdc	-0.03722845
67	0x3e12faa0	0.14353418
68	0xbcf2a4e4	-0.029619642
69	0x3e6b70e1	0.22992279
70	0x3dc142f1	0.09436596
71	0x3dd0679d	0.10176013
72	0x3da56749	0.08076341
73	0x3d4686ef	0.048468526
74	0x3e78fba0	0.24314737
75	0xbc7d5b40	-0.01546365
76	0xbc0291a7	-0.007969297
77	0x3e02c890	0.12771821
78	0xbdb9c988	-0.09071642
79	0x3e91effe	0.28503412
80	0x3e980802	0.2969361
81	0xbe695263	-0.22785334
82	0x3d423fd0	0.047424138
83	0x3e1d9132	0.15387419
84	0x3e286dbc	0.1644811
85	0x3c6d8e5b	0.014499272
86	0x3e47bb00	0.19504929
87	0xbdad5e35	-0.08465234
88	0x3d859558	0.06522626
89	0x3e5a6d7d	0.21330829
90	0xbda374da	-0.07981272
91	0x3e0f074d	0.13967629
92	0x3e6962ea	0.22791639
93	0x3e8a1a3a	0.26973134
94	0x3ea01d09	0.31272152
95	0x3e4c1da9	0.1993319
96	0x3e744b97	0.2385696
97	0x3ea1481f	0.31500337
98	0x3dd9a7ad	0.10627685
99	0x3df58594	0.11988369
100	0x3cba232e	0.022721853
101	0x3e681472	0.2266405
102	0x3e3ab2de	0.18232295
103	0xbe3c6a7f	-0.184
104	0xbcf05a0f	-0.029339818
105	0x3dc88036	0.09790079
106	0x3e01e133	0.12683563
107	0x3df5c91d	0.1200125
108	0xbd514445	-0.051090498
109	0x3e10711f	0.14105652
110	0x3bcb76a0	0.0062092096
111	0xbe423610	-0.18965936
112	0x3e5d98e1	0.2164035
113	0x3e347dfe	0.17626187
114	0xbc8e66f4	-0.017383076
115	0x3d79303c	0.060837016
116	0x3e5e220f	0.2169268
117	0xbe730fa4	-0.23736435
118	0x3ecdf425	0.4022533
119	0x3e1c1e61	0.15245964
120	0xbc1679d0	-0.009184316
121	0x3b9cc1b2	0.0047838325
122	0xbda46885	-0.08027748
123	0x3e17e7a1	0.14834453
124	0x3eb48fb3	0.35265884
125	0x3e9cf624	0.3065654
126	0x3e82c2ea	0.25539333
127	0x3be3c62d	0.0069511146
128	0xbdafc61a	-0.08582707
129	0xbd866474	-0.06562129
130	0x3e1150fa	0.14191046
131	0xbbbab7ec	-0.0056981947
132	0xbe332b0f	-0.17496894
133	0x3dea043c	0.11426589
134	0x3df47ed8	0.11938256
135	0xbcd6ef55	-0.02623717
136	0x3eabdd64	0.33567345
137	0x3e894cbd	0.2681636
138	0x3e19ff3d	0.15038772
139	0x3e90d9aa	0.28291065
140	0x3e8743bc	0.26418865
141	0xbe06427d	-0.13111301
142	0xbd20f85a	-0.039299347
143	0x3e305435	0.17219622
144	0x3e1eba5f	0.15500782
145	0x3ea1456f	0.31498286
146	0x3e6507ca	0.22366253
147	0xbdb2d766	-0.0873249
148	0x3ea32b4b	0.31868967
149	0x3e80d2e6	0.25160903
150	0x3c3a1ed8	0.011359893
151	0x3deaa764	0.114577085
152	0x3e718634	0.2358635
153	0x3e515abe	0.20444772
154	0x3d884a6e	0.06654821
155	0x3e079046	0.1323863
156	0x3d9d2ba6	0.07674341
157	0xbbe339f7	-0.0069344
158	0x3de747a7	0.112929635
159	0xbd8a664a	-0.06757791
160	0x3e13f2b1	0.14448048
161	0xbdd15d1d	-0.10222838
162	0xbd3022c2	-0.043001898
163	0x3e17eb24	0.14835793
164	0xbdd7fdc9	-0.105464526
165	0xbe81482b	-0.25250372
166	0x3e629636	0.22127613
167	0x3e11b448	0.14228928
168	0x3e528c83	0.20561413
169	0x3dbe4010	0.09289563
170	0x3e4355bf	0.19075678
171	0x3e0e6659	0.1390623
172	0xbb981506	-0.004641178
173	0x3e3e9b1b	0.18613856
174	0xbe5b49ad	-0.21414824
175	0x3df39413	0.11893477
176	0x3d7b0699	0.06128559
177	0x3e2bbd03	0.16771321
178	0xbd961cb9	-0.07329697
179	0xbd2fe02a	-0.04293839
180	0x3d032522	0.032017834
181	0x3dd5685f	0.10420298
182	0x3e5018e7	0.20322
183	0xbe35bcaa	-0.17747751
184	0xbdc43389	-0.09580142
185	0xbd08e71f	-0.03342354
186	0x3e72e403	0.23719792
187	0xbb0fd0e8	-0.0021944586
188	0x3d7d759f	0.06187975
189	0x3e424d27	0.18974744
190	0xbd26a3ff	-0.040683743
191	0xbd84d11a	-0.064851955
192	0xbe875d9c	-0.26438606
193	0x3de4b404	0.11167148
194	0x3d98e20a	0.074649885
195	0xbe3bdf34	-0.18346864
196	0xbab0ac9a	-0.0013479174
197	0x3d0725e5	0.032995123
198	0xbe5f9c67	-0.21837007
199	0x3cd1b66e	0.025599685
200	0x3da169ba	0.07881494
201	0xbd2ec79a	-0.042670824
202	0x3db06743	0.086134456
203	0x3e6ea6b2	0.23305777
204	0x3da7a652	0.0818602
205	0x3e422995	0.18961175
206	0x3e743dd4	0.2385171
207	0xbe0eb459	-0.13935985
208	0xbd46131e	-0.048358075
209	0x3e41f9e9	0.1894299
210	0xbd90b848	-0.07066399
211	0x3e0d9ec8	0.13830101
212	0x3d475d03	0.048672687
213	0xbe31b49e	-0.17354056
214	0x3ce2c15c	0.027680092
215	0x3e22369d	0.15841146
216	0xbcbf45d0	-0.023348719
217	0xbbceec7d	-0.0063148127
218	0x3e604f6c	0.21905297
219	0xbc6fdd3a	-0.014640147
220	0x3e34d16c	0.17658013
221	0x3e8bbd42	0.2729283
222	0x3d84da80	0.06486988
223	0x3dcf3604	0.101177245
224	0x3e52f287	0.2060033
225	0xbd79b458	-0.060963005
226	0x3e12fb4a	0.14353672
227	0xbcee165d	-0.029063398
228	0xbd40a17b	-0.047029
229	0x3dd12c28	0.102135
230	0x3e6aef5e	0.22942874
231	0xbd8de33c	-0.06928107
232	0x3bd286b1	0.006424748
233	0xbdc015e2	-0.09379174
234	0xbcd78e83	-0.026313072
235	0x3e0377cd	0.12838669
236	0x3e86ce8e	0.26329464
237	0x3d72f1d3	0.059312653
238	0x3e0d7a52	0.13816193
239	0xbc9bffa6	-0.019042801
240	0x3e5e6e3d	0.2172174
241	0x3cf52d6a	0.029928882
242	0x3dbec0ca	0.09314115
243	0xbdbe164a	-0.09281595
244	0x3daf8937	0.085710935
245	0x3e797388	0.24360478
246	0x3d235587	0.039876487
247	0x3d286e5a	0.041120864
248	0x3e542e4b	0.20720784
249	0x3e8003cf	0.25002906
250	0x3e006c45	0.12541302
251	0xbde236cb	-0.11045607
252	0xbe8839e5	-0.2660667
253	0x3d67e951	0.056618992
254	0xbdfdda77	-0.123951845
255	0x3d429ba8	0.047511727
