Assignment5/data/03001627/train/b192cda468f9390aa3f22b4b00de6dfb.npy (npy, 180128 bytes, 1 tensors)

array f4 [15000, 3]
0	0xbdeecb36	-0.11659853
1	0xbd81719f	-0.063205
2	0xbe5170d0	-0.20453191
3	0xbda470de	-0.0802934
4	0x3d0c6d61	0.034284
5	0xbd42e4e0	-0.047581553
6	0xbd326f80	-0.043563366
7	0xbe541744	-0.20712
8	0xba3e2700	-0.0007253736
9	0xbe6af9cb	-0.22946851
10	0x3d0c6d61	0.034284
11	0x3def5686	0.11686425
12	0x3e5dff3f	0.216794
13	0xbd8d7f7f	-0.069090836
14	0xbe20527b	-0.15656464
15	0x3e20c222	0.15699056
16	0x3e4e067a	0.20119658
17	0x3e93407b	0.28760132
18	0xbe5fe0f7	-0.21863161
19	0xbd902470	-0.070382
20	0xbe285d81	-0.16441919
21	0x3e0ceb18	0.13761556
22	0x3d0c6d61	0.034284
23	0xbcc0dd00	-0.023542881
24	0xbdc66a92	-0.096882954
25	0xbdc8d9ab	-0.09807142
26	0xbe66c094	-0.225344
27	0x3e56a30e	0.20960638
28	0x3e373e57	0.17894875
29	0x3e924f2d	0.2857603
30	0xbe22a643	-0.15883736
31	0xbe541744	-0.20712
32	0x3e43d988	0.1912595
33	0x3df54d17	0.11977594
34	0x3ebc0535	0.36722723
35	0x3e96ed5b	0.29477963
36	0x3dfbe007	0.12298589
37	0x3d8284d4	0.06372991
38	0x3e8d6d7a	0.27622586
39	0xb944b000	-0.00018757582
40	0x3e9369ce	0.2879166
41	0x3e96ed12	0.29477745
42	0xbe90778a	-0.282162
43	0x3c840c2f	0.01611909
44	0x3d779790	0.060447276
45	0xbd104d90	-0.03523022
46	0xbd902470	-0.070382
47	0xbe43dce0	-0.19127226
48	0xbdd09bce	-0.101859674
49	0xbceb2f8c	-0.028709196
50	0x3e3ba7b9	0.183257
51	0xbe4fefae	-0.20306274
52	0xbe541744	-0.20712
53	0x3de056c0	0.10954046
54	0x3cdf9230	0.027291387
55	0xbd902470	-0.070382
56	0x3da5c4e2	0.08094193
57	0xbd9f65ba	-0.07783075
58	0xbd81719f	-0.063205
59	0x3cd72fb0	0.026267856
60	0xbbc7b800	-0.0060949326
61	0xbe29fda9	-0.1660067
62	0x3d93b492	0.072121754
63	0xbe7a7baa	-0.24461237
64	0xbd8349ff	-0.06410598
65	0xbe5e2882	-0.2169514
66	0xbe90778a	-0.282162
67	0xbe4a31e3	-0.19745593
68	0x3da405a6	0.0800889
69	0x3e4da94e	0.20084116
70	0xbe2a179b	-0.16610567
71	0x3d8d9ff0	0.06915271
72	0xbe4df37a	-0.2011241
73	0x3d0c6d61	0.034284
74	0x3d6b5ad2	0.05745966
75	0xbe227fb2	-0.15869024
76	0xbe541744	-0.20712
77	0x3e17ab48	0.14811432
78	0xbe762ab4	-0.24039727
79	0xbd902470	-0.070382
80	0xbba7f0c0	-0.005125135
81	0xbe868dd1	-0.26280072
82	0x3d0c6d61	0.034284
83	0xbe22cd0a	-0.15898529
84	0x3de95be5	0.113944806
85	0xbe541744	-0.20712
86	0x3dfbf15a	0.123018935
87	0xbe7e927a	-0.24860564
88	0xbe2b901f	-0.16754197
89	0xbe66c094	-0.225344
90	0x3d9e775e	0.07737611
91	0x3d0c6d61	0.034284
92	0xbe4aea82	-0.1981602
93	0xbb8d3340	-0.004309088
94	0x3d0c6d61	0.034284
95	0xbc776df0	-0.015101895
96	0xbd9fc9d0	-0.078021646
97	0x3e843a31	0.25825647
98	0x3e61de6a	0.220575
99	0x3d073130	0.033005893
100	0xbe541744	-0.20712
101	0x3d949924	0.07255772
102	0xbe0af4ee	-0.13569996
103	0xbd81719f	-0.063205
104	0xbdd77c1a	-0.10521717
105	0xbe5704f5	-0.20997985
106	0x3eab19c5	0.33418098
107	0x3e98e2de	0.29860586
108	0xbd53d58c	-0.051717326
109	0xbda4655d	-0.08027146
110	0xbe66c094	-0.225344
111	0xbdfec626	-0.124401376
112	0xbe541744	-0.20712
113	0x3d7e7f08	0.062132865
114	0xbe22b5f4	-0.15889722
115	0x3e6d57b1	0.23177983
116	0x3e948c32	0.2901321
117	0xbe3cdf58	-0.18444574
118	0xbd902470	-0.070382
119	0x3d9ad9c2	0.07561065
120	0xbe905e1b	-0.28196797
121	0xbe2b8ac8	-0.1675216
122	0x3cda8340	0.026673913
123	0x3e6eb5b3	0.233115
124	0xbd10cf53	-0.03535397
125	0xbd190bcc	-0.037364766
126	0xbdfbdca6	-0.12297945
127	0x3e864fda	0.26232797
128	0x3e95d787	0.29265997
129	0xbb3b8d80	-0.0028618276
130	0xbe260640	-0.16213322
131	0x3e40d95e	0.18832919
132	0xbe071e77	-0.13195215
133	0xbdebc15c	-0.1151149
134	0x3e85d9ad	0.26142636
135	0x3e394bd0	0.18095326
136	0xbd81719f	-0.063205
137	0x3e03ae34	0.12859422
138	0x3e59ca33	0.21268539
139	0xbd81719f	-0.063205
140	0x3e08eb18	0.13370931
141	0xbd1a3504	-0.037648216
142	0x3eb4966d	0.35271016
143	0x3e804d9a	0.25059205
144	0xbe86bc33	-0.2631546
145	0xbd81719f	-0.063205
146	0x3d1d6058	0.03842196
147	0xbd12a9bc	-0.035806403
148	0xbe541744	-0.20712
149	0x3e000cf2	0.12504938
150	0xbe90778a	-0.282162
151	0xbdd5ade1	-0.104335554
152	0x3e0f600c	0.14001483
153	0xbd1b762c	-0.037954494
154	0x3d0c6d61	0.034284
155	0x3d5b539a	0.053546526
156	0xbddb6306	-0.107122466
157	0x3d0c6d61	0.034284
158	0x3cad49c8	0.021153346
159	0xbe8c46c2	-0.27397734
160	0xbe292375	-0.16517432
161	0x3dc6d920	0.09709382
162	0xbde1ea34	-0.11030999
163	0xbd902470	-0.070382
164	0x3e1a2997	0.15054928
165	0xbe90778a	-0.282162
166	0xbde7287e	-0.1128702
167	0xbe1dbbbb	-0.15403645
168	0xbdd25afe	-0.10271262
169	0x3d0c6d61	0.034284
170	0xbc6436c0	-0.013929069
171	0xbe54245d	-0.20716996
172	0x3d0c6d61	0.034284
173	0xbd664860	-0.056221366
174	0x3e6dc4e4	0.23219639
175	0xbe81a75f	-0.25323007
176	0x3e83f4cb	0.257727
177	0x3e6eb5b3	0.233115
178	0x3e06742e	0.13130257
179	0x3e7bd8ba	0.24594393
180	0x3d951aa6	0.072804734
181	0xbe541744	-0.20712
182	0xbcd6b460	-0.026209056
183	0xbe5f9814	-0.21835357
184	0xbd902470	-0.070382
185	0x3d80b1d2	0.062839165
186	0xbe3a12fe	-0.18171307
187	0x3eb112bf	0.34584615
188	0x3e996164	0.29957116
189	0x3e485eb4	0.19567376
190	0xbd98b47e	-0.07456301
191	0x3e879184	0.26478207
192	0xbd88922c	-0.06668505
193	0xbe541744	-0.20712
194	0xbe228082	-0.15869334
195	0x3d509cb0	0.05093068
196	0xbe541744	-0.20712
197	0xbde3c399	-0.11121292
198	0x3e6eb5b3	0.233115
199	0xbe76c0ec	-0.24097031
200	0x3e7fc894	0.24978858
201	0x3e60c3f6	0.21949753
202	0x3d0a32e9	0.033739958
203	0xbd76c7e0	-0.06024921
204	0xbe3ca2d3	-0.18421488
205	0x3d0c6d61	0.034284
206	0x3da2ad13	0.079431675
207	0x3d8abe0a	0.06774528
208	0x3d0c6d61	0.034284
209	0x3d03f35c	0.032214507
210	0xbda35a58	-0.07976216
211	0x3eb22c0d	0.34799233
212	0x3e7ed998	0.24887693
213	0x3d36b2b4	0.04460402
214	0xbe2c8956	-0.16849265
215	0xbb211680	-0.0024580061
216	0xbe3f4af9	-0.18680944
217	0x3d70d03c	0.058792338
218	0x3e3d6908	0.18497097
219	0x3e6eb5b3	0.233115
220	0xbdcb6206	-0.09930806
221	0xba99f480	-0.001174584
222	0xbe7c488f	-0.24637054
223	0xbe541744	-0.20712
224	0x3e78f463	0.24311976
225	0xbe899da6	-0.2687809
226	0xbd3e7075	-0.046493966
227	0x3e3ba7b9	0.183257
228	0x3e57d6dd	0.21078058
229	0xbe88191c	-0.26581657
230	0xbe4be2a9	-0.19910683
231	0x3d9ca734	0.07649079
232	0xbd902470	-0.070382
233	0xbcdc1410	-0.026865035
234	0xbe62444d	-0.22096367
235	0xbd195467	-0.037434008
236	0x3e3ba7b9	0.183257
237	0x3d6e0798	0.05811271
238	0x3d0c6d61	0.034284
239	0x3e1e2e2e	0.15447304
240	0x3d31898c	0.043344066
241	0xbe541744	-0.20712
242	0x3e438c74	0.19096547
243	0x3dddbd34	0.10827103
244	0xbd450683	-0.048101913
245	0xbe662812	-0.22476223
246	0x3ad53600	0.0016266704
247	0xbd81719f	-0.063205
248	0xbe36e6c9	-0.17861475
249	0xbe84684c	-0.25860822
250	0xbe267ad4	-0.16257793
251	0x3e332fe8	0.17498744
252	0x3b4d4480	0.0031321347
253	0x3e966555	0.29374185
254	0x3e6c6575	0.23085578
255	0x3e50655d	0.20351167
