Assignment5/data/03001627/train/b1a30ad2706247b53c5f24f851caaab7.npy (npy, 180128 bytes, 1 tensors)

array f4 [15000, 3]
-0.061378974 -0.13420454 -0.005082369 -0.034463346 -0.13400146 0.042403862 0.1584173 -0.36408627
-0.23522645 -0.148114 -0.31538484 0.04555428 -0.10547 -0.044377 0.0491607 -0.12028565
-0.13593236 -0.25376737 -0.148114 -0.4759488 0.09797653 -0.063139156 -0.14953953 -0.263381
-0.163957 -0.1491193 0.061120216 0.1012792 -0.14926879 -0.021086533 0.0648033 -0.1353305
-0.071742564 0.170165 -0.45689434 -0.25681603 -0.09051369 0.022218198 0.060491446 -0.163957
-0.038882654 0.06518692 0.14576763 -0.25237417 -0.23075785 0.159659 -0.37676322 -0.22868833
-0.148114 -0.37124383 -0.15645075 -0.101198934 0.20869742 0.086971045 0.09051002 -0.14896971
-0.14131095 0.0064369887 -0.370375 -0.13201222 0.07950752 -0.024452534 0.045989834 -0.148114
0.14700677 0.05972171 -0.175881 -0.3704207 -0.24736351 -0.163957 -0.23342593 0.041774984
0.09720146 -0.13579144 -0.15199809 0.159659 -0.15693463 -0.074763134 0.170165 -0.22063681
-0.23015378 0.060572676 -0.14942291 0.04073623 0.170165 -0.5021619 -0.25899872 0.07684532
0.022995478 0.051958747 0.14331615 -0.3775284 -0.142123 -0.163957 -0.18515982 -0.17713462
0.15508986 -0.40989077 -0.23705868 0.1613708 -0.14907849 -0.097581685 0.16985388 -0.1625121
-0.2663 -0.163957 -0.3418172 0.048119977 0.022838362 -0.149418 0.038722217 -0.07478285
0.033119224 0.05432479 0.170165 -0.46776676 -0.2558821 -0.148114 -0.1621966 -0.0701555
-0.08711022 -0.18202648 -0.247538 0.09980233 -0.148629 -0.26008475 -0.14173822 -0.14878125
-0.21706963 0.04414052 -0.13681602 -0.19796287 -0.148114 0.23416363 0.0960453 0.15484372
-0.203606 0.019981965 -0.148114 0.06472217 0.053562213 0.075969405 -0.13491665 -0.04938215
-0.148114 -0.37991333 -0.06825864 0.16931091 -0.32143247 -0.23352025 -0.15200293 -0.29097435
0.039693527 -0.087860286 0.32135403 0.09829685 -0.10344945 0.07191822 0.06708858 0.159659
-0.18130422 0.061721195 0.011865154 -0.14922336 -0.03940097 0.143816 -0.20191193 -0.22022334
0.08125474 0.32499337 0.082023904 0.0511344 -0.058518585 0.05709363 0.143816 -0.3928882
0.05696188 -0.027175844 0.31451067 0.08229951 0.048716635 -0.18900035 -0.247538 0.16668543
-0.14905913 -0.10536334 0.102999 -0.370375 -0.1331665 -0.059676252 -0.13412476 0.00026860833
-0.15599255 0.326664 0.097233385 -0.1689001 -0.13354665 -0.14016171 -0.1535084 0.009372108
0.07296269 0.132642 -0.15913762 -0.253862 -0.163957 -0.07469741 0.038945105 -0.14402558
-0.14919284 -0.05184849 0.14894958 -0.203606 -0.12906142 0.048823893 -0.14193691 0.05997326
0.159659 -0.111396104 0.06080435 -0.069935724 0.31783566 0.09825129 0.05763182 -0.14893934
-0.15351942 -0.09999518 -0.17076316 -0.247538 -0.163957 0.19109938 0.06408065 0.1540209
-0.5102304 -0.24107237 0.15251264 -0.20977357 0.034546614 -0.16355467 -0.31282666 0.04178799
-0.13822152 -0.13404217 0.058713093 -0.06118703 -0.17842731 -0.247538 -0.16331735 -0.211058
-0.22885516 -0.06611625 -0.14911409 -0.08335984 0.003625378 -0.14937995 0.023453917 -0.016904712
00000000: 8568 7bbd ea6c 09be 008a a6bb 7029 0dbd
00000010: ae37 09be acaf 2d3d 2538 223e 8469 babe
00000020: 34df 70be 32ab 17be 1f7a a1be 2097 3a3d
00000030: a800 d8bd a8c4 35bd bb5c 493d 5358 f6bd
00000040: da31 0bbe cced 81be 32ab 17be 90af f3be
00000050: eba7 c83d 1a4f 81bd e420 19be e0d9 86be
00000060: 58e4 27be bbb2 18be 3159 7a3d 786b cf3d
00000070: ebd9 18be aabd acbc 98b7 843d 1494 0abe
00000080: c4ed 92bd bc3f 2e3e 0eee e9be 647d 83be
00000090: 3e5f b9bd f002 b63c e1c5 773d 58e4 27be
000000a0: 6b43 1fbd b880 853d 1c44 153e 3037 81be
000000b0: c94b 6cbe a67d 233e 1ce7 c0be 462d 6abe
000000c0: 32ab 17be ac13 bebe a034 20be 6341 cfbd
000000d0: c7b4 553e e01d b23d 515d b93d 848b 18be
000000e0: d1b3 10be 60ed d23b cba1 bdbe 362e 07be
000000f0: d7d4 a23d ae50 c8bc d65f 3c3d 32ab 17be
00000100: f188 163e c09e 743d 261a 34be c8a7 bdbe
00000110: dc4c 7dbe 58e4 27be 3507 6fbe 3f1c 2b3d
00000120: 8f11 c73d e90c 0bbe 63a5 1bbe a67d 233e
00000130: 79b3 20be 6a1d 99bd bc3f 2e3e 9eee 61be
00000140: 6fad 6bbe 0e1b 783d 5202 19be 08db 263d
00000150: bc3f 2e3e af8d 00bf 7b9b 84be 1461 9d3d
00000160: 0361 bc3c b2d2 543d 78c1 123e 674b c1be
00000170: b188 11be 58e4 27be 899a 3dbe c762 35be
00000180: e0cf 1e3e 34dd d1be 83bf 72be 633e 253e
00000190: 08a8 18be e8d8 c7bd 2dee 2d3e 9269 26be
000001a0: 7958 88be 58e4 27be aa02 afbe 7419 453d
000001b0: 8417 bb3c 0801 19be 309b 1e3d c027 99bd
000001c0: 06a8 073d ac83 5e3d bc3f 2e3e 207f efbe
000001d0: fb02 83be 32ab 17be de16 26be b0ad 8fbd
000001e0: d866 b2bd 2665 3abe 9a7a 7dbe 2a65 cc3d
000001f0: 3332 18be d429 85be d323 11be 1d5a 18be
00000200: 8047 5ebe b1cc 343d 8019 0cbe c7b6 4abe
00000210: 32ab 17be 97c8 6f3e 66b3 c43d 5a8f 1e3e
00000220: 177e 50be 38b1 a33c 32ab 17be 0f8d 843d
00000230: 0d64 5b3d d995 9b3d 9727 0abe f044 4abd
00000240: 32ab 17be 0084 c2be 30cb 8bbd d75f 2d3e
00000250: cc92 a4be ef1f 6fbe a8a6 1bbe 97fa 94be
00000260: ae95 223d 18f0 b3bd 8488 a43e dc4f c93d
00000270: 4edd d3bd dc49 933d bd65 893d a67d 233e
00000280: d0a7 39be 5dcf 7c3d 1066 423c 02ce 18be
00000290: e962 21bd 8044 133e 00c2 4ebe 3a82 61be
000002a0: e368 a63d 8865 a63e 26fc a73d 4e72 513d
000002b0: 2fb1 6fbd 03db 693d 8044 133e a428 c9be
000002c0: dc50 693d e09f debc 8b07 a13e a58c a83d
000002d0: 188b 473d 4f89 41be 9a7a 7dbe 96af 2a3e
000002e0: f5a2 18be bcc8 d7bd 24f1 d23d cba1 bdbe
000002f0: cd5c 08be 166f 74bd 0058 09be 00d4 8c39
00000300: 83bc 1fbe 8140 a73e 4c22 c73d 26f4 2cbe
00000310: 74c0 08be 8d86 0fbe 4e31 1dbe 788d 193c
00000320: 766d 953d 4ed3 073e f9f4 22be 33fa 81be
00000330: 58e4 27be f5fa 98bd e784 1f3d 717b 13be
00000340: 02c6 18be 155f 54bd 3d86 183e 177e 50be
00000350: ad28 04be 90fb 473d e957 11be 85a6 753d
00000360: a67d 233e a423 e4bd fb0d 793d 763a 8fbd
00000370: 5bbb a23e f937 c93d 580f 6c3d 8e83 18be
00000380: 3234 1dbe 46ca ccbd 8adc 2ebe 9a7a 7dbe
00000390: 58e4 27be 8eaf 433e b73c 833d a8b7 1d3e
000003a0: 769e 02bf addb 76be 462c 1c3e e2ce 56be
000003b0: c080 0d3d e07a 27be d12a a0be e229 2b3d
000003c0: f189 0dbe 5a42 09be 247d 703d 409f 7abd
000003d0: a6b5 36be 9a7a 7dbe aa3c 27be 971f 58be
000003e0: 0259 6abe f567 87bd 5db1 18be 90b8 aabd
000003f0: c097 6d3b 0ff7 18be 6e22 c03c c07b 8abc
