Assignment5/data/03001627/train/b1cbca9a2646b6f1bf899e941ea0fe55.npy (npy, 180128 bytes, 1 tensors)

array f4 [15000, 3]
00000000: 3558 6f3e 4684 403d d851 393c d424 6abc
00000010: b5de ff3d 63b3 733e 6e07 a93e cbda 16be
00000020: c8b1 073e 3a80 03be 04f0 313d 63b3 733e
00000030: 4176 2b3e ff95 25be f95c 35be 1e6b 66be
00000040: 11fd 9cbd 7431 233e 1e6b 66be c06f 5e3b
00000050: 0533 2f3e eae0 a1bd f143 333e 63b3 733e
00000060: b880 babe f41f 283e 68bb 4c3d b3cf 45be
00000070: 774d 683e 826b 023e dc63 b9be 4078 4cbd
00000080: a189 6d3e 9d4a 66be 210d 053e bee7 7cbe
00000090: 4aec c23e 0088 34b9 3020 d7bc 566a 32be
000000a0: cbda 16be ecfc 0fbd 6357 aabe 5990 f73d
000000b0: 24d0 703e 10fc 58be 5d53 01be 9adb de3d
000000c0: 9d4a 66be 3601 a9bd 95ea 453e 619d bcbe
000000d0: 80d4 bb3b 08fc 623e e436 84bd 70ae 123c
000000e0: 63b3 733e 1360 90be cbda 16be 229f 73be
000000f0: e9b1 c13e 4da4 233e 1368 0cbe 6081 a7be
00000100: c001 13be 24d0 703e 2de7 7a3e e043 db3c
00000110: 9b10 713e 1289 723e b0cb e53d 80c0 883c
00000120: d112 1bbe cbda 16be fde3 f33d 8939 b73e
00000130: be0d 36be 61df 4e3e 80cb 693d cbda 16be
00000140: 00e4 1aba 7ce9 a33d e038 7d3d d849 dd3d
00000150: de1e c33d 774d 683e 5c89 133e b636 1fbe
00000160: 4824 d53c 63b3 733e 14a9 b63e cbda 16be
00000170: f0b6 5bbd f0c2 66be a840 36bd f6a3 3bbe
00000180: f784 963e cbda 16be 93fe 39be 4aec c23e
00000190: 8b74 e4bd 2225 f93d e41f 54be cbda 16be
000001a0: 307a a03c 9d4a 66be e063 08bd ba79 a4bd
000001b0: 9d4a 66be 00a1 babd 806e 8b3c b2bd 973d
000001c0: 2386 5d3d d45f 74be 902d 183d 774d 683e
000001d0: 8b50 113e 4ef0 50be d811 8ebd a5a0 8bbe
000001e0: 05ee 86be cbda 16be 70c3 87bd f0fd 933c
000001f0: cbda 16be 51ac 323e 9d4a 66be 5a26 043e
00000200: b5d3 4b3e b0eb 8e3e ff95 25be 207f 083d
00000210: 65af 4bbe ff95 25be 300b 90bc 1289 723e
00000220: 1c31 25bd fa04 c33d 28d7 c13c cbda 16be
00000230: 529f 4bbd 3053 12bc 2386 5d3d 10bc 73bc
00000240: ca03 f7bd cbda 16be bead 9bbd c717 12be
00000250: cbda 16be 9a4e c73d 3d30 62be ff8b 633e
00000260: 98c2 703e 1289 723e 5140 0c3e 2035 f43c
00000270: 8fd4 6ebe c445 2a3e 408a f3bb 27f9 4c3e
00000280: 4e46 963d d849 dd3d 1e6b 66be 2004 16be
00000290: ebfd 483e 0bbd 86be e8b0 d9bc 2312 8dbe
000002a0: a5c4 963e cbda 16be f883 5abd c4ab 813e
000002b0: 764f 8c3d 63b3 733e cc98 323d 1cb7 263e
000002c0: d849 dd3d 403f d9bc ff95 25be fac5 14be
000002d0: 5fca 633e ff95 25be 70f5 3ebd f4b3 1dbd
000002e0: cbda 16be f772 e23d 31cd bcbe ec10 f8bd
000002f0: 3729 74be b09c 42bc 9c41 d9bd 63b3 733e
00000300: bce6 293d 774d 683e fcf5 323e c949 39be
00000310: cbda 16be 7a79 ecbd 6ae9 69be 4214 263e
00000320: 387a 54bd 1e79 b0be cbda 16be 4199 373e
00000330: 4aec c23e 6eb7 c5bd f07b 5cbc ad61 263e
00000340: ff95 25be 3a6a 48be 7eb1 ddbd cbda 16be
00000350: 84a8 32bd 68e1 79bd 774d 683e 786e 303e
00000360: 1e6b 66be fc04 c5bd cf9e f43d 9d4a 66be
00000370: 7037 8fbc 0c9b 923d 9d4a 66be 2083 2ebd
00000380: 8305 5dbe 4537 64be c4ea 163d 9349 87be
00000390: 3a3c b83d ff95 25be 6289 31be 0efc 993e
000003a0: e73a 2d3e 93f4 60be 2c6e 3bbd 774d 683e
000003b0: c876 533e 603a b63b ff95 25be 10fc 6abe
000003c0: 8851 803d 774d 683e 6924 713e 74d1 6cbd
000003d0: 3a12 103e d849 dd3d 1289 723e 26df 07be
000003e0: ba44 1ebe c910 103e cbda 16be 6164 6bbe
000003f0: 9d4a 66be 64a6 153d 04e2 163e 1289 723e
0.23373492 0.047001146 0.011311017 -0.014291007 0.1249365 0.237989 0.3301348 -0.147319
0.13251412 -0.12841883 0.043441787 0.237989 0.16744329 -0.161705 -0.17711248 -0.225018
-0.07665456 0.15936834 -0.225018 0.003394112 0.17109306 -0.07904227 0.17506386 0.237989
-0.3642633 0.16418439 0.049983412 -0.19317512 0.226858 0.12736323 -0.36209 -0.049919367
0.23197033 -0.224894 0.1299329 -0.24697778 0.380709 -0.00017216802 -0.026260465 -0.17423376
-0.147319 -0.035153314 -0.33269796 0.12088079 0.235169 -0.21189904 -0.12629457 0.108817294
-0.224894 -0.08252184 0.19327767 -0.3683882 0.005732119 0.22166455 -0.06455782 0.008952722
0.237989 -0.281983 -0.147319 -0.23791173 0.37831047 0.15980645 -0.13711576 -0.32715893
-0.14356136 0.235169 0.24502249 0.026765764 0.2354149 0.236851 0.11220491 0.016693354
-0.15143897 -0.147319 0.1190872 0.35786083 -0.1777868 0.202024 0.05707884 -0.147319
-0.00059086084 0.08003518 0.06182182 0.108051 0.09527372 0.226858 0.14407867 -0.15548214
0.026018277 0.237989 0.3567587 -0.147319 -0.05364126 -0.225353 -0.044495255 -0.18324265
0.2939832 -0.147319 -0.18163519 0.380709 -0.11155041 0.12165286 -0.2071529 -0.147319
0.019589514 -0.224894 -0.033298373 -0.0803103 -0.224894 -0.091127396 0.017020464 0.074092284
0.054083 -0.2386468 0.037152827 0.226858 0.14190881 -0.20404169 -0.06936997 -0.27271
-0.2635347 -0.147319 -0.066290736 0.018065423 -0.147319 0.17448546 -0.224894 0.12905255
0.19904979 0.2791419 -0.161705 0.03332436 -0.19891126 -0.161705 -0.01758346 0.236851
-0.040330037 0.095224336 0.023662165 -0.147319 -0.049712487 -0.008930966 0.054083 -0.014876381
-0.120612696 -0.147319 -0.07601498 -0.14266883 -0.147319 0.09731789 -0.22088714 0.22221373
0.23511732 0.236851 0.1369641 0.029810488 -0.23323272 0.16628176 -0.007432252 0.20016919
0.07337628 0.108051 -0.225018 -0.14650011 0.19628112 -0.26316103 -0.026573613 -0.275529
0.29446903 -0.147319 -0.05334851 0.2532636 0.068510935 0.237989 0.04360275 0.16280788
0.108051 -0.026519418 -0.161705 -0.14528647 0.22245167 -0.161705 -0.046620786 -0.038501695
-0.147319 0.11057084 -0.368753 -0.121126026 -0.23843847 -0.0118781775 -0.10608217 0.237989
0.04147981 0.226858 0.17476648 -0.18094553 -0.147319 -0.11546607 -0.22842947 0.16218665
-0.05187437 -0.34467405 -0.147319 0.17929555 0.380709 -0.09654127 -0.013457283 0.16248198
-0.161705 -0.19571772 -0.108248696 -0.147319 -0.04361774 -0.06100598 0.226858 0.1722964
-0.225018 -0.09620091 0.11944353 -0.224894 -0.01748249 0.07158479 -0.224894 -0.04260552
-0.21584134 -0.22286709 0.036844984 -0.2642332 0.08995862 -0.161705 -0.17337564 0.30075115
0.16917 -0.21968298 -0.045759365 0.226858 0.2065078 0.005561158 -0.161705 -0.22947717
0.06265551 0.226858 0.23549046 -0.057816938 0.14069453 0.108051 0.236851 -0.13268718
-0.15455905 0.14068903 -0.147319 -0.2298751 -0.224894 0.036535636 0.14734656 0.236851
