Assignment5/data/03001627/train/b1f85c18b3ccbe3a8bc6f322a9608b07.npy (npy, 180128 bytes, 1 tensors)

array f4 [15000, 3]
000000 f9 77 47 be 90 8e 17 be 6d c1 6e 3e 7a 9c 36 be
       -0.1947936 -0.14800477 0.23315974 -0.17833129
000010 01 32 2e 3e cb cc 7d 3e 3d 36 96 be fc 8f 3b 3d
       0.17011262 0.24785154 -0.29338256 0.04579161
000020 4c c6 30 be f2 fc 88 3e 7a a8 d2 3d f0 0c 09 3e
       -0.17263144 0.26755482 0.102860406 0.13383842
000030 1d 6c 3e 3e 2b 81 f0 bd b5 cf 3e 3e 24 1e 42 3d
       0.1859593 -0.11743387 0.18633921 0.047392026
000040 fe 35 11 3c 46 ed 8b be 37 89 4b be b3 25 8b bd
       0.00886297 -0.27329463 -0.19876562 -0.067943
000050 54 30 52 be 8f a7 55 3e 67 05 13 be 28 d9 83 3e
       -0.20526248 0.208647 -0.1435753 0.25751615
000060 00 e7 69 3a 78 89 34 3e d3 c5 54 3e ae 84 e6 3d
       0.00089226663 0.17630565 0.20778589 0.112557754
000070 ca 60 1a be 6f 9d 1f 3e 94 6c 97 3e 6f 1c 6f 3c
       -0.15075985 0.155874 0.29575026 0.014594181
000080 86 88 34 be 1c 7c 51 be 5b fa 49 3e 58 44 27 bd
       -0.17630205 -0.204575 0.1972441 -0.040836662
000090 10 3a 8f 3e 04 65 66 3d 00 80 48 b9 9f 9f 3f 3e
       0.27973986 0.05624868 -0.0001912117 0.18713234
0000a0 3a b0 8e 3d 7a 95 31 3e 08 4a 69 bd cc 5e 16 be
       0.06967206 0.17342177 -0.056955367 -0.146846
0000b0 0a f1 14 3e 91 cf 4b 3e fe 06 9d 3d 68 15 2e 3d
       0.14545074 0.19903399 0.07667349 0.042500883
0000c0 87 34 ac 3d 30 b7 29 3d ba 79 8a 3e fe 7a 5c be
       0.08408456 0.041434467 0.27045995 -0.21531293
0000d0 24 f1 12 be aa 47 02 be 40 03 48 3e 28 82 b5 3c
       -0.143498 -0.1272265 0.1953249 0.02215679
0000e0 9e 9c aa 3d 02 57 2e 3e b3 25 8b bd 7c 99 c6 3d
       0.083306536 0.17025378 -0.067943 0.096972436
0000f0 5c f3 4f 3d 23 db 19 be 2d 6e 2c 3e a5 af 84 3e
       0.050769195 -0.15025 0.16838904 0.25915256
000100 8e b9 51 3e 40 9e 8e bd dd cb 20 3e 64 92 11 3c
       0.2048094 -0.069637775 0.15702768 0.008885
000110 e0 a7 ef bb 05 37 22 3e 64 92 11 3c 20 33 46 bd
       -0.0073137134 0.15841301 0.008885 -0.0483886
000120 f0 28 0e 3e 35 54 10 be 0a 0f 0a 3e 49 dc 3e 3e
       0.13882804 -0.14094622 0.134823 0.1863872
000130 0b 00 47 3e 3e f7 39 3e 27 7d 8c 3e 09 42 8c 3c
       0.1943361 0.18160722 0.27439234 0.017121332
000140 50 26 70 3d 9e e8 9c 3d c0 88 f6 3d cb 63 3c 3e
       0.058630288 0.07661556 0.12037802 0.18397443
000150 a9 22 95 be a7 fb 96 bd a3 17 19 be c7 4a 58 be
       -0.29128006 -0.073722176 -0.14950423 -0.21122275
000160 00 a0 5c bb 86 5b e9 bd b4 90 c3 bd 08 0b b5 3d
       -0.0033664703 -0.1139441 -0.09549084 0.08839995
000170 bc 2d 8e 3e fb e2 44 be 20 e2 2b 3e 4e 89 c1 3d
       0.27769268 -0.19227211 0.16785479 0.09450017
000180 2a 25 73 be 7e bb 18 be 88 01 70 3e 35 2b 06 3e
       -0.23744646 -0.14915273 0.23438084 0.1310242
000190 64 92 11 3c 0c 3a 86 be c7 71 89 be 60 7f f4 3b
       0.008885 -0.2621616 -0.26844618 0.0074614733
0001a0 e4 34 d0 3d 60 3f 32 bd 78 8e 35 3e f2 34 55 3e
       0.10166338 -0.04351747 0.17730129 0.20820978
0001b0 1a 43 4e 3e 98 e1 5c 3e 5f b0 3b 3e 06 4c 4a 3e
       0.20142785 0.21570432 0.18328999 0.19755563
0001c0 13 61 36 bd 66 92 80 3d aa 8f 85 bd b3 25 8b bd
       -0.04452617 0.06277923 -0.06521542 -0.067943
0001d0 80 ad 88 ba 93 4a 20 3e b3 25 8b bd cc db 65 3d
       -0.0010427684 0.15653448 -0.067943 0.056117818
0001e0 6f 41 59 be 40 72 ef 3c d8 90 fe bd f8 25 fa 3c
       -0.21216367 0.029229283 -0.124299705 0.030535683
0001f0 8b 05 59 3e db 95 65 3e a4 af 01 be 6c c9 f0 bd
       0.2119352 0.22420447 -0.12664658 -0.11757168
000200 e0 65 86 3e d0 08 1a 3e 64 92 11 3c ea 59 4b be
       0.262496 0.15042424 0.008885 -0.19858518
000210 62 66 e4 3d b3 25 8b bd d0 19 51 bd e9 0b 28 3e
       0.111523405 -0.067943 -0.051050007 0.16410793
000220 72 14 14 3e 4c 9c 92 3e a5 6b 03 3e 79 c5 8b bd
       0.14460924 0.2863487 0.12834032 -0.06824774
000230 20 5e 6b be f4 eb 54 be b0 42 12 be 4a fa 84 bd
       -0.22985125 -0.20793134 -0.14283252 -0.06493051
000240 07 ca 3e be 45 a8 2d 3e 5e d7 23 3e 2c 71 8d bd
       -0.18631755 0.16958721 0.16000125 -0.069063514
000250 64 92 11 3c ca 2d 06 bd de b5 d1 3d 38 48 18 be
       0.008885 -0.03275851 0.102397665 -0.148713
000260 2b 84 1a be f8 76 a3 bc 84 fe cd bc 0d c0 09 3e
       -0.1508948 -0.01995419 -0.025145777 0.13452168
000270 86 59 90 be 8b 05 f7 bc d4 3c 3f bd da 52 58 3e
       -0.281933 -0.03015401 -0.04668887 0.21125355
000280 0d 7e 16 3e 14 42 bc bd a7 a5 94 3e e0 14 a2 3b
       0.14696522 -0.09192291 0.29032633 0.004946336
000290 06 e1 ee bd bb 5f 76 be 50 d4 13 3e 02 25 7f be
       -0.116640136 -0.24059956 0.1443646 -0.24916461
0002a0 7d f3 3b be b3 25 8b bd c0 c7 96 bd 6d b3 bd bd
       -0.18354602 -0.067943 -0.07362318 -0.092627384
0002b0 b3 25 8b bd 38 d8 68 3d f1 be 0c be 64 92 11 3c
       -0.067943 0.056846827 -0.13744713 0.008885
0002c0 04 50 6d be 0e 20 2f 3e b3 25 8b bd 2d 24 95 bd
       -0.23175055 0.17102072 -0.067943 -0.072822906
0002d0 35 a5 3d be bb 55 36 3e 3c 6c 30 3e 7d d4 94 3e
       -0.18520053 0.17806141 0.17228788 0.29068366
0002e0 b2 28 5f be 86 dc 77 be d8 1b ee bd b3 25 8b bd
       -0.21792868 -0.24205217 -0.116264045 -0.067943
0002f0 30 de 43 bd c4 e9 8e 3e 6a 24 23 3d 00 8d d6 3b
       -0.047819316 0.27912724 0.03982965 0.00654757
000300 dc 2c 51 3e b3 25 8b bd 68 46 41 be 00 80 26 3e
       0.20427269 -0.067943 -0.18874514 0.16259766
000310 b3 25 8b bd e0 ef ef 3c 48 e3 f5 3d cc 5e 16 be
       -0.067943 0.029289186 0.12006241 -0.146846
000320 20 1f 63 3e 7c 69 19 bd 96 3e 14 be ab 7b 2e be
       0.22179842 -0.037454113 -0.14477 -0.17039363
000330 7c 3e 94 be b4 07 d1 3c e4 7b 05 be ec cf 97 3e
       -0.28953922 0.025516368 -0.13035542 0.2965082
000340 6d f3 0e 3e 1a 12 3d be 3c fd 87 3d b3 25 8b bd
       0.13960047 -0.18463936 0.066400975 -0.067943
000350 b4 26 39 3d 8c ae 73 3d 3c 87 b0 bb 1a 1f 09 3e
       0.045202926 0.059492633 -0.005387215 0.1339077
000360 34 57 38 be 9e e0 db 3d 3f c8 6a 3e d8 6a 8b 3d
       -0.18002015 0.10736202 0.2292795 0.06807488
000370 b3 25 8b bd d0 5e 3c bc d6 4f 5a be c2 80 bc bd
       -0.067943 -0.011497214 -0.21319517 -0.09204246
000380 00 46 16 be 07 43 60 3e 46 65 d7 3d a8 76 35 be
       -0.1467514 0.21900569 0.10517363 -0.17721045
000390 6c 51 6e 3d cc 5e 16 be 20 4d 0c 3e 01 f8 8b 3e
       0.05818312 -0.146846 0.13701296 0.2733765
0003a0 c9 38 22 be 38 08 98 bc 38 29 06 3d 69 71 26 be
       -0.15841974 -0.018558607 0.032754153 -0.162542
0003b0 0e 27 24 3e 6a 35 aa bd c2 4e 5e 3e 88 96 75 3e
       0.16030523 -0.08310969 0.21709731 0.23983204
0003c0 83 ee 18 3e 58 e9 e1 bc e0 65 86 3e 2f d0 8d bd
       0.14934735 -0.027577087 0.262496 -0.069244735
0003d0 b3 25 8b bd 40 28 2b bc 1b 27 03 3e 74 e1 60 3d
       -0.067943 -0.010446608 0.12807886 0.05490251
0003e0 21 d8 1f 3e 59 a3 e0 3d ad 28 5f bd e0 65 86 3e
       0.1560979 0.10968656 -0.05448215 0.262496
0003f0 08 f8 82 be 20 72 35 bd d2 95 76 3e a1 e0 41 be
       -0.25579858 -0.04429829 0.2408059 -0.18933345
