Assignment5/data/03001627/train/b274fcf203b9ba7612c19a9a8d2be7d4.npy (npy, 180128 bytes, 1 tensors)

array f4 [15000, 3]
000000 ad 32 73 3e ea b5 92 3d 36 5d 03 3e ad 32 73 3e
       0.237498 0.071636036 0.12828526 0.237498
000010 3e d6 ed bd 56 09 b9 bc 9b cd 40 be b7 96 39 be
       -0.11613129 -0.02258746 -0.18828432 -0.181239
000020 e3 81 60 be 3f 6f 55 3e 94 ff c8 bd 7f ca ed 3d
       -0.21924548 0.20843218 -0.09814373 0.11610889
000030 aa cf 80 3e 04 b0 f7 bd d4 f9 e9 3d 17 62 75 3d
       0.25158435 -0.12094119 0.11424604 0.059908
000040 18 16 4f 3d 1d a6 c9 3d bb ef 38 be e6 69 e2 bd
       0.05055818 0.09846137 -0.180602 -0.11055355
000050 aa f3 a8 3d 1a 98 8e bb 40 4f 48 3a 10 f4 17 3d
       0.082496 -0.004351628 0.00076412037 0.03709799
000060 33 6b 39 3e a0 38 e9 3c c7 ce d9 3d 17 62 75 3d
       0.181073 0.028469384 0.10635143 0.059908
000070 93 75 f9 bd 5e 79 90 be 33 6b 39 3e 81 14 18 be
       -0.12180629 -0.28217596 0.181073 -0.14851572
000080 76 38 30 be b1 78 7b 3e 3d 6d 5e bd 62 1a ac be
       -0.17209038 0.24557759 -0.054303396 -0.33613878
000090 bd 52 f6 3d 86 de ab bd 05 51 68 be 5f 60 76 3e
       0.120275 -0.08392052 -0.22687156 0.240602
0000a0 a0 f7 f7 bd 0a 8c 9a be d9 d1 78 3d 7e 3c c3 bd
       -0.121077776 -0.30184966 0.060747 -0.09533022
0000b0 30 78 a9 bd ad 32 73 3e ad 55 ae bd 95 ba 9f bd
       -0.08274877 0.237498 -0.08512435 -0.077992596
0000c0 43 8f 38 3e 10 da bf bd b4 3b fb bd 48 c4 f4 3d
       0.180234 -0.09367764 -0.12267247 0.119515
0000d0 aa 48 b2 bd 28 9f a6 bd 36 7d 7a 3e 3e 5c 0c be
       -0.08705266 -0.081358254 0.24461827 -0.13707063
0000e0 d8 32 e3 3d cb 13 38 be 5f c3 95 bd 70 d2 a1 bd
       0.11093682 -0.179763 -0.07312655 -0.07901466
0000f0 99 79 7d be 82 ab 30 be 32 6b c3 be da 1c 77 be
       -0.24753417 -0.17252925 -0.3816772 -0.241321
000100 61 e9 36 be 15 70 21 3d 92 e6 36 bc 5d e2 38 be
       -0.17862464 0.03941353 -0.011163371 -0.180551
000110 cc 75 8a bd 4a 99 54 ba ff 72 18 be 84 f0 84 bd
       -0.06760749 -0.000811 -0.14887618 -0.06491187
000120 7b 93 67 be de 02 59 3e 64 a8 cb 3d b0 fb 81 3e
       -0.22614853 0.211925 0.09944227 0.25387335
000130 48 c9 63 3d ec 41 12 3d 0b 52 37 3e 72 4e 3a be
       0.05561188 0.0357074 0.1790239 -0.18193987
000140 bc 82 48 be 17 62 75 3d ff 96 0d be 3e 03 88 be
       -0.19581121 0.059908 -0.13827132 -0.26564974
000150 98 05 b2 3d f5 2f 89 bd ff 77 96 be 92 3e f6 bd
       0.08692473 -0.066986 -0.29388425 -0.12023653
000160 ca c0 cd 3c c0 87 1e 3d ec d1 62 be 6b ea 26 3e
       0.025116343 0.03870368 -0.22150391 0.16300361
000170 e8 3c fb 3c 94 08 87 3e 0d c7 33 bd d6 bb 9d be
       0.03066869 0.26373732 -0.043891 -0.3080737
000180 b8 f0 67 be cc d0 38 bd 2e 43 a3 be bd 52 f6 3d
       -0.2265042 -0.045121 -0.31887192 0.120275
000190 73 63 f7 bd f0 4e 1a be d9 d1 78 3d b3 f6 dc bd
       -0.12079515 -0.15069175 0.060747 -0.10789242
0001a0 2e 17 53 be 1c fa 81 bd 9c 5d 27 be 83 39 cd 3d
       -0.20614311 -0.06346533 -0.16344303 0.10020735
0001b0 72 ce 80 3d 23 fd 80 3d e0 20 5b 3d df b4 c1 3c
       0.06289376 0.06298282 0.05349815 0.023645816
0001c0 8c d5 2c be eb 34 aa be b6 fb 94 be cc d0 38 bd
       -0.16878337 -0.33243498 -0.2909829 -0.045121
0001d0 5b 66 a5 be 05 6a 71 bd 74 f9 b6 3d 48 56 98 3d
       -0.32304654 -0.058939 0.08934298 0.07438332
0001e0 86 a2 67 3e 18 94 14 be 67 b7 a9 be 71 1c 40 be
       0.22620592 -0.14509618 -0.33147737 -0.1876085
0001f0 b7 96 39 be 2c c4 9e be 33 6b 39 3e 60 b1 3b bb
       -0.181239 -0.31009042 0.181073 -0.002863966
000200 e7 cc 95 3d 4e 3a 76 3e 19 8e 37 be a4 90 87 be
       0.07314473 0.24045679 -0.179253 -0.2647754
000210 56 a6 17 3e 5b b2 3a be 10 63 21 bd 4a 99 54 ba
       0.14809546 -0.182321 -0.039401114 -0.000811
000220 7c 92 23 3e 4c e3 e9 3d da 1c 77 be 3d 65 12 be
       0.15973848 0.114203066 -0.241321 -0.14296432
000230 e1 6f 6e be 5f 60 76 3e d4 fa a4 bd 45 fb 1c be
       -0.23284866 0.240602 -0.08055654 -0.15330227
000240 bb ef 38 be ba 31 26 be 42 17 92 be 1f 67 1a 3a
       -0.180602 -0.16229907 -0.2853337 0.000589
000250 98 06 cf bd 0a 96 9f bd 4a 27 91 3e b2 00 49 bd
       -0.101086795 -0.077922896 0.28350288 -0.04907293
000260 bc 00 f6 3d 3d 79 90 3e 38 66 19 3e e2 8d 8c 3d
       0.12011859 0.28217497 0.149804 0.068629995
000270 22 c7 f6 bd 04 99 95 bd 28 6b 73 bd 98 63 24 bd
       -0.120497 -0.07304576 -0.059428364 -0.040134043
000280 40 17 8d bd fe 6e 4a be 36 9b 41 be b7 96 39 be
       -0.068892 -0.19768903 -0.18906865 -0.181239
000290 78 10 9a be 05 6a 71 bd 48 2a 93 3c 9e 61 8e 3d
       -0.3009069 -0.058939 0.017964497 0.06952213
0002a0 8e 80 54 be 5f 1c fa 3d b8 29 e3 3c 96 79 83 be
       -0.20752165 0.122124426 0.027729854 -0.256787
0002b0 9a 3d ca bd 9b c0 55 be 33 6b 39 3e 60 0b 01 be
       -0.09875031 -0.20874254 0.181073 -0.12601995
0002c0 e8 ee 3f bd bd 52 f6 3d cc b9 cc bd cc d2 09 be
       -0.046858698 0.120275 -0.099963754 -0.13459319
0002d0 dd dc 74 3e 72 1a 62 3e 36 1c d3 3d 11 71 68 3e
       0.23912378 0.220804 0.10308115 0.22699381
0002e0 80 05 1e bc 6a 3a 20 3d c8 75 55 be 22 fb 30 be
       -0.009644866 0.039118208 -0.20845711 -0.172833
0002f0 d9 78 d5 3c a0 da 89 be ff 98 84 3d 47 95 d3 3d
       0.026058601 -0.2692461 0.06474494 0.10331207
000300 1f 67 1a 3a 5d 75 1e be da 4b 80 be f8 07 43 be
       0.000589 -0.15474458 -0.2505787 -0.19046009
000310 c0 ed 89 bd 94 f3 f2 bd 4b b0 50 be 67 26 58 bd
       -0.067348 -0.11862865 -0.2037975 -0.052771
000320 23 2d 87 be 22 c7 f6 bd 2b 50 72 bd 2f 4c 5e 3d
       -0.26401624 -0.120497 -0.059158485 0.054271873
000330 1f 67 1a 3a b2 90 01 3e 16 87 99 3d da 1c 77 be
       0.000589 0.12652853 0.07496469 -0.241321
000340 16 92 61 bd 5a 4a b1 3c 5f 60 76 3e 80 aa 93 ba
       -0.05507096 0.021641899 0.240602 -0.0011266023
000350 7c 53 b5 3d 05 6a 71 bd 4e a8 31 be 4d da 41 be
       0.08853814 -0.058939 -0.1734936 -0.18930931
000360 66 54 90 3e e8 91 3a 3e 55 f5 8d 3d bb ef 38 be
       0.2818939 0.18219721 0.06931559 -0.180602
000370 9f a6 2a be d7 b2 61 be 35 c5 67 3e 09 c4 3b 3e
       -0.16665123 -0.22040878 0.22633822 0.183365
000380 9e 8c 05 3e ad 32 73 3e 90 3a ed bd ab 24 37 be
       0.13041922 0.237498 -0.115834355 -0.17885081
000390 08 bc 07 3d fd 63 2b be 1a de aa be 5d e5 91 be
       0.033138305 -0.16737361 -0.33372575 -0.28495303
0003a0 48 e8 31 be ab 5e c2 be 68 e8 0e be 86 29 2e be
       -0.17373765 -0.3796285 -0.13955843 -0.17008027
0003b0 5c 9f a7 be 02 32 d9 3b 89 d0 38 be d5 64 8e 3d
       -0.3273877 0.006628276 -0.180483 0.06952826
0003c0 f9 b9 1b be 2a 43 1d 3e bf 09 02 3e 4a 99 54 ba
       -0.15207662 0.15357652 0.1269903 -0.000811
0003d0 2a c6 ab bd fe 3b ee bd 96 79 83 be c2 10 2f be
       -0.08387406 -0.11632536 -0.256787 -0.17096236
0003e0 bc 60 a6 be 41 9f 97 bd 2f c4 3a be f8 6e 89 be
       -0.32495677 -0.07403422 -0.182389 -0.26842475
0003f0 96 79 83 be 30 bc 39 bc d0 93 41 3c 3c ec 50 bc
       -0.256787 -0.011336371 0.011815026 -0.012751635
