Assignment5/data/03001627/train/b2a658572331c578340a1d09e918e861.npy (npy, 180128 bytes, 1 tensors)

array f4 [15000, 3]
0.191224 -0.051228076 0.12212542 0.191224 0.313202 0.15596914 -0.0799087 0.015241096
0.089927 -0.191135 -0.0318013 0.03574951 -0.152899 -0.3937005 0.15668064 0.191224
-0.47698647 -0.17918307 0.191224 -0.2623404 0.15991376 -0.191135 -0.08060889 0.14316416
-0.18913814 -0.45808727 0.128163 0.09729023 0.04370421 0.089927 0.038868085 -0.107003
-0.12107977 -0.14009863 -0.030531 -0.013613708 -0.057393312 -0.030531 0.009971447 -0.120504156
-0.03173553 -0.1906656 0.1161071 0.24593265 0.089927 -0.17587683 -0.42617255 -0.177724
-0.152899 -0.11118658 -0.19301818 0.12170951 -0.107003 -0.04737422 -0.18905702 -0.17494625
0.166399 -0.031383246 0.038695972 0.089927 0.007598147 -0.107003 0.11847315 0.191224
-0.10780877 0.15037812 -0.10175975 -0.107003 0.10230303 -0.10888249 0.31522784 0.089927
-0.040738232 -0.107003 0.037064046 0.191224 -0.09363351 -0.06713788 -0.191135 -0.03858117
-0.021404237 -0.073068336 0.2665611 0.089927 -0.003527984 0.26420635 0.089927 0.074162364
-0.04990598 -0.21247168 -0.048848495 0.19782844 0.151105 -0.07011939 -0.107003 -0.18696374
-0.15122546 -0.06457021 -0.21594468 0.0018279254 -0.039368074 0.151105 -0.1749361 0.33771282
0.16049606 -0.07635677 -0.1048709 -0.21596 0.10942374 0.30790445 0.089927 -0.15312758
-0.43397552 -0.21596 -0.07343806 0.3513335 0.13390945 0.06934707 0.32296255 0.089927
0.17110169 -0.47213364 -0.21596 -0.11849026 0.35110804 0.13603203 0.11298545 -0.107003
-0.18544142 -0.018978998 -0.00071435794 0.151105 -0.152899 -0.26244193 -0.21114592 0.08375528
-0.107003 0.05875068 -0.191135 0.2543499 0.119426474 -0.056328103 -0.003741894 0.151105
0.191224 -0.3274681 0.1422414 0.191224 0.20229636 0.13441363 -0.18788454 -0.084479645
-0.21596 0.13840266 -0.030531 0.039677966 0.15985705 0.2939006 0.089927 0.1879344
-0.030531 -0.040400393 -0.14306928 -0.030531 -0.06408462 -0.0038626343 0.13727966 0.151105
0.15630606 0.047279 0.166399 -0.1279812 -0.041821018 0.151105 0.021477744 -0.030531
-0.1333407 0.18952733 -0.09466788 -0.21596 -0.0825436 0.34830594 0.14516813 0.117210165
-0.035116065 -0.19880994 -0.191135 0.14355774 0.119518206 0.095253795 -0.10244823 -0.21596
-0.16194253 -0.0024087187 0.089927 0.11086075 -0.052706 0.16256277 -0.12741052 0.33709288
0.16112839 -0.10516657 -0.107003 -0.14975561 0.12597209 -0.107003 -0.12538208 0.04139988
0.09990145 0.151105 0.17454478 -0.20075235 0.128163 0.15289955 -0.030531 0.041878648
0.019891366 0.16108885 0.151105 0.16294385 -0.09862374 -0.21596 -0.17184146 0.3511896
0.13557802 0.191224 -0.08702879 -0.19249365 -0.152899 -0.29416683 -0.18406363 0.058609575
0.12601928 0.089927 -0.005808592 -0.107003 -0.093220726 -0.191135 -0.09528903 0.0053237528
-0.007991269 -0.090609275 0.166399 -0.08706361 0.22187397 0.151105 -0.008362219 0.18531927
0.089927 0.0023326427 -0.107003 0.1530624 0.10568228 0.121383235 0.089927 0.1625344
00000000: 39d0 433e 88d4 51bd e41c fa3d 39d0 433e
00000010: 035c a03e 60b6 1f3e 2ca7 a3bd cab5 793c
00000020: a62b b83d e5b8 43be 1442 02bd 146e 123d
00000030: 8e91 1cbe 1d93 c9be e470 203e 39d0 433e
00000040: 9237 f4be c47b 37be 39d0 433e 7b51 86be
00000050: 6fc0 233e e5b8 43be 4616 a5bd a099 123e
00000060: 6ead 41be 6a8a eabe 293d 033e 1a40 c73d
00000070: 3003 333d a62b b83d 2434 1f3d 6424 dbbd
00000080: acf8 f7bd 0476 0fbe 261c fabc 080c 5fbc
00000090: 4015 6bbd 261c fabc 485f 233c e2ca f6bd
000000a0: 1dfd 01bd d83d 43be 8fc9 ed3d c5d5 7b3e
000000b0: a62b b83d 0e19 34be 4a33 dabe 48fd 35be
000000c0: 8e91 1cbe cab5 e3bd 8fa6 45be d642 f93d
000000d0: 6424 dbbd 780b 42bd 2a98 41be 1c25 33be
000000e0: 8064 2a3e b88b 00bd ab7f 1e3d a62b b83d
000000f0: e0f9 f83b 6424 dbbd 0da2 f23d 39d0 433e
00000100: d8ca dcbd b9fc 193e 6a67 d0bd 6424 dbbd
00000110: 4084 d13d c8fd debd 8b65 a13e a62b b83d
00000120: 22dd 26bd 6424 dbbd 78d0 173d 39d0 433e
00000130: edc2 bfbd 967f 89bd e5b8 43be 4a07 1ebd
00000140: f057 afbc daa4 95bd b27a 883e a62b b83d
00000150: c035 67bb 0e46 873e a62b b83d 70e2 973d
00000160: 366a 4cbd 2d92 59be 5c15 48bd 8a93 4a3e
00000170: 45bb 1a3e c19a 8fbd 6424 dbbd 6c73 3fbe
00000180: d9da 1abe 633d 84bd 9a20 5dbe 0097 ef3a
00000190: 6b40 21bd 45bb 1a3e 7322 33be b2e8 ac3e
000001a0: 1459 243e f060 9cbd 8ec6 d6bd 9e24 5dbe
000001b0: 8e19 e03d a7a5 9d3e a62b b83d 7acd 1cbe
000001c0: 0a32 debe 9e24 5dbe b266 96bd fce1 b33e
000001d0: 8f1f 093e d605 8e3d 595b a53e a62b b83d
000001e0: 4835 2f3e 80bb f1be 9e24 5dbe 05ab f2bd
000001f0: 6fc4 b33e fb4b 0b3e ea64 e73d 6424 dbbd
00000200: 5be4 3dbe d879 9bbc c043 3bba 45bb 1a3e
00000210: 8e91 1cbe ca5e 86be a336 58be e387 ab3d
00000220: 6424 dbbd 8ea4 703d e5b8 43be 263a 823e
00000230: de95 f43d 4cb8 66bd 903a 75bb 45bb 1a3e
00000240: 39d0 433e e6a9 a7be bba7 113e 39d0 433e
00000250: c726 4f3e baa3 093e ce64 40be aa03 adbd
00000260: 9e24 5dbe 6db9 0d3e 261c fabc 5d85 223d
00000270: 91b1 233e 247a 963e a62b b83d e071 403e
00000280: 261c fabc e27a 25bd c180 12be 261c fabc
00000290: cc3e 83bd 4024 7dbb 0a93 0c3e 45bb 1a3e
000002a0: b20e 203e a0a7 413d 8064 2a3e 810d 03be
000002b0: 844c 2bbd 45bb 1a3e 18f2 af3c 261c fabc
000002c0: 778a 08be 7413 423e 3ce1 c1bd 9e24 5dbe
000002d0: 9e0c a9bd 2855 b23e f4a6 143e e20b f03d
000002e0: ddd5 0fbd d594 4bbe e5b8 43be cd00 133e
000002f0: f6c5 f43d 6c14 c33d 61d0 d1bd 9e24 5dbe
00000300: 43d4 25be 98db 1dbb a62b b83d f60a e33d
00000310: 3fe2 57bd db76 263e e777 02be 7097 ac3e
00000320: d7fe 243e 9261 d7bd 6424 dbbd 8959 19be
00000330: d4fe 003e 6424 dbbd 2964 00be ec92 293d
00000340: 2299 cc3d 45bb 1a3e debb 323e 0692 4dbe
00000350: 293d 033e b391 1c3e 261c fabc f288 2b3d
00000360: 38f3 a23c 7af4 243e 45bb 1a3e c1da 263e
00000370: 3efb c9bd 9e24 5dbe 35f7 2fbe 20cf b33e
00000380: f7d4 0a3e 39d0 433e 263c b2bd 0e1d 45be
00000390: 8e91 1cbe 099d 96be 2d7b 3cbe 9810 703d
000003a0: 330b 013e a62b b83d 0056 bebb 6424 dbbd
000003b0: 82ea bebd e5b8 43be e526 c3bd e072 ae3b
000003c0: d0ed 02bc 5b91 b9bd 8064 2a3e 684e b2bd
000003d0: ee32 633e 45bb 1a3e b001 09bc 56c4 3d3e
000003e0: a62b b83d 40df 183b 6424 dbbd 64bc 1c3e
000003f0: f46f d83d c697 f83d a62b b83d 6b6f 263e
