Assignment5/data/03001627/train/b2c838917b9f0fb68a40e1421d6a3cbf.npy (npy, 180128 bytes, 1 tensors)

array f4 [15000, 3]
0	0x3dade222	0.08490397
1	0x3ece453d	0.402872
2	0x3e0d93d8	0.13825929
3	0xbd049462	-0.03236807
4	0x3ea49a9c	0.32149208
5	0x3e2c5c38	0.16832054
6	0xbe219cb9	-0.15782441
7	0x3db2029c	0.08691904
8	0x3d957f03	0.07299616
9	0xbcfd4fd4	-0.030921854
10	0x3d381b65	0.044948
11	0x3d147c68	0.036251456
12	0x3c926bb8	0.01787363
13	0xbb8b2a0c	-0.0042469557
14	0x3e310af7	0.17289339
15	0xbe295332	-0.16535643
16	0x3dc4f2ec	0.09616646
17	0xbd8908c5	-0.06691126
18	0x3d805d87	0.06267839
19	0xbcf6a1d0	-0.030106455
20	0xbd4fb847	-0.05071285
21	0xbe136dde	-0.1439738
22	0x3ebf7305	0.3739244
23	0x3dbf5bde	0.09343694
24	0xbe3593cb	-0.1773216
25	0x3db799f0	0.08964908
26	0x3c52ce4c	0.012866568
27	0x3d840424	0.06446102
28	0x3e9092c8	0.28236985
29	0x3e296051	0.16540648
30	0x3e17fb9d	0.14842077
31	0x3ec79ad3	0.3898531
32	0x3dd3ca4f	0.10341322
33	0xbd4e0c5e	-0.050304763
34	0xbebc3061	-0.3675566
35	0xbd060f3e	-0.03272938
36	0x3e25aa23	0.16178183
37	0x3eb555cb	0.35417017
38	0x3dbab184	0.0911589
39	0x3e000c64	0.12504727
40	0x3e90ad64	0.28257287
41	0x3df2b132	0.118502036
42	0xbd83e866	-0.06440811
43	0x3d381b65	0.044948
44	0x3d987e29	0.07445938
45	0x3e4d44d4	0.20045787
46	0x3b72115a	0.0036936612
47	0xbcd4bb92	-0.025968347
48	0xbb451e28	-0.003007779
49	0xbe1ef99b	-0.15524904
50	0xbda038e9	-0.07823355
51	0xbd1943cc	-0.03741817
52	0x3ece453d	0.402872
53	0x3e181c1c	0.14854473
54	0x3e147289	0.14496817
55	0xbba3a4b5	-0.004994
56	0xbc1e79d4	-0.009672601
57	0x3caff9e4	0.021481462
58	0xbba3a4b5	-0.004994
59	0xbe3970cb	-0.18109433
60	0xbdaada44	-0.08342412
61	0x3d4004ed	0.046879698
62	0x3e18bf5f	0.14916752
63	0x3d92b7b3	0.07163944
64	0xbe9d5370	-0.3072772
65	0xbc2dd8f4	-0.010610808
66	0x3d8297f9	0.06376643
67	0xbd7992b8	-0.060930938
68	0xbd49e89e	-0.049294107
69	0x3bcac6a2	0.0061882297
70	0xbe7f1b9b	-0.24912874
71	0xbda2b3a9	-0.07944424
72	0xbe35ffbc	-0.17773336
73	0x3e5f270d	0.2179224
74	0x3c1f970c	0.009740602
75	0xbc8adf80	-0.016952276
76	0xbebd0029	-0.36914185
77	0x3d1ca6fb	0.038245182
78	0xbe3661de	-0.17810771
79	0x3eadef60	0.3397169
80	0xbd2be34f	-0.041964825
81	0x3d41bc48	0.0472987
82	0xbee02b63	-0.437831
83	0xbcca2a22	-0.024678294
84	0x3d9484b5	0.07251874
85	0xbe528328	-0.20557845
86	0xbc8dbe80	-0.017302752
87	0xbd11c8b3	-0.035591792
88	0xbcae6bf7	-0.021291716
89	0xbd74402b	-0.059631508
90	0xbe363ff7	-0.17797838
91	0x3ecd481b	0.40094075
92	0x3c011d9c	0.007880595
93	0x3d828b2a	0.063742
94	0x3df360cc	0.11883697
95	0x3e116d8a	0.14201942
96	0x3e0a32a4	0.1349588
97	0x3e5f58dc	0.21811241
98	0x3e00f2ae	0.12592575
99	0xbca39948	-0.019970551
100	0x3d381b65	0.044948
101	0xbe1e5061	-0.1546035
102	0xbb82c928	-0.003991265
103	0xbee02b63	-0.437831
104	0xbd6a62e7	-0.057223227
105	0x3db73c9e	0.08947109
106	0x3d381b65	0.044948
107	0xbb6e1800	-0.0036330223
108	0x3d5303b5	0.051517207
109	0xbee02b63	-0.437831
110	0xbd3b52dd	-0.04573332
111	0xbe2922d8	-0.16517198
112	0x3e3cf9d4	0.18454677
113	0xbd50c6f2	-0.05097098
114	0x3c9d76a5	0.019221613
115	0xbe6a7036	-0.22894368
116	0xbda14ee4	-0.07876375
117	0x3de64bcd	0.112449266
118	0xbba3a4b5	-0.004994
119	0x3dc920c0	0.098207
120	0xbc2a5fc8	-0.010398813
121	0xbee02b63	-0.437831
122	0x3d0d3171	0.03447098
123	0x3dc5b93a	0.0965447
124	0xbba3a4b5	-0.004994
125	0xbe125bbf	-0.14292811
126	0xbce6a534	-0.028154947
127	0x3d381b65	0.044948
128	0x3df5040e	0.11963664
129	0xbd57ed42	-0.0527165
130	0x3d381b65	0.044948
131	0x3de596b8	0.11210388
132	0x3c6b5152	0.01436265
133	0xbe44940b	-0.19197099
134	0xbda29e50	-0.07940352
135	0x3e04f322	0.12983373
136	0x3e971d19	0.29514387
137	0x3e04f988	0.12985814
138	0xbded368a	-0.11582668
139	0x3d60e8b8	0.054909438
140	0x3da37908	0.07982069
141	0x3e0e7075	0.13910086
142	0xbba3a4b5	-0.004994
143	0x3d184cd1	0.037182633
144	0xbe2a4bfa	-0.16630545
145	0x3e190200	0.14942169
146	0xbdb36165	-0.08758811
147	0xbd9e8f05	-0.077421226
148	0x3d381b65	0.044948
149	0x3db4db03	0.08830836
150	0xbe290de5	-0.16509207
151	0x3d612040	0.054962397
152	0xbd347cf4	-0.044064477
153	0x3e1fec70	0.15617537
154	0x3dd835cc	0.10557136
155	0x3dc5396f	0.09630095
156	0xbcac458b	-0.021029254
157	0xbee02b63	-0.437831
158	0xbd664e65	-0.056227107
159	0x3ca68462	0.020326797
160	0xbe6916dc	-0.22762626
161	0xbda10299	-0.078618236
162	0x3cd1fd6b	0.025633534
163	0xbee02b63	-0.437831
164	0xbd6df2c4	-0.058092847
165	0x3e00f5e8	0.12593806
166	0x3e2b32b1	0.16718556
167	0x3df1aaac	0.11800131
168	0xbe387b2e	-0.1801574
169	0x3db7b970	0.08970916
170	0xbcd84e58	-0.026404545
171	0xbe21ded4	-0.15807658
172	0x3e727554	0.2367757
173	0xbddc10fa	-0.107454255
174	0xbd543f5f	-0.051818248
175	0xbea96639	-0.33085802
176	0xbcae10c5	-0.02124823
177	0xbe24e948	-0.16104615
178	0x3e06a81a	0.13150063
179	0xbdb6715b	-0.089083396
180	0xbe386dba	-0.18010607
181	0x3ec168c7	0.3777525
182	0xbcdb7f4c	-0.026794098
183	0xbe029c81	-0.12755014
184	0x3e8d39e8	0.2758324
185	0x3d87154f	0.06595861
186	0xbe140ea0	-0.14458704
187	0x3de2522c	0.11050829
188	0x3d195150	0.03743106
189	0xbdf956d7	-0.121747665
190	0x3e69f2a5	0.22846468
191	0x3df6d6d9	0.12052698
192	0x3c4ca424	0.012490306
193	0x3d381b65	0.044948
194	0x3d85b366	0.06528358
195	0xbe3508dc	-0.17679161
196	0x3d2c3598	0.0420433
197	0x3c8a5cf3	0.016890025
198	0x3ce777a8	0.028255299
199	0xbba3a4b5	-0.004994
200	0x3e09e0f3	0.13464718
201	0xbde16392	-0.1100532
202	0x3ec4b6b1	0.38420632
203	0x3db1742f	0.086647384
204	0x3d3781fd	0.0448017
205	0xbd77e1bc	-0.06051801
206	0x3d0abf38	0.033873767
207	0x3e13601c	0.14392132
208	0x3ebbee38	0.36705184
209	0x3ddc3deb	0.107539974
210	0x3d37e76e	0.044898443
211	0x3e0660f6	0.13122925
212	0x3e131e7a	0.14367095
213	0xbe0364ad	-0.12831374
214	0x3e88f58b	0.26749834
215	0x3de9280a	0.1138459
216	0x3e075a7a	0.13218108
217	0x3ea572d4	0.3231417
218	0x3dea7aca	0.114492014
219	0x3df135ff	0.11777877
220	0x3d381b65	0.044948
221	0x3de4ee9c	0.111783236
222	0xbe27364b	-0.16329305
223	0x3ec4ce4e	0.38438648
224	0xbc96b027	-0.018394543
225	0x3ccded99	0.02513771
226	0x3d381b65	0.044948
227	0x3de00503	0.10938456
228	0xbe223d2b	-0.15843646
229	0x3e0c78e0	0.13717985
230	0x3aab10d0	0.0013051275
231	0xbd952693	-0.07282748
232	0x3ec707da	0.38873178
233	0x3deeb442	0.11655475
234	0xbc8fd312	-0.0175567
235	0x3ec4a9d7	0.38410828
236	0x3e0e695f	0.13907383
237	0x3d9cdd88	0.07659441
238	0x3e28f008	0.16497815
239	0x3e243ad3	0.16038065
240	0xbd03a2d7	-0.032137718
241	0x3d8ae590	0.06782067
242	0x3e0a9d7e	0.13536641
243	0xbe085e27	-0.13317166
244	0x3e505068	0.20343173
245	0x3ddc30b9	0.107514806
246	0x3e0addbb	0.13561146
247	0x3de08f34	0.10964814
248	0x3de687d2	0.112563744
249	0xbe0b9f6b	-0.13635032
250	0x3d4dee50	0.0502761
251	0x3d5b7314	0.053576544
252	0xbe26b704	-0.16280752
253	0x3ea51d04	0.322487
254	0xbc868df6	-0.016425114
255	0x3e27b25a	0.1637663
