Assignment5/data/03001627/train/b36ec4a65d474384629bdb3bad305eb4.npy (npy, 180128 bytes, 1 tensors)

array f4 [15000, 3]
00000000: 5f18 3fbe 2f5f 683d c82c ee3d e0e4 5fbd
00000010: 50a8 38be 6aa1 fdbc 2886 1cbc a61b 19bd
00000020: c447 11be 6192 d6bd 854e 3c3d 8237 50bd
00000030: 86a7 e23d 72ec 86be 90cd 333b 18b7 e23d
00000040: e6e4 9cbe 61cd f83c 2b5c 8cbb e490 ac3b
00000050: 2772 25be 4114 4f3d e4b6 c53e 9157 913e
00000060: d3de 133e 2c5b 50bd 625c 45be 67c4 04be
00000070: e892 683d 0cbf d8bd 9869 fbbd 1d6b c53d
00000080: f840 2e3e b0bc dcbc d128 313d e0c1 72bc
00000090: d242 96bd 6f45 b63e 4140 833e 7e9b 37be
000000a0: 0a55 803d 17d6 c5bd 3eb8 bc3d 96c1 19be
000000b0: 16b6 babd f822 473d 9d2c 4d3e 8786 673e
000000c0: 60bc efbc ed6a 293d e710 6abd fa8f 46be
000000d0: 6028 663d 9216 a2bc 4825 2ebd b1c6 2b3d
000000e0: 2a24 61bd 6719 d13d 8b37 59be 07af 44bd
000000f0: dcd0 dc3d 122d 3b3d 6cbc ecbd 6b33 ffbd
00000100: ccfb 61be b627 a1bd 2c66 4abe ad1d 2cbe
00000110: b6e2 59be 7216 083d 548c 913e 2c7f 703e
00000120: 7353 ec3d 46af 363e 9da1 543e 8bd5 243d
00000130: c532 c3bd 71d3 dabd f7b3 243e 0674 85be
00000140: e8f7 f5bd 581e dabd e2cb 193e 9b1e 4f3e
00000150: 12fe c83d b0fb 06be 9f0f cdbd 9398 1f3e
00000160: 6e3f 29be 098c 17be dab0 2dbe ebd1 933d
00000170: 5dd1 143e d888 a9bd f2bf b3be 43fb 033e
00000180: 1d46 e2bd 77c3 f93d 5aa9 463e 17b8 23be
00000190: 78d5 8bbe 6546 0bbe 541d da3d 2159 09be
000001a0: d12e f1bd 09ff 3e3e a353 383e 8d47 363e
000001b0: 74db 2c3e 175b 973e 11d2 3e3e ed74 4e3e
000001c0: fcf2 753d 3644 d53d 0a4e 143e 276e 18be
000001d0: 80fb 1cbe 47eb 343e e285 353d 1aa5 8b3d
000001e0: 61ce ecbd d5e3 93be 0064 1eb9 4d53 253e
000001f0: ba8c 54be 00ae 22be a0a3 0cbe ccbf 65be
00000200: 61fc ccbd 447a c53c f877 443d fe84 b4bd
00000210: 24ea 8f3d 7e12 8fbe 1028 a43d 0b24 2dbd
00000220: 6c00 163e a1f4 523e 975b 1b3e 9448 703d
00000230: 7b19 073e 63c5 b1bd 05f8 96bd e665 17be
00000240: 2cdc 47be d649 9f3d 7f3c 093e b671 edbd
00000250: 48c6 46be 8aa8 94bd 64ee 1dbc 685d c0bd
00000260: 28be bfbd 4a97 143e 6d5d 543d a817 f83d
00000270: 29bb d53d a0e5 993e e71e 5f3e 1c7c 093d
00000280: e2b3 1b3d 1ad7 eabc 673b cebd ed9c 7abe
00000290: 20b9 92ba 7425 093e bfce a5be 0036 b538
000002a0: 7213 7b3d b626 e7bd 2297 b9bd 988a db3d
000002b0: 115f 133e 2b63 503e e86f d7bd 1270 fdbd
000002c0: a446 00be 4662 1abe 7c9c 32be be4f 19be
000002d0: eb30 8bbc 2b69 993e 5ca6 7e3e 0cd6 fa3d
000002e0: 1e62 a4be e47c 2e3c e1d2 a6bd a829 1b3d
000002f0: 6c3d c03d 72f8 423e 8294 5f3d 2fb0 f8bd
00000300: c39c a2bd 4899 97be 7223 8f3d c7d4 723c
00000310: 3f03 433d ccb8 7abd 8dfc f3bd 505f 3d3d
00000320: 50b5 863c 7d16 bdbc b912 203d 3001 ffbd
00000330: 1b7f 243e 616a b8bd a564 42be 9a2a 0f3d
00000340: 3658 ebbd 4e49 9bbd f1a5 713d aead 8fbe
00000350: c02c a63d 05f9 683c 81fe 91be c90b e83d
00000360: 960f 1a3e 6c25 a5be be2f 68bd aeb9 343e
00000370: 7674 9cbd 7ebc 49be 3d44 90bd 1ea0 15be
00000380: e77b 86bd d88f 22be 010b 333e b9bd 3f3e
00000390: d2ef 043e b29a 0fbe b864 0fbe e06e f13d
000003a0: 892c 9bbe 3a70 f23c 942b 133e cec5 7b3e
000003b0: 78ea 463e 5304 033e 7336 89be b00d fcbc
000003c0: 6f01 babc 539a 41be 8074 43bb 128a bfbc
000003d0: fa87 47be 3093 5a3b a51f e2bd f3c1 2e3d
000003e0: 363f 9ebc d929 943d 7725 333d 6441 babd
000003f0: bcbb 0b3e e6fd 2a3d 64b6 af3d a3a1 08be
-0.1866164 0.0567314 0.11629635 -0.05466163 -0.18032956 -0.030960757 -0.00955347 -0.037379883
-0.14187533 -0.10477138 0.04597332 -0.050834186 0.11067109 -0.26352268 0.0027435757 0.110700786
-0.30643386 0.03037137 -0.004283448 0.0052662957 -0.16156827 0.050556425 0.38616097 0.2838712
0.1444047 -0.0508682 -0.19273522 -0.12965547 0.056780726 -0.10583314 -0.12276 0.09639571
0.17016971 -0.026945442 0.043251816 -0.014816731 -0.07336964 0.3559985 0.2563496 -0.1793041
0.0626622 -0.09659975 0.09214829 -0.15015253 -0.091167614 0.048617333 0.2003655 0.22609912
-0.029264629 0.041361738 -0.057145026 -0.1939086 0.05619085 -0.019786153 -0.042516023 0.041937534
-0.05496613 0.10209923 -0.21212594 -0.04801848 0.10782024 0.04569728 -0.11559376 -0.12460979
-0.22068709 -0.078689024 -0.19765538 -0.16808195 -0.2127789 0.03322453 0.28427374 0.23486012
0.11539354 0.17840299 0.20764776 0.040242713 -0.09531168 -0.106848605 0.16084276 -0.2606508
-0.12010175 -0.10650319 0.15019181 0.20226519 0.09814085 -0.13181949 -0.10012745 0.15585546
-0.16528103 -0.14799513 -0.16961995 0.07217773 0.14532991 -0.08278054 -0.3510738 0.12888817
-0.11048529 0.12195485 0.1940054 -0.15988193 -0.273113 -0.13601072 0.10650125 -0.13412906
-0.11776508 0.18651976 0.18000655 0.17800732 0.1688059 0.29561684 0.18634821 0.20161791
0.06004618 0.10413401 0.14482895 -0.1488577 -0.15330315 0.17667876 0.044317134 0.068186
-0.11562801 -0.2888476 -0.00015105307 0.16145058 -0.20756808 -0.15886688 -0.13734293 -0.22436446
-0.10009075 0.024106152 0.047965974 -0.08814429 0.07027081 -0.27943796 0.08015454 -0.0422707
0.14648598 0.20601131 0.15171658 0.058662966 0.13193314 -0.08680227 -0.07371525 -0.14784965
-0.19517583 0.07777755 0.13401984 -0.11593954 -0.19411576 -0.07258709 -0.009639356 -0.09392816
-0.09362441 0.14510837 0.05184691 0.12113887 0.104360886 0.30058002 0.21789132 0.033565626
0.038013346 -0.028667022 -0.10069924 -0.24473925 -0.0011194088 0.13393193 -0.32384297 8.640811e-05
0.06129784 -0.112866804 -0.090620294 0.10719794 0.14391734 0.2035033 -0.10519391 -0.12374891
-0.12526947 -0.15076551 -0.17442507 -0.14971825 -0.0169911 0.2996305 0.24868149 0.122478575
-0.32106107 0.010649893 -0.08145691 0.037881523 0.09386715 0.19040087 0.054584987 -0.12142979
-0.07940056 -0.29609132 0.069891825 0.014821238 0.047610518 -0.061211392 -0.119134046 0.046233475
0.016443878 -0.023082012 0.039080355 -0.124513984 0.16064112 -0.09004665 -0.18983705 0.034952737
-0.11491434 -0.07582341 0.058996145 -0.28062195 0.08114004 0.014219527 -0.28514484 0.11330373
0.15045008 -0.32255113 -0.056686155 0.17648956 -0.07639401 -0.1970081 -0.070442654 -0.14611861
-0.06566601 -0.15875185 0.17484666 0.18724717 0.12982109 -0.14023855 -0.14003265 0.11788726
-0.30307415 0.02959453 0.14372092 0.24587175 0.1942538 0.12794618 -0.26799354 -0.030768245
-0.022705762 -0.18906526 -0.0029824078 -0.023381267 -0.19485465 0.003335189 -0.11041192 0.042665433
-0.01931725 0.07234544 0.0437369 -0.090945035 0.13645834 0.041746043 0.0857971 -0.1334291
