Assignment5/data/03001627/train/b3ef15af53eff822423da7f4f4231bf7.npy (npy, 180128 bytes, 1 tensors)

array f4 [15000, 3]
000000 85 ef 6b be 0a bf 53 3c 66 6a 49 be f6 cc 16 3e
       -0.23040588 0.012923965 -0.19669494 0.14726624
000010 dd 19 c7 bd a3 c9 65 be 2c 3b af 3d 0f 45 a9 be
       -0.0972173 -0.224402 0.08556208 -0.330605
000020 6f 8f a8 3d 54 e4 94 3d 0f 45 a9 be 72 d0 cf bd
       0.08230483 0.07270113 -0.330605 -0.1014718
000030 a2 6b 46 3e 7c 33 29 3e 09 dd 45 3e fb ce 87 3e
       0.19376996 0.16523546 0.193226 0.265251
000040 cd da 11 be 62 0b 67 be d0 66 ff bd 93 d2 b6 3c
       -0.14243622 -0.22562936 -0.12470782 0.022317206
000050 f2 7d 0a 3e b2 e4 4c be 5a 41 fa bd a3 c9 65 be
       0.13524607 -0.20009115 -0.12219496 -0.224402
000060 7c 44 b3 3d 91 0a bb 3e 4f c5 5e 3e 00 61 60 3d
       0.08753297 0.365315 0.21754955 0.054780006
000070 27 dd 16 3b e6 0a b7 bd 4a d9 70 be 80 f7 3e bb
       0.002302 -0.089376256 -0.23520389 -0.002913922
000080 a6 72 35 be 6e 51 4a 3e 08 98 8c 3e d5 16 47 3e
       -0.17719516 0.19757625 0.2745974 0.19442303
000090 c0 99 d4 bd 16 87 b3 3c 2a 40 c0 3d d0 24 82 be
       -0.10380888 0.021915 0.09387238 -0.2541871
0000a0 16 87 b3 3c 50 8f 13 3c 1e 5a 32 3e 3f c1 4e be
       0.021915 0.009006336 0.1741719 -0.20190905
0000b0 48 de 79 be a0 21 4c bd 16 87 b3 3c 48 58 64 3c
       -0.244012 -0.049836755 0.021915 0.0139370635
0000c0 98 77 41 bd 16 b7 8f 3e ac 27 5c 3e a6 c0 ea 3d
       -0.047233194 0.2806937 0.21499509 0.11462526
0000d0 27 dd 16 3b 5a 4d 23 bd 08 ef 85 3e 0f 45 a9 be
       0.002302 -0.03986869 0.2615893 -0.330605
0000e0 fb 9f 1c be 2b 55 53 3e 79 3a 9f be d6 83 f5 3d
       -0.15295403 0.20637958 -0.310993 0.11988036
0000f0 a4 39 0c be 5e 38 2b 3d 6f a1 33 3e da d3 fc 3d
       -0.13693863 0.041801803 0.17542051 0.12345095
000100 05 5f b2 3c ee 8f 25 be d6 6b 4b be 3a 74 c8 bd
       0.021773824 -0.16168186 -0.19865355 -0.097877935
000110 48 de 79 be a0 ff 16 bc 7f d8 00 be 48 de 79 be
       -0.244012 -0.009216219 -0.12582587 -0.244012
000120 40 e4 57 bc 44 f3 67 3e be 15 46 3e a8 eb 34 be
       -0.013176978 0.22651392 0.19344231 -0.1766802
000130 93 59 6f 3d 7f 52 3f 3e b4 a6 b7 bd e5 99 84 be
       0.058435034 0.18683814 -0.08967343 -0.25898662
000140 b2 92 65 be e0 d3 fc bd 6a 86 83 3e 21 b8 46 3e
       -0.22419241 -0.123450994 0.25688487 0.19406177
000150 00 f8 1d 3b 0f 45 a9 be 08 8c 42 3e 26 5c 6c 3e
       0.0024104118 -0.330605 0.1899873 0.23082027
000160 29 65 be 3d 09 dd 45 3e 4e d1 e3 3d 95 2c a9 be
       0.092966385 0.193226 0.11123906 -0.33041826
000170 4b 05 34 be 71 43 5c be 94 cb 80 3e 3e 61 5b 3e
       -0.17580144 -0.21510102 0.25155318 0.21423814
000180 28 b9 38 3d 8e eb 93 3e 98 5f 5c 3e 7c 76 c2 3d
       0.045098454 0.2889065 0.21520841 0.09495255
000190 16 87 b3 3c 2c b9 99 bd fb ce 87 3e b0 70 4f be
       0.021915 -0.07506022 0.265251 -0.2025783
0001a0 62 dd 78 be 48 e2 55 bd 91 0a bb 3e 41 8e 57 3e
       -0.24303201 -0.05221775 0.365315 0.2105036
0001b0 34 7f f7 3d d8 6f 78 be 48 de 79 be 84 ce 07 be
       0.12084809 -0.24261415 -0.244012 -0.13262373
0001c0 2e 2b 2a be a3 c9 65 be 94 24 33 3e 79 3a 9f be
       -0.16618034 -0.224402 0.17494422 -0.310993
0001d0 68 85 b4 3c e4 2d a3 bd 18 f1 98 bb 97 ea 61 be
       0.02203627 -0.07967737 -0.0046674125 -0.22062145
0001e0 ba fb 3c be 6a 28 7d 3e c4 43 5b 3e 7e cc da 3d
       -0.18455401 0.24722448 0.2141257 0.10683535
0001f0 d0 51 af 3e dc ce 62 3e e0 c1 60 3c 15 5d 7e 3e
       0.34242105 0.22149223 0.013718098 0.24840195
000200 c6 8a 46 3e 42 5a 79 be 45 77 0b 3e 09 dd 45 3e
       0.19388875 -0.24350837 0.13619716 0.193226
000210 f7 fd 54 be a0 fd c5 3d ae f1 59 3e 72 16 14 be
       -0.20800005 0.09667516 0.212836 -0.14461687
000220 99 19 97 be f0 e3 54 be 2d 0a 87 be 16 87 b3 3c
       -0.29511717 -0.20790076 -0.2637495 0.021915
000230 00 9e ae 3d a0 2a 3c 3e 0f 45 a9 be 18 1a 70 3e
       0.0852623 0.18375635 -0.330605 0.23447454
000240 42 22 c5 3d 16 87 b3 3c 70 bf 13 3d d0 db b0 bc
       0.09625675 0.021915 0.03607124 -0.02158919
000250 fa 54 8a 3e 13 e0 5b 3e 9c 07 fe 3d 02 3d 37 3e
       0.27017957 0.21472196 0.12403795 0.17894366
000260 ae f1 59 3e 14 8e 4f bd 11 69 a5 be 2d 5f 51 be
       0.212836 -0.050672606 -0.32306722 -0.20446463
000270 fb ce 87 3e 93 aa 00 be c1 ff 78 be dc 24 cd 3d
       0.265251 -0.12565069 -0.24316312 0.10016796
000280 16 87 b3 3c a8 15 c8 3d 90 b4 43 3e 18 c0 80 3e
       0.021915 0.097697556 0.19111848 0.25146556
000290 a5 60 5b 3e 24 6a 99 3d 02 ac dc bd 48 de 79 be
       0.21423586 0.07490948 -0.107749954 -0.244012
0002a0 5f d2 55 be e5 d2 88 3b 56 3c 1b 3e b6 d9 75 3e
       -0.20881031 0.004175531 0.15159735 0.24008831
0002b0 d5 af a7 3e 4c f3 49 3e a0 92 ca 3d 16 87 b3 3c
       0.32751337 0.19721717 0.09891248 0.021915
0002c0 e0 ff 64 3c 10 10 f6 bc aa 25 2c be a3 c9 65 be
       0.013977021 -0.030036956 -0.16811243 -0.224402
0002d0 4e 4f 01 be 32 eb fa bd 48 de 79 be 90 02 46 bd
       -0.12627909 -0.12251891 -0.244012 -0.048342288
0002e0 79 3a 9f be 40 d5 cd 3d a8 5f 6b bd 79 3a 9f be
       -0.310993 0.1005044 -0.05746427 -0.310993
0002f0 40 2e 8d 3c 58 82 22 3d aa c5 e1 3c 39 ec 1e 3e
       0.017233968 0.039675087 0.027560074 0.155198
000300 0c f2 9f bd 9f ab 5a be a3 c9 65 be 20 cb 1a bc
       -0.07809839 -0.21354531 -0.224402 -0.009447843
000310 27 dd 16 3b 38 ef a5 3c 9e 97 5d 3e 0f 45 a9 be
       0.002302 0.02025567 0.21639869 -0.330605
000320 a0 e5 f7 3b 30 b3 c3 bc 20 eb 8e 3e 1c 2f 47 3e
       0.007565215 -0.023889154 0.2791376 0.19451565
000330 64 6f 32 be 64 02 40 3a 7f 64 28 be 7e 48 68 3e
       -0.17425305 0.0007324575 -0.16444586 0.22683904
000340 bc c6 55 3b 7d 1f 59 be 08 3b 73 3d 0f 45 a9 be
       0.0032619676 -0.21203418 0.05938247 -0.330605
000350 5c a4 f8 bd 04 1e 4c be 79 3a 9f be 06 8c 07 be
       -0.12140724 -0.19933325 -0.310993 -0.13237008
000360 09 c0 4c be 41 b4 12 3c 12 cf 50 be fb ce 87 be
       -0.1999513 0.008954109 -0.20391491 -0.265251
000370 22 84 ed 3d c1 82 4e 3e 6c 19 0d 3e 0f 45 a9 be
       0.11597468 0.20167066 0.13779229 -0.330605
000380 ee cd c0 bd 48 e6 c6 bd 8b 7d a1 be 40 c1 75 3e
       -0.09414278 -0.097118914 -0.31541094 0.239995
000390 a8 9f b1 3d 16 87 b3 3c cc b2 9b 3d 00 80 97 38
       0.0867303 0.021915 0.07602462 7.224083e-05
0003a0 e5 5f 82 3e 1d ac 46 3e a8 c4 cd bc 79 3a 9f be
       0.25463787 0.19401594 -0.025118187 -0.310993
0003b0 48 e4 3d bd d8 b4 3e 3e 7e 08 14 3d 65 9b 4b 3e
       -0.046360284 0.18623674 0.03614091 0.19883497
0003c0 56 9a 55 3e bc 17 27 bd 1a d2 76 be e4 95 4d 3e
       0.20859656 -0.04079412 -0.24103585 0.2007671
0003d0 0f 45 a9 be 0e 50 33 3e 90 07 cd 3d 48 d2 ab 3d
       -0.330605 0.17511007 0.10011208 0.08389717
0003e0 77 b8 45 3e 96 6b 23 be 44 56 7c 3e 31 80 46 3e
       0.19308649 -0.1595901 0.24642283 0.19384839
0003f0 00 a0 c0 b8 70 8f aa 3e 8a e6 4a 3e 1d dd 82 be
       -9.185076e-05 0.3331256 0.19814506 -0.2555932
