Assignment5/data/03001627/train/b475d6f1cfb6eee21071105723d4cf63.npy (npy, 180128 bytes, 1 tensors)

array f4 [15000, 3]
0	0xbd45ad99	-0.04826126
1	0x3e806606	0.25077838
2	0x3da457f2	0.08024587
3	0xbd92e0ba	-0.071717694
4	0xbe33880d	-0.17532368
5	0x3ddf130b	0.10892304
6	0xbe0503a0	-0.12989664
7	0xbe8a635c	-0.2702893
8	0x3c10537a	0.008808965
9	0x3e11c0c6	0.14233693
10	0xbe2ff8cf	-0.17184757
11	0xbdfb1515	-0.122598805
12	0x3e16113a	0.14655009
13	0xbe206af3	-0.15665798
14	0xbd19078b	-0.03736071
15	0x3decfdb7	0.1157183
16	0xbe964367	-0.293483
17	0xbdfccb65	-0.12343482
18	0x3d715d78	0.05892703
19	0xbe97876a	-0.295955
20	0xbd197ee0	-0.037474513
21	0x3dfde0c7	0.123963885
22	0x3e71d71b	0.23617212
23	0xbd2b79f3	-0.041864347
24	0xbe2c22dd	-0.16810174
25	0xbe755504	-0.23958212
26	0xbe2fd16c	-0.17169732
27	0xbdfeae1a	-0.12435551
28	0xbea038e3	-0.312934
29	0xbd111488	-0.03541997
30	0x3e1c8142	0.15283683
31	0xbec0fffd	-0.37695304
32	0xbe1e9731	-0.15487362
33	0x3db12a03	0.08650591
34	0xbe64068b	-0.22268121
35	0xba5df880	-0.00084675103
36	0xbe1166c1	-0.14199354
37	0x3ce85023	0.028358525
38	0x3e0a33f2	0.13496378
39	0xbdc72b6a	-0.097250775
40	0x3e1d750b	0.1537668
41	0x3e0f0f64	0.13970715
42	0xbd821597	-0.06351774
43	0xbea038e3	-0.312934
44	0xbe15e1c8	-0.1463691
45	0xbd59d52c	-0.053181812
46	0xbd26b10d	-0.040696193
47	0x3e3bf834	0.183564
48	0x3e13cc7a	0.1443347
49	0xbe463070	-0.19354415
50	0x3daa24bc	0.08307788
51	0xbd57a7c6	-0.052650236
52	0xbe964367	-0.293483
53	0x3c3d5480	0.011555791
54	0x3e2d0724	0.16897255
55	0xbe16b101	-0.14715959
56	0xbd0816e5	-0.03322496
57	0x3afae1c4	0.001914077
58	0xbe78a454	-0.24281436
59	0x3ded6775	0.115919985
60	0x3bc88db8	0.00612041
61	0xbe96905b	-0.2940701
62	0xbe43c377	-0.19117533
63	0x3d1160b8	0.03549263
64	0xbea038e3	-0.312934
65	0xbde6dd1a	-0.112726405
66	0xbdf89020	-0.12136865
67	0x3e8d1f1b	0.27562794
68	0x3cf952b1	0.030434938
69	0x3e0939dc	0.13400978
70	0xbe9bfc4a	-0.3046592
71	0xbe077ae3	-0.13230471
72	0xbe30783f	-0.1723337
73	0xbe9b7a09	-0.30366543
74	0xbe0b1156	-0.13580832
75	0xbe316cd9	-0.17326678
76	0xbe29adbc	-0.1657018
77	0x3c41d02b	0.011829416
78	0xbd4d21bd	-0.050081003
79	0x3e8cea81	0.27522662
80	0x3d26042e	0.04053133
81	0xbc9559d8	-0.018231317
82	0x3ea82c07	0.3284609
83	0xbd799d45	-0.060941
84	0x3e02cd0c	0.12773532
85	0xbe39e4cb	-0.18153684
86	0x3dddfe40	0.1083951
87	0x3dfce9c0	0.12349272
88	0xbded6a22	-0.11592509
89	0x3dfc1e4a	0.12310465
90	0xbdcbb4c9	-0.099465914
91	0xbe964367	-0.293483
92	0x3bdaa990	0.0066730455
93	0xbd026787	-0.031837013
94	0x3e33b979	0.17551221
95	0x3e4d5a4f	0.20053981
96	0xbdb9b855	-0.09068362
97	0xbe5b4c8a	-0.21415916
98	0x3e090fcf	0.13384937
99	0xbd577373	-0.052600335
100	0xbe657a3f	-0.22409914
101	0xbe194b01	-0.14970018
102	0xbc46d058	-0.012134634
103	0xbe964367	-0.293483
104	0xbe005b80	-0.12534904
105	0xbe31081d	-0.17288251
106	0xbe6cda73	-0.23130207
107	0xbca21503	-0.01978541
108	0xbe3e6b7e	-0.18595693
109	0x3d166881	0.036720756
110	0x3d46301a	0.048385717
111	0xbe0205e1	-0.12697555
112	0xbea038e3	-0.312934
113	0xbe15d751	-0.14632918
114	0xbd8d8827	-0.069107346
115	0x3e53b92d	0.20676108
116	0x3dfa5130	0.122225165
117	0x3e1ddf6c	0.1541726
118	0x3e1b8118	0.15185964
119	0x3e01c9a5	0.12674578
120	0xbe117e57	-0.14208351
121	0x3cfc01fb	0.030762663
122	0x3da3c72a	0.07996972
123	0xbe020c5a	-0.12700024
124	0x3d4f0a59	0.050546978
125	0x3e1ab2d8	0.15107286
126	0x3c9fe50c	0.019518398
127	0x3eaddcc3	0.3395749
128	0xbd3eb4a6	-0.046559
129	0x3e3077e5	0.17233236
130	0xbe9e34e8	-0.3089974
131	0xbd7c1bd8	-0.06154999
132	0xbd594c29	-0.053051148
133	0xbe97876a	-0.295955
134	0xbce52a88	-0.027974382
135	0xbe1e22d6	-0.15442976
136	0xbd41367c	-0.0471711
137	0x3dafe060	0.08587718
138	0xbd9a2896	-0.075272724
139	0xbde36e96	-0.11105077
140	0x3deeae11	0.11654294
141	0x3e1758a7	0.14779912
142	0xbea9c06f	-0.33154628
143	0xbe0a58c1	-0.1351042
144	0xbdd726ee	-0.10505472
145	0xbe8a4764	-0.27007592
146	0x3d8afb38	0.067861974
147	0xbe0e805d	-0.13916154
148	0x3d6fd182	0.05854941
149	0x3dba56b5	0.09098569
150	0xbdb891dc	-0.090121955
151	0xbe9ef03e	-0.31042665
152	0xbe46e979	-0.19425
153	0xbc687434	-0.014187861
154	0xbeaa447f	-0.33255383
155	0xbe46e979	-0.19425
156	0xbdd26b36	-0.10274355
157	0xbeb886d8	-0.36040378
158	0x3ddebb14	0.10875526
159	0x3e1ddd6a	0.15416494
160	0x3ce98e7d	0.028510327
161	0x3df72916	0.120683834
162	0xbddd6ed0	-0.108121514
163	0x3e4e5177	0.20148264
164	0x3e106cbd	0.1410398
165	0x3e304002	0.17211917
166	0x3d9f19f7	0.07768624
167	0x3cb33340	0.021875024
168	0x3e097cfc	0.13426584
169	0xbe90bb20	-0.28267765
170	0xbdcefe96	-0.10107152
171	0xbc9bfa04	-0.019040115
172	0xbe97876a	-0.295955
173	0xbdf7489a	-0.120743945
174	0xbd72c9de	-0.059274547
175	0xbe63a2e0	-0.222301
176	0xbc35a220	-0.011086017
177	0xbe0cb286	-0.13739976
178	0xbe8cf1f7	-0.27528355
179	0xbe319fd6	-0.17346129
180	0xbe107c7c	-0.14109987
181	0xbe316f82	-0.17327693
182	0xbcd1be46	-0.025603425
183	0xbe29605d	-0.16540666
184	0x3e0772d5	0.13227399
185	0x3cc3c260	0.023896396
186	0xbe500596	-0.20314631
187	0x3df4d293	0.11954226
188	0x3c0d9762	0.0086420495
189	0xbdb5f8b8	-0.0888533
190	0xbd8d786a	-0.06907733
191	0x3e24deed	0.16100664
192	0xbe3d6754	-0.18496448
193	0x3e29f304	0.1659661
194	0x3d824296	0.063603565
195	0xbe0c05c2	-0.13674071
196	0xbe692f82	-0.22772029
197	0xbce134ac	-0.027490936
198	0xbdcc9bec	-0.09990677
199	0x3e8bc97e	0.27302164
200	0xbd912eb5	-0.07088987
201	0x3e0c2432	0.13685682
202	0xbe9ae912	-0.30255944
203	0xbe336003	-0.17517094
204	0xbe1b306a	-0.15155187
205	0xbead26d9	-0.338187
206	0xbd8d5a42	-0.06901981
207	0x3e2e7b32	0.17039183
208	0xbe255d93	-0.16148977
209	0xbc04b9e8	-0.008100964
210	0xbdffd6fa	-0.124921754
211	0xbe9264ef	-0.2859263
212	0x3cd75731	0.026286693
213	0xbdfa70f6	-0.12228577
214	0xbde76a24	-0.112995416
215	0x3e0015ab	0.12508266
216	0xbe321b7a	-0.17393294
217	0xbe62cf50	-0.22149396
218	0xbdb386bd	-0.08765934
219	0xbd6dba74	-0.058039144
220	0xbea038e3	-0.312934
221	0xbd93f48b	-0.07224377
222	0xbdda901b	-0.10672017
223	0x3d946480	0.07245731
224	0x3e2e3582	0.17012599
225	0xbe2adcaf	-0.16685747
226	0xbe9dd64c	-0.30827558
227	0x3c8b1f0a	0.016982574
228	0xbad67079	-0.0016360424
229	0xbe97876a	-0.295955
230	0xbdbaee63	-0.091275
231	0x3e335c5a	0.17515698
232	0xbe477f70	-0.19482207
233	0xbe029247	-0.12751113
234	0xbc3d1950	-0.0115416795
235	0xbe964367	-0.293483
236	0xbd7b88fc	-0.061409935
237	0x3d3d9cf2	0.046292253
238	0xbe964367	-0.293483
239	0x3d2f29f2	0.04276461
240	0x3e1caf7e	0.1530132
241	0xbec194ea	-0.37808925
242	0xbe1e5204	-0.15460974
243	0x3dcb62e0	0.09930968
244	0xbe97876a	-0.295955
245	0xbe2e45e6	-0.17018852
246	0x3e1d97de	0.15389964
247	0xbec39ba3	-0.3820468
248	0xbe1d90db	-0.15387289
249	0x3d9359dd	0.071948744
250	0x3e9d13e6	0.30679244
251	0xbbe8f1e2	-0.007108913
252	0xbdcf144c	-0.10111293
253	0xbe6525f8	-0.22377765
254	0xbcf31bdf	-0.029676376
255	0x3e2d6091	0.16931368
