Assignment5/data/03001627/train/b510aa817f9aa6795906036a9b83f8d5.npy (npy, 180128 bytes, 1 tensors)

array f4 [15000, 3]
-0.24927925 0.32137206 -0.15868372 -0.015435398 0.206133 -0.06325698 0.038320877 0.4450497
0.134128 0.16725759 0.233867 -0.053114183 -0.07176611 0.233867 -0.10599088 0.111916974
0.06373529 -0.055410907 0.19964428 0.41753224 -0.011802971 -0.07177757 0.206133 -0.016937956
-0.20231959 0.4146693 -0.095279105 -0.03667891 0.600729 0.134128 -0.25679302 0.40511274
-0.18498206 0.023825347 0.206133 -0.18868926 0.08085234 0.233867 -0.034970514 0.008940846
0.233867 -0.11467413 0.21499634 0.3151319 -0.065535136 0.229653 0.21504849 -0.11683329
-0.10232811 0.3016172 0.134128 -0.014805019 0.27946907 0.134128 0.2280939 0.33075166
-0.11137664 0.015886098 0.206133 0.0044508874 -0.2007957 0.21046418 0.011009201 -0.16117075
0.418764 0.079824775 -0.15740046 0.206133 -0.1694971 -0.23623623 0.20869946 -0.11303301
-0.04404673 0.31985018 0.134128 -0.03143823 0.233867 -0.117913075 0.13637741 0.57903725
0.106393 0.17516069 0.37259826 -0.027064435 -0.028115317 0.233867 -0.11376128 0.17166716
0.4163762 -0.014837056 0.16968587 0.4153965 -0.007902503 0.12939394 0.24929237 0.134128
-0.19030562 0.233867 -0.14236146 0.15952319 0.34344977 0.027666822 -0.15394531 0.31011808
0.134128 -0.16829716 0.36458302 0.12475533 -0.15669762 -0.14487988 -0.10548048 -0.02618882
0.3567392 0.134128 -0.22223935 0.30153376 -0.06404376 -0.14826307 0.233867 0.015785918
0.065186396 0.233867 0.0068374276 -0.12987098 0.233867 -0.13380614 0.11099024 -0.16705954
0.09644112 0.03279008 0.49984145 0.106393 -0.23493792 0.2282566 -0.10848893 -0.07401188
0.37886387 0.106393 0.02948919 0.29991555 0.134128 -0.01744859 0.35660148 0.134128
-0.17350677 0.27955073 0.10652149 -0.0076604635 0.233867 -0.006968908 0.069152504 0.206133
0.03031525 -0.11384533 0.22989404 0.134128 0.082188286 0.2321844 0.134128 -0.07226604
0.233867 -0.014820039 0.21670721 0.342713 -0.07152323 0.041370183 0.57566035 0.134128
0.2364496 0.26983535 -0.14062156 0.16440414 0.3479948 0.11153787 0.105828464 0.5225406
0.134128 -0.18792091 0.23277973 0.056071073 -0.13843684 0.42978275 0.134128 0.1727818
0.206133 -0.14909095 0.1676901 0.25964352 0.100037366 -0.1435506 0.233867 -0.15700877
0.1489395 0.50954807 0.106393 -0.030903488 0.206133 -0.12638223 0.16085197 0.34388387
0.123970754 0.10332884 0.50721395 0.134128 -0.15362918 0.47344092 0.134128 -0.22675344
0.39550027 -0.07984256 -0.12028892 0.206133 -0.13812184 -0.100836664 0.206133 -0.16179541
0.03759314 0.46954846 0.134128 -0.0677056 0.206133 -0.1648611 -0.24530788 0.39819032
-0.189441 0.09475621 0.002987802 0.062172543 -0.105210885 0.233867 -0.031117462 -0.09765415
0.24950568 0.134128 0.15776344 0.233867 0.030032977 0.1790041 0.35219735 -0.040516384
-0.21781617 0.37386268 -0.14951709 -0.15915087 0.233867 -0.03333816 0.06993833 0.206133
-0.16564372 0.19883104 0.31133494 -0.008956477 0.1786552 0.206133 -0.061071962 -0.09359084
00000000: 0f43 7fbe e18a a43e fc7d 22be c0e4 7cbc
00000010: 8714 533e e08c 81bd 5af6 1c3d 8edd e33e
00000020: da58 093e 9345 2b3e d57a 6f3e 428e 59bd
00000030: 1cfa 92bd d57a 6f3e bf11 d9bd ba34 e53d
00000040: a687 823d 8cf6 62bd 8d6f 4c3e c9c6 d53e
00000050: 4061 41bc 1e00 93bd 8714 533e 78c1 8abc
00000060: de2c 4fbe 894f d43e b121 c3bd a03c 16bd
00000070: 60c9 193f da58 093e 607a 83be f06a cf3e
00000080: f06b 3dbe 602d c33c 8714 533e c237 41be
00000090: e995 a53d d57a 6f3e 3e3d 0fbd a07c 123c
000000a0: d57a 6f3e 45da eabd 0028 5c3e f858 a13e
000000b0: 4937 86bd 282a 6b3e ac35 5c3e 4b46 efbd
000000c0: 6691 d1bd 926d 9a3e da58 093e c090 72bc
000000d0: 9216 8f3e da58 093e 7391 693e 4858 a93e
000000e0: 7019 e4bd 9023 823c 8714 533e c0d8 913b
000000f0: 639d 4dbe ec83 573e f05f 343c f209 25be
00000100: 3c68 d63e 2c7b a33d 962d 21be 8714 533e
00000110: a690 2dbe e9e7 71be 50b5 553e da7d e7bd
00000120: 586a 34bd 67c3 a33e da58 093e 60c5 00bd
00000130: d57a 6f3e 697c f1bd 85a6 0b3e c93b 143f
00000140: 93e4 d93d 535d 333e 33c5 be3e 3cb6 ddbc
00000150: 1852 e6bc d57a 6f3e adfb e8bd 84c9 2f3e
00000160: 432f d53e 2017 73bc 22c2 2d3e daae d43e
00000170: 8079 01bc d87f 043e 8046 7f3e da58 093e
00000180: 7adf 42be d57a 6f3e 34c7 11be 0c5a 233e
00000190: a6d8 af3e 88a5 e23c d7a3 1dbe ccc7 9e3e
000001a0: da58 093e 1756 2cbe a0aa ba3e b97f ff3d
000001b0: 5775 20be 645b 14be 2606 d8bd f089 d6bc
000001c0: 85a6 b63e da58 093e b692 63be a262 9a3e
000001d0: 6029 83bd 46d2 17be d57a 6f3e 7851 813c
000001e0: 7280 853d d57a 6f3e 800c e03b e6fc 04be
000001f0: d57a 6f3e 7a04 09be da4e e33d a811 2bbe
00000200: ec82 c53d e44e 063d 38eb ff3e 93e4 d93d
00000210: 9193 70be 19bc 693e 722f debd 8a93 97bd
00000220: 72fa c13e 93e4 d93d 5093 f13c 888e 993e
00000230: da58 093e 58f0 8ebc 7894 b63e da58 093e
00000240: c2ab 31be 4621 8f3e f027 da3d a004 fbbb
00000250: d57a 6f3e 705b e4bb d49f 8d3d 8714 533e
00000260: b057 f83c be27 e9bd 5869 6b3e da58 093e
00000270: 5552 a83d bfc1 6d3e da58 093e 3800 94bd
00000280: d57a 6f3e c0cf 72bc 7fe8 5d3e 1478 af3e
00000290: c57a 92bd c873 293d 7a5e 133f da58 093e
000002a0: d81f 723e dc27 8a3e 19ff 0fbe 8f59 283e
000002b0: 602c b23e f76d e43d 98bc d83d 39c5 053f
000002c0: da58 093e 576e 40be cf5d 6e3e c8aa 653d
000002d0: 63c2 0dbe 7c0c dc3e da58 093e b6ed 303e
000002e0: 8714 533e 4cab 18be f4b6 2b3e ffef 843e
000002f0: 64e0 cc3d eefe 12be d57a 6f3e e8c6 20be
00000300: 9983 183e be71 023f 93e4 d93d 5029 fdbc
00000310: 8714 533e 586a 01be 61b6 243e 8c11 b03e
00000320: 61e4 fd3d 129e d33d c6d8 013f da58 093e
00000330: f850 1dbe d966 f23e da58 093e 0e32 68be
00000340: 037f ca3e 7f84 a3bd 0a5a f6bd 8714 533e
00000350: d06f 0dbe 7483 cebd 8714 533e b2ad 25be
00000360: 44fb 193d a868 f03e da58 093e 3ca9 8abd
00000370: 8714 533e 59d1 28be fd31 7bbe 9adf cb3e
00000380: d2fc 41be 8b0f c23d 00cf 433b a3a8 7e3d
00000390: ce78 d7bd d57a 6f3e 0cea febc e6fe c7bd
000003a0: 6b7e 7f3e da58 093e bd8c 213e d57a 6f3e
000003b0: b807 f63c da4c 373e 3653 b43e 82f4 25bd
000003c0: 340b 5fbe ee6a bf3e 021b 19be 72f8 22be
000003d0: d57a 6f3e 988d 08bd d43b 8f3d 8714 533e
000003e0: 829e 29be 5d9a 4b3e 4b67 9f3e 30be 12bc
000003f0: 64f1 363e 8714 533e 9826 7abd 8eac bfbd
