Assignment5/data/03001627/train/b526dccbbe8417bd6cf45f1c1a3d29af.npy (npy, 180128 bytes, 1 tensors)

array f4 [15000, 3]
0	0x3e20022a	0.15625826
1	0x3e8fc611	0.280808
2	0xbcf586c2	-0.029971484
3	0xbd18049b	-0.037113767
4	0xbe487c63	-0.195787
5	0x3d0c95c0	0.0343225
6	0xbd1751b2	-0.036943145
7	0xbdf64717	-0.12025278
8	0x3d767b94	0.060176447
9	0xbdf063ed	-0.11737809
10	0x3dcd638e	0.10028754
11	0x3c9e7f1a	0.019347716
12	0x3c894973	0.016758656
13	0x3e7bc0a0	0.245852
14	0x3dbf828b	0.09351071
15	0xbca30a4d	-0.019902373
16	0x3e915f06	0.2839281
17	0x3d27fa67	0.041010287
18	0xbdff6ea2	-0.124722734
19	0x3e7bc0a0	0.245852
20	0x3d1c8cc8	0.038220197
21	0x3bcc1e00	0.006229162
22	0x3e7d3b82	0.24729732
23	0x3dfaa4e9	0.12238485
24	0x3e2766de	0.16347834
25	0xbe487c63	-0.195787
26	0xbe2b1615	-0.16707642
27	0xbc5c8742	-0.013459982
28	0x3e81b1b8	0.253309
29	0x3db54024	0.088501245
30	0xbd994b36	-0.074850485
31	0xbe011f0c	-0.126095
32	0xbe24aad0	-0.16080785
33	0x3de105a9	0.10987408
34	0xbef16365	-0.47146145
35	0xbe79802f	-0.24365304
36	0x3d94913b	0.07254263
37	0x3e7bc0a0	0.245852
38	0x3d760e94	0.060072497
39	0xbe2ae964	-0.16690594
40	0x3e6c52a4	0.230784
41	0xbd1ce974	-0.038308576
42	0x3df1fd7b	0.11815926
43	0x3e384946	0.17996702
44	0x3ca97e7e	0.020690199
45	0xbdc39d82	-0.095515266
46	0xbe011f0c	-0.126095
47	0x39d89a80	0.00041313842
48	0xbe07cda1	-0.13262035
49	0x3dc91eca	0.09820326
50	0x3d03980c	0.032127425
51	0xbe0afa74	-0.13572103
52	0x3e6c52a4	0.230784
53	0xbd170917	-0.036873903
54	0xbda1323f	-0.07870912
55	0x3e6c52a4	0.230784
56	0x3d247e6a	0.04015962
57	0x3e1ba27b	0.151987
58	0xbe503a84	-0.20334822
59	0x3d0a4204	0.033754364
60	0x3db7e457	0.08979099
61	0x3e64afd5	0.223327
62	0x3bded63e	0.006800442
63	0xbabc1300	-0.0014348924
64	0xbe011f0c	-0.126095
65	0xbe6f44f8	-0.23366153
66	0xbd959d0f	-0.07305347
67	0x3e7bc0a0	0.245852
68	0x3da68b92	0.0813209
69	0xbd20d904	-0.039269462
70	0xbe487c63	-0.195787
71	0x3d888770	0.06666458
72	0x3e12a90d	0.143223
73	0xbe92c852	-0.28668457
74	0xbe67adf8	-0.22624958
75	0x3d907827	0.07054167
76	0xbe487c63	-0.195787
77	0xbd0aadb8	-0.033857077
78	0xbdf7cd3f	-0.120996945
79	0x3e4f0f17	0.202206
80	0xbd206305	-0.039156932
81	0x3e1ba27b	0.151987
82	0xbe5bbcb1	-0.21458699
83	0x3b5bbc38	0.0033528935
84	0xbd917758	-0.07102841
85	0xbe487c63	-0.195787
86	0xbd952f42	-0.07284404
87	0xbdb74de2	-0.08950402
88	0x3e6c52a4	0.230784
89	0x3d5ee3ac	0.054416344
90	0xbe1fc090	-0.156008
91	0xbe6a61c8	-0.22888863
92	0xbe7c450f	-0.24635719
93	0x3d85fcee	0.06542383
94	0x3e81b1b8	0.253309
95	0x3dcfd7d4	0.10148588
96	0x3d079d4b	0.03310899
97	0x3e488723	0.195828
98	0x3dc4e414	0.09613815
99	0xbd371302	-0.04469586
100	0x3e8508fa	0.2598341
101	0x3e028ff5	0.12750228
102	0x3e1463bd	0.14491172
103	0xbe80b68d	-0.25139275
104	0xbe58f0b1	-0.21185566
105	0xbc02bc08	-0.0079794
106	0xbe011f0c	-0.126095
107	0xbd448549	-0.047978673
108	0xbd83343f	-0.064064495
109	0xbca6a750	-0.020343453
110	0x3d7b529e	0.061358087
111	0x3d6e23ba	0.05813954
112	0xbdbc05b8	-0.09180778
113	0x3d369635	0.044576842
114	0xbd604ca0	-0.054760575
115	0xbdf1e84c	-0.11811885
116	0x3d8dd82f	0.069259994
117	0x3cb32f34	0.021873094
118	0x3e4f0f17	0.202206
119	0x3d3acf7c	0.04560803
120	0x3e25b565	0.16182478
121	0xbe487c63	-0.195787
122	0xbd7efad4	-0.062250927
123	0x3df1d839	0.11808819
124	0xbedf294f	-0.43586203
125	0x3cd655e3	0.026164
126	0x3e18b4f0	0.14912772
127	0xbe487c63	-0.195787
128	0xbe09dcc4	-0.13463122
129	0xbdef9549	-0.11698396
130	0x3e4f0f17	0.202206
131	0x3bef2bd0	0.007298924
132	0x3d575980	0.05257559
133	0xbe37a2fb	-0.17933266
134	0xbe93c7d6	-0.288634
135	0xbd36b6d8	-0.044607967
136	0x3e6c52a4	0.230784
137	0x3deefda0	0.11669469
138	0xbb98b8d6	-0.004660706
139	0x3e2aaf21	0.16668369
140	0x3d831358	0.06400174
141	0xbe080a03	-0.13285069
142	0x3e81b1b8	0.253309
143	0x3d92327e	0.07138537
144	0xbdff0ba6	-0.12453394
145	0x3e29160a	0.16512313
146	0x3d41ffec	0.047363207
147	0xbd13d316	-0.03608998
148	0x3e4772ff	0.19477461
149	0x3d66b6e6	0.05632677
150	0x3df4fe51	0.119625695
151	0x3e8c81f5	0.274429
152	0x3dbab0ed	0.09115777
153	0xbe01f560	-0.1269126
154	0x3e64afd5	0.223327
155	0x3d4e24d3	0.050328087
156	0xbdcb4003	-0.09924319
157	0xbe6c93cc	-0.23103255
158	0x3d0f0f9d	0.034927
159	0xbe2412b8	-0.16022766
160	0x3e62ddf4	0.22154981
161	0x3d6eed04	0.058331504
162	0x3e043dd0	0.12914205
163	0xbeb47c44	-0.35251057
164	0x3cd655e3	0.026164
165	0x3ddc9639	0.1077084
166	0x3e0b414a	0.13599125
167	0x3d1159b7	0.03548595
168	0x3d8098ee	0.06279169
169	0x3d9ef31a	0.07761212
170	0x3d885cde	0.06658338
171	0x3dd02d8f	0.101649396
172	0xbee5b991	-0.44868138
173	0xbe7db4a8	-0.24775946
174	0xbd825a34	-0.06364861
175	0x3e6c52a4	0.230784
176	0x3d51225d	0.051058162
177	0xbc89c6c2	-0.016818408
178	0x3e6c52a4	0.230784
179	0x3d219310	0.03944689
180	0x3dd35979	0.103198
181	0xbebdcb88	-0.37069345
182	0xbe6db4d3	-0.2321351
183	0x3dd35979	0.103198
184	0xbe975e6b	-0.29564223
185	0x3c7b745d	0.015347567
186	0xbdd61059	-0.10452337
187	0xbe011f0c	-0.126095
188	0xbd81a5fd	-0.06330488
189	0xbddb95a3	-0.107219
190	0xbeb6e740	-0.35723305
191	0xbe70ff8e	-0.23534986
192	0xbdd90e31	-0.1059841
193	0xbef1242a	-0.47097903
194	0x3cbb5daa	0.022871811
195	0xbd35c043	-0.04437281
196	0xbd35b442	-0.04436136
197	0x3d2ad962	0.04171122
198	0xbdcd6331	-0.10028685
199	0xbe487c63	-0.195787
200	0xbc2684aa	-0.0101634655
201	0x3de75d0a	0.11297043
202	0xbc039d18	-0.00803306
203	0x3d3cc758	0.046088547
204	0xbdd4b9f3	-0.103870295
205	0x3ddfd1e7	0.109287076
206	0x3d1c61e2	0.038179286
207	0x3e1646a4	0.14675385
208	0x3e8c81f5	0.274429
209	0xbbd7c818	-0.0065851323
210	0x3e2caaab	0.1686198
211	0xbe18040f	-0.14845298
212	0xbe395001	-0.18096925
213	0x3d9c0ea2	0.076199785
214	0x3e488723	0.195828
215	0x3d6730bc	0.05644296
216	0x3e0c8716	0.13723406
217	0xbea2760d	-0.3173069
218	0xbe5bfdf8	-0.214836
219	0xbde00d3f	-0.109400265
220	0xbd9fbd92	-0.077998295
221	0x3cb5071b	0.022098115
222	0xbd594af6	-0.053050004
223	0x3e890c4e	0.267672
224	0x3d814d32	0.06313552
225	0x3e23b487	0.15986834
226	0xbe0f0e00	-0.13970184
227	0xbd40a08a	-0.047028102
228	0x3e0b1917	0.1358379
229	0xbe487c63	-0.195787
230	0xbca58358	-0.020204231
231	0x3c22ade0	0.00992915
232	0xbe487c63	-0.195787
233	0xbe446180	-0.19177818
234	0x3d5671ca	0.05235461
235	0xbe487c63	-0.195787
236	0x3db4df54	0.08831659
237	0x3e26b468	0.16279757
238	0xbe120dda	-0.14263096
239	0xbe2d6e30	-0.16936564
240	0xbd8e76bc	-0.069562405
241	0x3e5d3672	0.216028
242	0x3d5c6d85	0.053815383
243	0x3d4012fb	0.0468931
244	0x3e881e92	0.26585823
245	0x3cb781b7	0.02240072
246	0x3d637229	0.055528793
247	0x3e64afd5	0.223327
248	0x3d6bb8cc	0.057549283
249	0x3bef94de	0.0073114475
250	0x3e890c4e	0.267672
251	0x3dc7b062	0.09750439
252	0x3dda1d05	0.10650066
253	0x3e81b1b8	0.253309
254	0xbc1c7aa9	-0.009550729
255	0x3dd35979	0.103198
