Assignment5/data/03001627/train/b5706706df77157627d4fc401a34f3de.npy (npy, 180128 bytes, 1 tensors)

array f4 [15000, 3]
0.21515411 0.10091545 0.332133 -0.13166593 0.05360264 -0.19394162 -0.27795026 -0.078933
0.2166369 0.287558 0.123610884 -0.050841987 0.23712036 -0.1282607 -0.1455314 0.11978549
0.17494702 0.33320913 0.25488982 -0.146027 0.1438795 -0.287558 0.110324845 0.06438881
-0.17580031 0.09104931 -0.100982256 -0.12921017 -0.0789341 -0.16907232 -0.14788073 -0.078933366
0.26443174 -0.006935671 0.34607035 0.29504085 0.287558 0.0037399754 0.25363994 0.23482688
-0.088522 0.2692614 -0.210876 0.11169027 0.13246971 -0.09586181 0.39307132 0.31025872
-0.287558 0.02705039 0.10407071 0.012168586 -0.07893458 0.16608769 0.287558 0.26066798
0.31337282 0.13364899 -0.078936175 -0.037391566 0.23556113 -0.146027 -0.106531955 -0.2571934
-0.046322048 0.332133 0.15167545 0.08045351 0.07747429 -0.09073201 -0.078933 0.29766214
-0.24751785 -0.15561351 0.092775375 -0.20738676 0.08155983 0.22306047 -0.1846334 0.31344151
0.36517075 -0.18259364 0.08015916 0.332133 -0.210876 0.20578948 -0.0961996 0.26811975
-0.15561509 0.22055735 0.287558 0.1239434 0.03399822 0.08508514 0.086808085 -0.15024042
-0.042395294 -0.0789359 0.058831677 -0.2370079 0.266137 -0.01141721 -0.28219143 -0.078933
0.030028075 -0.26756164 0.266137 -0.02945973 0.1861954 -0.072448626 0.332133 -0.23329768
0.30139416 0.36239046 -0.1990025 -0.078933 0.32436216 0.18156609 -0.07893381 0.19986787
0.210876 0.09520139 0.08234705 -0.0039390028 -0.07893356 -0.17715248 -0.02702272 0.3305744
0.31161246 -0.210876 0.093743 -0.027029635 -0.16600531 0.021762185 -0.185468 0.26622185
-0.078933924 0.21890059 0.22890341 -0.146027 0.0057420135 -0.2396203 -0.07893341 -0.17936268
0.210876 0.12852795 0.26538244 0.287558 0.20422901 -0.17197472 -0.28408596 -0.033741906
0.332133 -0.07970585 -0.07893329 -0.009130269 0.25857905 0.20450838 0.34003127 0.16959624
0.09061172 -0.032865997 -0.15491168 0.08672468 0.010075094 0.03445579 -0.07893413 0.032093517
0.12615083 -0.07893393 0.21835753 -0.287558 0.09942232 -0.17262723 0.22218543 -0.0056640506
0.332133 -0.07493304 0.4133237 0.35890204 -0.28534758 0.266137 -0.01890634 0.26244462
-0.15561388 0.12207997 0.07351524 0.37371814 0.3790813 0.026967347 -0.008375816 0.332133
-0.037302777 -0.07893324 0.036124825 0.210876 0.17349492 0.038015783 -0.260901 0.39509463
0.38401455 0.03699453 0.28553236 0.30121866 -0.037966758 0.0506798 -0.19424407 -0.027941078
0.26701248 0.3544559 -0.0148540735 0.34054774 0.37142628 0.287558 0.20419556 -0.018422663
0.210876 0.101177424 0.17135218 -0.110570215 0.2375483 0.28669196 -0.059305876 0.34732708
0.31547827 0.007615432 -0.07893332 0.07258874 0.23030616 -0.15561125 -0.09124744 -0.21248846
-0.07893512 0.12216223 0.0012855679 -0.078934506 -0.029835522 -0.023813784 0.1036827 0.332133
-0.210876 0.22410944 0.16021323 -0.0025222898 0.4105707 0.37083212 0.13612196 -0.062269673
0.332133 -0.034247845 0.15562607 0.332133 -0.06730984 0.082972534 0.15094455 0.25273025
00000000: 5c51 5c3e c2ac ce3d 560d aa3e 6fd3 06be
00000010: 718e 5b3d a298 46be 7f4f 8ebe a0a7 a1bd
00000020: 10d6 5d3e cd3a 933e b427 fd3d b03f 50bd
00000030: aecf 723e c656 03be 2f06 15be 1852 f53d
00000040: 5025 333e 639a aa3e eb80 823e 1a88 15be
00000050: 2655 133e cd3a 93be fef1 e13d 48de 833d
00000060: ff04 34be 1078 ba3d c9cf cebd ac4f 04be
00000070: 34a8 a1bd 4b21 2dbe 0c6e 17be d1a7 a1bd
00000080: 9963 873e a044 e3bb 2230 b13e 980f 973e
00000090: cd3a 933e 601a 753b 18dd 813e 7576 703e
000000a0: 064b b5bd a1dc 893e e1ef 57be debd e43d
000000b0: 24a6 073e 3253 c4bd a540 c93e 3bda 9e3e
000000c0: cd3a 93be c898 dd3c 0623 d53d c05e 473c
000000d0: 74a8 a1bd e412 2a3e cd3a 933e 4676 853e
000000e0: 6772 a03e 48db 083e 4aa9 a1bd e627 19bd
000000f0: f036 713e 1a88 15be 6d2d dabd daae 83be
00000100: 30bc 3dbd 560d aa3e cf50 1b3e cfc4 a43d
00000110: d7aa 9e3d b4d1 b9bd a0a7 a1bd 2c67 983e
00000120: 5275 7dbe 2659 1fbe 0401 be3d 325d 54be
00000130: d708 a73d f769 643e 8a10 3dbe 687b a03e
00000140: a9f7 ba3e d4f9 3abe 7c2a a43d 560d aa3e
00000150: e1ef 57be 7aba 523e 4c04 c5bd fe46 893e
00000160: 9059 1fbe c9d9 613e cd3a 933e 0ad6 fd3d
00000170: b841 0b3d 1e41 ae3d 70c8 b13d a0d8 19be
00000180: b0a6 2dbd 25a9 a1bd 7cf9 703d 33b2 72be
00000190: 1c43 883e 400f 3bbc 657b 90be a0a7 a1bd
000001a0: 70fd f53c d7fd 88be 1c43 883e 8855 f1bc
000001b0: 02aa 3e3e f25f 94bd 560d aa3e 96e5 6ebe
000001c0: 5650 9a3e 3e8b b93e 50c7 4bbe a0a7 a1bd
000001d0: cc12 a63e 76ec 393e 0da8 a1bd 2aaa 4c3e
000001e0: e1ef 573e f2f8 c23d 92a5 a83d c012 81bb
000001f0: eba7 a1bd 7667 35be c05e ddbc 0c41 a93e
00000200: ab8b 9f3e e1ef 57be 54fc bf3d 416d ddbc
00000210: 4cfd 29be 9c46 b23c 53eb 3dbe 3b4e 883e
00000220: 1ca8 a1bd 7a27 603e a865 6a3e 1a88 15be
00000230: 8027 bc3b 065f 75be d7a7 a1bd daaa 37be
00000240: e1ef 573e d59c 033e 35e0 873e cd3a 933e
00000250: 6921 513e 241a 30be b773 91be f434 0abd
00000260: 560d aa3e d23c a3bd c7a7 a1bd 2097 15bc
00000270: 7964 843e a56a 513e 9418 ae3e a3aa 2d3e
00000280: a392 b93d 7f9e 06bd 2ba1 1ebe b69c b13d
00000290: 0212 253c 8421 0d3d 38a8 a1bd 7e74 033d
000002a0: af2d 013e 1da8 a1bd 1e99 5f3e cd3a 93be
000002b0: ee9d cb3d 31c5 30be 9484 633e 8099 b9bb
000002c0: 560d aa3e 7e76 99bd 2a9f d33e 02c2 b73e
000002d0: 1419 92be 1c43 883e 78e1 9abc 245f 863e
000002e0: 3f59 1fbe 1005 fa3d 288f 963d fc57 bf3e
000002f0: f216 c23e a0ea dc3c b83a 09bc 560d aa3e
00000300: ccca 18bd c0a7 a1bd a0f7 133d e1ef 573e
00000310: a7a8 313e 70b6 1b3d d194 85be d849 ca3e
00000320: 8e9d c43e 9487 173d 4c31 923e 5539 9a3e
00000330: 0883 1bbd 9f95 4f3d ebe7 46be b0e4 e4bc
00000340: dcb5 883e 3e7b b53e 805e 73bc 465c ae3e
00000350: 962b be3e cd3a 933e a418 513e 20eb 96bc
00000360: e1ef 573e 1c36 cf3d f276 2f3e a372 e2bd
00000370: dd3f 733e 4ac9 923e b8ea 72bd dbd4 b13e
00000380: 5e86 a13e e08a f93b cba7 a1bd 68a9 943d
00000390: 61d5 6b3e 8e58 1fbe f0df babd 9396 59be
000003a0: bca8 a1bd 3130 fa3d 8080 a83a 6aa8 a1bd
000003b0: a069 f4bc 2015 c3bc 9857 d43d 560d aa3e
000003c0: e1ef 57be f27c 653e f00e 243e 004d 25bb
000003d0: 5336 d23e b5dd bd3e 8e63 0b3e 7c0e 7fbd
000003e0: 560d aa3e 7847 0cbd 715c 1f3e 560d aa3e
000003f0: bed9 89bd 81ed a93d 3591 1a3e dc65 813e
