Assignment5/data/03001627/train/b58f4a6b71759e59de1e664b0a22c4a8.npy (npy, 180128 bytes, 1 tensors)

array f4 [15000, 3]
000000 49 d7 3c 3e 32 1d d3 bd e0 e0 95 3d e0 da 82 3d
       0.184415 -0.10308303 0.07318282 0.06389403
000010 e6 94 00 bb 8c 40 4e bd 78 00 0b 3d e6 94 00 bb
       -0.001962 -0.050354525 0.033935994 -0.001962
000020 ea e2 ed bd 1e fd 12 be 74 38 60 3e 83 6a dc 3d
       -0.11615546 -0.14354369 0.21896535 0.10762503
000030 75 c4 49 be 87 38 80 be 40 fb 91 3d 58 c0 cf 3d
       -0.19703849 -0.25043127 0.07128 0.101441085
000040 60 3c 31 3d ae 28 db 3d 09 8f 03 be 09 fc e1 bc
       0.04327047 0.107011184 -0.12847532 -0.027586
000050 e8 3f 54 be 4c 74 3f bc 2d 0a bb 3e bd 75 10 3e
       -0.20727503 -0.011685442 0.365312 0.14107414
000060 d1 51 bb bc 4c a4 70 3e 3c 22 05 3e 90 c1 e6 bd
       -0.022866162 0.23500174 0.1300134 -0.11267388
000070 1a 0b ff 3d 24 75 f3 3d 8c 85 3d 3c e6 94 00 bb
       0.12453289 0.11887577 0.011567485 -0.001962
000080 f2 c5 d8 bd 48 9a 59 be 3a c9 15 be dd ea 75 be
       -0.1058463 -0.2125026 -0.14627543 -0.24015374
000090 d3 4b 62 3e 9c 84 bd 3e 4b 87 c0 3d f4 a2 13 bc
       0.22099237 0.37015235 0.09400805 -0.009011019
0000a0 aa b2 b5 3e 20 b8 f7 3d dd 04 1f 3e e6 94 00 bb
       0.35487872 0.12095666 0.15529199 -0.001962
0000b0 d8 5c ec bd fc 87 48 3e 09 fc e1 bc e4 f8 57 3d
       -0.11541146 0.19583124 -0.027586 0.052727595
0000c0 61 45 6d bd e6 94 00 bb 8e 33 25 be a8 a7 4f be
       -0.057927493 -0.001962 -0.16132948 -0.202788
0000d0 b8 f4 55 be cc b8 93 3d 18 f8 3d bd 1f a1 cb 3e
       -0.20894134 0.072129816 -0.04637918 0.39771363
0000e0 50 ca 10 3e 19 0a d1 3d 25 e5 84 3e 63 b6 f5 3d
       0.14139676 0.10207004 0.25956073 0.11997678
0000f0 de 2a ac bd f9 da e3 3e fc 56 d0 3d 10 ed 04 be
       -0.08406614 0.44503 0.10172841 -0.12981057
000100 09 fc e1 bc ea 05 c0 bd 62 13 a5 bd e6 94 00 bb
       -0.027586 -0.09376128 -0.080603376 -0.001962
000110 c0 04 6b 3c ef 64 14 be ed 2f 1b 3e 29 7c bb 3d
       0.014344394 -0.14491628 0.15155001 0.09154541
000120 2c 98 d3 3c 09 fc e1 bc 9c d3 71 be 3b c0 32 3d
       0.025829397 -0.027586 -0.23615879 0.043640357
000130 09 fc e1 bc 08 30 2c bd da 29 18 3e 09 fc e1 bc
       -0.027586 -0.042037994 0.14859715 -0.027586
000140 9e ca d9 bd 4f d0 30 be 12 47 cd 3e 04 5c e3 3d
       -0.10634349 -0.17266963 0.40093285 0.11101535
000150 3b 7d 00 3e 09 fc e1 bc 00 98 85 ba 2f 76 9c 3d
       0.12547772 -0.027586 -0.0010192394 0.07639729
000160 e6 94 00 bb 80 e5 32 bd 2a 49 e4 bd f9 da e3 3e
       -0.001962 -0.0436759 -0.111467674 0.44503
000170 44 6d d8 3d 8b bd fb bc e6 94 00 bb 05 b3 5e be
       0.10567716 -0.03073003 -0.001962 -0.21747978
000180 c9 cb cb bc 09 fc e1 bc 08 0a 9a 3d 70 54 32 bc
       -0.024877446 -0.027586 0.075214446 -0.010884389
000190 b0 49 df 3e dc 32 13 3e 8e 3e 4b be e6 94 00 bb
       0.43610907 0.1437487 -0.19848081 -0.001962
0001a0 6c 20 ac 3d 0f a8 b2 3c e6 94 00 bb db 9b 04 3e
       0.084046215 0.021808652 -0.001962 0.12950079
0001b0 f7 ad 26 bc a5 1b 46 3e 80 54 f3 3d a4 36 d7 3d
       -0.010173312 0.19346483 0.118813515 0.10508469
0001c0 e6 94 00 bb 8c 22 98 3d 27 01 34 3e e6 94 00 bb
       -0.001962 0.07428464 0.17578565 -0.001962
0001d0 b3 c7 11 be 41 a4 25 bd e6 94 00 bb 56 cc a9 3d
       -0.14236335 -0.040439848 -0.001962 0.08290927
0001e0 f7 e8 0f be ae 93 ab 3e c1 13 d8 3d 56 10 47 3e
       -0.14053713 0.33511108 0.10550643 0.19439825
0001f0 e8 43 ae be 50 f2 93 3d c9 20 43 be 8d fe 92 bc
       -0.34036183 0.07223952 -0.19055475 -0.017943645
000200 4a c8 04 3b a7 65 e9 bd f4 c4 60 3e 73 70 ef 3d
       0.0020260983 -0.11396342 0.21950132 0.1169137
000210 46 74 1d be bc 98 bb 3e 6a 0e 8f 3d 95 a8 44 be
       -0.15376386 0.36639965 0.06985171 -0.19204934
000220 da 06 39 3e 98 a3 a0 3d e0 71 9f bd 09 fc e1 bc
       0.1806902 0.07843703 -0.07785392 -0.027586
000230 30 24 71 3c 04 32 c5 3d e6 94 00 bb dd 14 f9 3d
       0.0147181 0.0962868 -0.001962 0.121621825
000240 45 66 13 3e 77 69 43 bc 48 a3 d5 3d da 09 89 bd
       0.14394481 -0.011927 0.10431534 -0.06691332
000250 e6 94 00 bb 60 ba 01 be 90 22 64 ba f1 e6 c6 3e
       -0.001962 -0.12668753 -0.000870266 0.3884807
000260 6e 89 d1 3d e7 48 7c 3d 32 6a bc 3e 28 d2 0f 3e
       0.10231291 0.061592963 0.3679977 0.14045012
000270 f0 f0 85 bd e6 94 00 bb 88 0c a8 3c c0 60 59 3d
       -0.06540096 -0.001962 0.020513788 0.053070784
000280 e6 94 00 bb 46 eb bf 3d 3f ef 03 be 09 fc e1 bc
       -0.001962 0.09371047 -0.12884234 -0.027586
000290 d4 d9 0d be a2 38 55 be ac ca c7 3e ef 87 c4 3d
       -0.13852626 -0.20822385 0.39021814 0.0959624
0002a0 1c 5d f0 bb e6 94 00 bb 4a 35 08 3e ab 79 5d bb
       -0.0073353183 -0.001962 0.13301578 -0.0033794444
0002b0 09 fc e1 bc b0 c1 d3 bd d8 f7 dc 3b 09 fc e1 bc
       -0.027586 -0.10339677 0.0067434125 -0.027586
0002c0 3e 92 6c be 88 57 82 3d 50 e4 46 3e 17 fd f7 3d
       -0.23102662 0.063643515 0.19423032 0.1210882
0002d0 fc e8 cb bc 63 13 6e 3e f9 eb 01 3e 49 d7 3c 3e
       -0.024891369 0.23249583 0.12687673 0.184415
0002e0 e1 48 8c bd de 43 a1 3d 21 cf f4 bc 72 9a 99 bc
       -0.06849838 0.07874273 -0.029883923 -0.018750403
0002f0 28 f5 86 be 52 4b 71 bd 00 d1 2c 3c 0d e5 05 3e
       -0.26358914 -0.05890972 0.010547876 0.13075657
000300 a8 a7 4f be ae d0 d0 bd c6 85 78 be 0c c9 17 be
       -0.202788 -0.101960525 -0.2426978 -0.14822787
000310 f9 da e3 3e 96 88 ba 3d 5f f4 3b bd 0c 69 a3 3e
       0.44503 0.09108083 -0.045887347 0.31916082
000320 76 78 01 3e 64 a8 0f 3e 0b 5f b9 3e d3 8f d4 3d
       0.12643608 0.1402908 0.36205325 0.10378995
000330 28 6d 94 bd 09 fc e1 bc 60 08 ac 3b de 8e 42 3d
       -0.072473824 -0.027586 0.005250022 0.04749953
000340 e8 b9 65 3d 9e 85 f8 3d d5 98 d3 bd f9 da e3 3e
       0.056085497 0.121348605 -0.10331885 0.44503
000350 76 83 ec 3d 00 99 4d 3c 09 fc e1 bc de 98 7c 3d
       0.11548512 0.012548685 -0.027586 0.061669223
000360 fe 56 14 be e6 94 00 bb b9 d9 53 be 25 a5 a7 bd
       -0.1448631 -0.001962 -0.20688523 -0.08185796
000370 e6 94 00 bb 1e 3d 51 3d 8a 7a 32 3d 09 fc e1 bc
       -0.001962 0.051083677 0.043573894 -0.027586
000380 fa f7 42 be f7 65 2b be d2 6c ee bb ac 9e 76 be
       -0.19039908 -0.16738115 -0.007276156 -0.24083966
000390 c0 5f 25 be e6 94 00 bb c4 ed f0 bd a8 85 78 3d
       -0.16149807 -0.001962 -0.117641 0.06067434
0003a0 b5 1c b1 3e 02 bd ef 3d 97 39 4d 3e ff 17 63 be
       0.34592214 0.11705972 0.200415 -0.22177123
0003b0 2c 48 aa 3d 28 24 9f 3d 09 fc e1 bc 40 04 88 bd
       0.08314547 0.07770568 -0.027586 -0.066414356
0003c0 84 b0 42 be f3 05 a5 be a5 db b0 3d a8 ee 58 be
       -0.19012648 -0.322311 0.08635644 -0.2118479
0003d0 ce fb 0e be 69 33 85 be ce 2c bb bd 09 fc e1 bc
       -0.13963243 -0.26015785 -0.09139405 -0.027586
0003e0 70 15 00 3c 5d 83 3a be e6 94 00 bb 90 25 56 3d
       0.007817611 -0.18214174 -0.001962 0.052281916
0003f0 80 00 57 3e 23 f4 16 be 6e ca 81 be 0b 2d 81 3d
       0.20996284 -0.14741568 -0.25349754 0.063074194
