Assignment5/data/03001627/train/b5a741e11438fb83d155b73c25b81001.npy (npy, 180128 bytes, 1 tensors)

array f4 [15000, 3]
-0.0502903 -0.09256535 -0.11017638 0.18250161 0.21539322 0.099870294 0.14634672 -0.09013413
0.0024480864 0.023012783 0.09946883 -0.029826367 -0.10633783 -0.08938444 -0.028982982 0.19968222
-0.044254757 -0.003204979 -0.17475405 0.23955938 0.14497666 -0.22032568 0.0048782825 -0.28218463
-0.034620434 0.18877645 0.20072271 -0.12251023 0.009030178 0.013806726 0.15567814 -0.217619
0.014716407 -0.06307007 -0.045800313 0.028336527 0.07485968 -0.089473635 -0.21405888 0.055830225
0.37336 0.20663466 -0.19182523 0.25668776 0.046477117 -0.07186232 0.0066352207 0.04061377
-0.12836546 -0.08682147 -0.08307174 -0.2202782 -0.09269817 -0.18731056 -0.11002736 -0.178067
-0.27719897 -0.14949478 0.2530538 0.13318305 -0.15709464 -0.29983738 0.13488403 0.18194267
-0.041347243 -0.047834605 0.048068203 0.116612576 0.18085462 -0.025603127 0.36057636 0.24104233
-0.16261481 -0.088153385 0.0019633146 -0.21972889 0.16064143 0.022459539 0.20019162 0.022997878
-0.21454334 0.098099574 -0.217619 -0.058954954 -0.15551843 -0.3361292 0.1573083 0.05102986
0.27964073 0.18322976 -0.0050685303 0.08628711 0.18229045 0.17928673 0.02543437 -0.23000598
0.19287914 -0.0032960526 -0.036849502 -0.17249453 -0.10101662 0.11616149 -0.011537537 -0.0875571
0.056840375 -0.21791463 0.30383152 0.0518635 -0.12579766 -0.178067 -0.28215963 0.13299076
0.1536721 0.14753927 -0.1448083 -0.005138 0.123595476 -0.20161287 -0.14929388 -0.014586604
0.11279167 -0.178067 0.017060935 -0.1360285 0.15001635 0.012641087 -0.13269283 -0.0715785
-0.055772204 -0.124545276 -0.217619 -0.15240507 -0.022792403 -0.021990277 -0.13587226 -0.1348616
-0.026445933 -0.025210604 -0.13946751 0.09122233 0.11269444 0.11867255 -0.21720755 0.14094426
0.14839599 0.356611 0.17231226 0.026278296 -0.08635063 0.016595565 -0.048717275 -0.217619
-0.059196547 -0.21086147 -0.16726696 0.051338688 0.16731955 -0.10740717 0.05352292 -0.21093936
0.021838147 -0.065261036 -0.039951276 0.22615777 0.20809376 0.18633354 -0.17795362 -0.108825475
0.14552681 0.012570869 0.08344069 -0.20197193 -0.1482421 -0.06501749 -0.10062558 -0.217619
-0.18849961 -0.21980259 0.3816761 0.054244984 -0.095097646 -0.217619 0.0033536553 0.14054893
-0.217619 0.06306674 0.15429102 0.1334506 0.08723171 -0.064518705 -0.18050039 -0.013045678
-0.20932348 -0.16670267 0.05762855 -0.19695711 -0.09539515 -0.1649156 0.19886017 0.31810924
0.06567694 -0.07794886 -0.0025984053 0.037111167 0.107561834 -0.18050294 -0.15642187 -0.04666937
-0.087473184 -0.1809443 -0.013293687 -0.04129192 -0.0711918 -0.12911537 -0.086826235 -0.07248972
0.035340384 -0.08697672 -0.15347931 0.02098167 -0.217619 -0.064063154 -0.092785224 -0.17949308
0.115554765 -0.088162646 0.058559373 0.13436338 0.19927575 0.36282447 0.030426916 0.14556785
-0.178067 0.009445611 0.13298963 -0.217619 -0.25981256 0.15929562 -0.17909709 -0.2663491
-0.028280344 0.024761109 0.17239237 -0.19041553 0.2654534 0.0600951 0.0945078 0.10238182
-0.011191536 -0.16088086 -0.08788262 -0.031884097 0.18442807 -0.11842098 -0.22322011 0.17723785
00000000: 34fd 4dbd e792 bdbd 27a4 e1bd b4e1 3a3e
00000010: 0a90 5c3e cc88 cc3d eadb 153e 3e98 b8bd
00000020: 1370 203b 4e85 bc3c 50b6 cb3d 6d56 f4bc
00000030: a6c7 d9bd 300f b7bd b86d edbc 7f79 4c3e
00000040: 7a44 35bd a00a 52bb baf2 32be 0e4f 753e
00000050: c374 143e 0e9d 61be 00da 9f3b 817a 90be
00000060: 28ce 0dbd 9d4e 413e 418a 4d3e a5e6 fabd
00000070: 50f3 133c 9b35 623c 176a 1f3e 84d7 5ebe
00000080: 161d 713c e22a 81bd 1c99 3bbd 0122 e83c
00000090: 0850 993d f43d b7bd 4032 5bbe 3cae 643d
000000a0: 0b29 bf3e 0998 533e d56d 44be 946c 833e
000000b0: ca5e 3e3d 8d2c 93bd 446c d93b a05a 263d
000000c0: 3c72 03be 74cf b1bd 8421 aabd 9c90 61be
000000d0: 8ad8 bdbd 57ce 3fbe 0656 e1bd 3257 36be
000000e0: 06ed 8dbe 2915 19be 4590 813e 2361 083e
000000f0: 6bdd 20be 4984 99be 0a1f 0a3e 2e4f 3a3e
00000100: ba5b 29bd 38ee 43bd 2ae3 443d 93d2 ee3d
00000110: f431 393e a6bd d1bc 779d b83e cdd3 763e
00000120: 7f84 26be c389 b4bd f4aa 003b 9c00 61be
00000130: 307f 243e 11fd b73c 08ff 4c3e 0c66 bc3c
00000140: 40b1 5bbe 6ee8 c83d 84d7 5ebe c07a 71bd
00000150: 3940 1fbe 2019 acbe 6d15 213e b004 513d
00000160: 122d 8f3e 95a0 3b3e ea15 a6bb 4cb7 b03d
00000170: 59aa 3a3e f196 373e bd5b d03c b086 6bbe
00000180: 1c82 453e 9602 58bb 81ef 16bd 68a2 30be
00000190: cde1 cebd 13e6 ed3d f007 3dbc 2351 b3bd
000001a0: 74d1 683d 0325 5fbe ce8f 9b3e d26e 543d
000001b0: 1ad1 00be 3257 36be 3a77 90be bb2e 083e
000001c0: 385c 1d3e 8914 173e a148 14be ab5c a8bb
000001d0: a01f fd3d 9b73 4ebe 7fe0 18be a7fc 6ebc
000001e0: 52ff e63d 3257 36be 60c3 8b3c 0e4b 0bbe
000001f0: e39d 193e 901c 4f3c a1e0 07be c097 92bd
00000200: 6571 64bd 9811 ffbd 84d7 5ebe 1310 1cbe
00000210: 22b7 babc f424 b4bc 1922 0bbe 2919 0abe
00000220: 24a5 d8bc 7886 cebc 92d0 0ebe c6d2 ba3d
00000230: 58cc e63d 980a f33d a86b 5ebe b153 103e
00000240: 1ef5 173e b895 b63e a072 303e 9545 d73c
00000250: 99d8 b0bd 6cf3 873c c48b 47bd 84d7 5ebe
00000260: 1478 72bd 12ec 57be 0848 2bbe 8448 523d
00000270: d155 2b3e 4af8 dbbd d93a 5b3d 7d00 58be
00000280: eae5 b23c 94a7 85bd f3a3 23bd e795 673e
00000290: 8816 553e 38ce 3e3e 7939 36be e4df debd
000002a0: fb04 153e 0cf6 4d3c f4e2 aa3d bbd1 4ebe
000002b0: c7cc 17be e427 85bd c914 cebd 84d7 5ebe
000002c0: 0b06 41be ee13 61be 0d6b c33e fd2f 5e3d
000002d0: 8ec2 c2bd 84d7 5ebe 00c9 5b3b 0fec 0f3e
000002e0: 84d7 5ebe 2329 813d 77fe 1d3e 46a7 083e
000002f0: 8aa6 b23d 6222 84bd 18d5 38be 8abd 55bc
00000300: e558 56be 1bb4 2abe ea0b 6c3d 20af 49be
00000310: 885e c3bd a3df 28be 00a2 4b3e 37df a23e
00000320: a281 863d a7a3 9fbd 024a 2abb e101 183d
00000330: 6149 dc3d c3d5 38be 0e2d 20be 6228 3fbd
00000340: 2425 b3bd 7649 39be c4cd 59bc b721 29bd
00000350: 02cd 91bd d236 04be f4d1 b1bd 7e75 94bd
00000360: 14c1 103d da20 b2bd ae29 1dbe c0e1 ab3c
00000370: 84d7 5ebe 8b33 83bd 2e06 bebd 09cd 37be
00000380: faa7 ec3d 9e8e b4bd f4db 6f3d 8e96 093e
00000390: f10e 4c3e 21c4 b93e de41 f93c bd0f 153e
000003a0: 3257 36be c4c1 1a3c 6f2e 083e 84d7 5ebe
000003b0: 2706 85be 641e 233e 3a65 37be e95e 88be
000003c0: 2eac e7bc cfd7 ca3c a087 303e 4afc 42be
000003d0: 82e9 873e 4826 763d 4e8d c13d 8fad d13d
000003e0: b45c 37bc f4bd 24be cefb b3bd e698 02bd
000003f0: b6da 3c3e b386 f2bd d093 64be d77d 353e
