Assignment5/data/03001627/train/b654fef8eb98e99d65ba78ad9601cf1b.npy (npy, 180128 bytes, 1 tensors)

array f4 [15000, 3]
-0.16425063 -0.34497958 -0.3311191 0.17893627 -0.16411006 -0.18266991 0.016010834 0.26984182
0.10256795 0.0555156 -0.16647378 -0.0061885417 -0.018534973 -0.18392797 -0.34296614 0.16659963
-0.29756725 -0.330945 0.13222577 -0.15776725 -0.29997113 -0.12952834 0.013702113 0.04847264
-0.06389578 -0.16589649 -0.32019788 0.13919316 -0.13418356 0.039933678 -0.023477796 0.19930886
0.09233029 -0.14587355 -0.36664063 0.026502479 -0.07572253 -0.13564229 0.06350955 -0.06498806
-0.16580254 -0.28647375 0.03502966 0.23511592 0.080462605 -0.034397505 0.060674332 0.07682024
0.15100543 -0.45054987 0.041268427 -0.09133781 0.03775387 0.054848567 -0.03845754 0.112366125
0.08156106 -0.179871 -0.15889001 -0.035913225 -0.15186894 -0.3501142 0.04368234 -0.15575653
-0.32979608 0.028426636 -0.077785514 0.29419637 0.10223601 -0.14581737 -0.0057020932 0.044786755
0.14830823 0.15507495 0.05890709 -0.065402865 -0.18406163 -0.2014578 0.15374851 -0.43749177
-0.32288826 -0.042591643 -0.1671275 -0.008228868 0.04851055 -0.16681838 -0.17144223 0.16182065
-0.4844861 -0.32833466 0.047529362 -0.18516126 -0.09604349 -0.041938484 -0.16715965 -0.15747653
-0.008821491 -0.16802572 0.023408476 -0.14907184 -0.17331043 -0.15431893 0.14784758 -0.26336533
-0.3214416 -0.08740606 -0.16387446 -0.23298335 0.09367038 -0.06402765 0.04817161 -0.019686112
-0.16789079 -0.03355372 -0.14739247 -0.17364408 -0.17885084 0.10001114 0.19847731 0.08723835
0.05448403 -0.18481937 -0.12151394 0.1585365 -0.28279084 0.029108075 -0.008430219 -0.18632457
-0.08716276 -0.042191602 0.1473862 0.06880406 0.10414544 -0.16179669 -0.19679044 -0.12833975
-0.1767446 -0.26922375 0.06882438 0.25066048 0.08087488 -0.1333811 -0.02702029 0.0615835
0.16299593 0.13711707 0.06970861 -0.157534 -0.1533357 -0.20879811 0.062576056 -0.16597858
0.015545722 0.07424639 -0.18326929 -0.04064312 -0.15727662 0.27009055 0.087134905 -0.114125036
-0.17011216 -0.345015 0.10634629 0.24391758 0.09286135 0.03273863 -0.18588838 -0.028373599
0.10002314 -0.042583227 0.064834125 -0.16852276 -0.16944763 -0.2358798 -0.16246752 -0.15235575
-0.3353962 0.11380514 0.29782948 0.08530604 -0.15858662 -0.06432258 0.055583976 0.014188408
-0.0715906 0.05213655 0.018007318 0.08874516 0.07974409 0.015574477 0.011772679 0.05697191
-0.10837443 -0.060304683 0.046780836 0.022479791 -0.16785155 -0.11978921 -0.104110755 -0.023185965
0.06556878 -0.15919994 -0.40733278 0.041609038 0.04751029 0.20499632 0.0757482 -0.02103365
-0.16787405 -0.02023831 0.15233347 -0.07684031 0.05602181 -0.110312335 -0.14934355 0.059778214
0.053601287 -0.09697826 0.049905095 -0.17194436 -0.054963127 0.037932016 0.048003815 0.28444898
0.103877366 -0.09410931 -0.064608365 0.06443879 -0.16860165 -0.140468 0.05115296 -0.018214447
0.27265164 0.08645829 0.06602139 -0.16568226 -0.27605197 -0.1185461 0.054260716 0.06956606
0.034587406 -0.12830593 0.0660328 0.12135182 -0.15951376 -0.15045828 0.03457856 -0.18579793
-0.05886811 -0.044752896 0.07009593 0.077164374 0.09150492 -0.18164812 -0.33162323 0.1277139
00000000: 5131 28be 2aa1 b0be 7188 a9be 123b 373e
00000010: 780c 28be d20d 3bbe 2729 833c b528 8a3e
00000020: 250f d23d 5364 633d 1a78 2abe 40c9 cabb
00000030: a8d6 97bc 9d57 3cbe 4299 afbe 1899 2a3e
00000040: bc5a 98be 9f71 a9be 3166 073e bd8d 21be
00000050: d195 99be 14a3 04be d47e 603c 3f8b 463d
00000060: cadb 82bd c5e0 29be faf0 a3be a788 0e3e
00000070: 6a67 09be 7f91 233d 8254 c0bc 9f17 4c3e
00000080: aa17 bd3d e05f 15be 52b8 bbbe ba1b d93c
00000090: 6a14 9bbd d0e5 0abe 4c11 823d 7618 85bd
000000a0: 24c8 29be b0ac 92be 437b 0f3d 3ac2 703e
000000b0: 94c9 a43d 66e4 0cbd a685 783d ee53 9d3d
000000c0: 2ba1 1a3e 79ae e6be 1509 293d 510f bbbd
000000d0: cda3 1a3d e4a8 603d a785 1dbd 3620 e63d
000000e0: 7c09 a73d 1a30 38be 10b4 22be bf19 13bd
000000f0: 8883 1bbe 2b42 b3be 41ec 323d a47e 1fbe
00000100: 08db a8be fade e83c 034e 9fbd e8a0 963e
00000110: 1d61 d13d 2651 15be a0d8 babb 5172 373d
00000120: 1dde 173e f8cb 1e3e 9048 713d f0f1 85bd
00000130: a77a 3cbe f44a 4ebe 4070 1d3e ecfe dfbe
00000140: 9c51 a5be 9374 2ebd 7923 2bbe 60d2 06bc
00000150: 00b3 463d 70d2 2abe 8d8e 2fbe 50b4 253e
00000160: 900e f8be 7b1b a8be 26ae 423d ea9a 3dbe
00000170: 73b2 c4bd b0c7 2bbd e62b 2bbe 8741 21be
00000180: 0488 10bc ef0e 2cbe 22c3 bf3c 4aa6 18be
00000190: 4a78 31be c805 1ebe 5b65 173e d2d7 86be
000001a0: fe93 a4be f301 b3bd b5ce 27be 3093 6ebe
000001b0: 42d6 bf3d ee20 83bd 984f 453d c544 a1bc
000001c0: 90eb 2bbe a06f 09bd 0dee 16be c1cf 31be
000001d0: ad24 37be a4d2 cc3d a33d 4b3e 05aa b23d
000001e0: a52a 5f3d 4a41 3dbe 4ddc f8bd 6457 223e
000001f0: f6c9 90be 0f74 ee3c e71e 0abc decb 3ebe
00000200: 6482 b2bd 1ad1 2cbd 68ec 163e 25e9 8c3d
00000210: 344a d53d 08ae 25be 6f83 49be 7f6b 03be
00000220: 89fc 34be b2d7 89be ccf3 8c3d 9256 803e
00000230: bba1 a53d 0e95 08be a859 ddbc fb3e 7c3d
00000240: 68e8 263e 6b68 0c3e 63c3 8e3d 9850 21be
00000250: 0904 1dbe 2ccf 55be e027 803d 4af6 29be
00000260: 7cb3 7e3c 7e0e 983d f2aa 3bbe 6679 26bd
00000270: 1f0d 21be 4f49 8a3e c973 b23d 63ba e9bd
00000280: e231 2ebe cea5 b0be 15cc d93d 88c5 793e
00000290: 172e be3d f118 063d 8659 3ebe c06f e8bc
000002a0: efd8 cc3d c06b 2ebd c1c7 843d 3b91 2cbe
000002b0: ae83 2dbe 798a 71be e35d 26be 2503 1cbe
000002c0: 0db9 abbe ab12 e93d 1b7d 983e efb4 ae3d
000002d0: 8864 22be 8fbb 83bd 06ac 633d 7f76 683c
000002e0: 189e 92bd 238d 553d 1584 933c 06c0 b53d
000002f0: df50 a33d 172c 7f3c 32e2 403c 615b 693d
00000300: 6af3 ddbd 0b02 77bd 439d 3f3d 8a27 b83c
00000310: 47e1 2bbe 0c54 f5bd 0538 d5bd 7ef0 bdbc
00000320: ed48 863d 4f05 23be ec8d d0be 3d6e 2a3d
00000330: 269a 423d 8eea 513e df21 9b3d c34e acbc
00000340: 2de7 2bbe d0ca a5bc 4efd 1b3e 745e 9dbd
00000350: 2077 653d 6feb e1bd 84ed 18be 00da 743d
00000360: 068d 5b3d 8a9c c6bd 4969 4c3d 2f12 30be
00000370: 0421 61bd 9a5e 1b3d a69f 443d 4ca3 913e
00000380: a8bd d43d 62bc c0bd 6451 84bd 7cf8 833d
00000390: e9a5 2cbe d8d6 0fbe c485 513d 7736 95bc
000003a0: ff98 8b3e 0b11 b13d 3936 873d 9ca8 29be
000003b0: af56 8dbe 4cc8 f2bd 7c40 5e3d a778 8e3d
000003c0: 86ab 0d3d a162 03be 343c 873d 4e87 f83d
000003d0: 9357 23be bc11 1abe 40a2 0d3d d041 3ebe
000003e0: b01f 71bd d04e 37bd 748e 8f3d 5b08 9e3d
000003f0: ee66 bb3d f701 3abe 85ca a9be 6fc7 023e
