Assignment5/data/03001627/train/b67aacec8e98edded0b19424de5f7fe4.npy (npy, 180128 bytes, 1 tensors)

array f4 [15000, 3]
000000 ba fb 2a be 93 be 8e 3e c3 f1 dc 3d 57 02 1d 3e
       -0.16697589 0.27879772 0.107883 0.15332924
000010 d2 6d 09 bd a0 f3 b6 bd 7c 74 4f 3d 2b e6 b0 3e
       -0.033552 -0.089331865 0.050648198 0.34550604
000020 c3 f1 dc 3d c8 24 29 bd d2 6d 09 bd b0 91 50 bc
       0.107883 -0.041294843 -0.033552 -0.012730047
000030 ec b7 08 3e 32 80 60 be 5e 0f 46 be c0 98 7c 3b
       0.1335141 -0.21923903 -0.193418 0.0038543195
000040 86 59 a8 bd 14 a8 d3 bd 5f ee 0f be 22 a2 69 be
       -0.082202 -0.10334793 -0.14055775 -0.22815755
000050 0d a8 77 3d 08 df a6 3c 43 1d a8 3e 8e c8 77 3d
       0.060463 0.020370021 0.32834825 0.060494
000060 24 0d ee 3d 77 7f 33 be 03 f1 67 be 76 03 30 3e
       0.116236 -0.17529093 -0.22650532 0.1718882
000070 d2 6d 09 bd 82 62 a0 bd 23 61 27 3e f8 72 b6 be
       -0.033552 -0.07831289 0.16345648 -0.3563459
000080 0d a8 77 3d 14 3d 30 be 96 aa 5a be c0 4b 9d 3d
       0.060463 -0.172108 -0.21354136 0.07680464
000090 72 c3 ef bd 5c e1 d4 bd 6a ed 57 be 6c 88 63 3d
       -0.117072 -0.103945464 -0.2108666 0.055550024
0000a0 86 59 a8 bd f0 04 b1 bd b4 0f 0f 3e 6c 00 8e be
       -0.082202 -0.0864352 0.13970834 -0.27734697
0000b0 c3 f1 dc 3d bc 25 3b 3d af e6 bf 3e 55 0e 83 3d
       0.107883 0.045690283 0.37480685 0.06399218
0000c0 af fe 18 be 78 1c b2 be 5e 0f 46 be 50 28 2c be
       -0.14940904 -0.34787345 -0.193418 -0.16812253
0000d0 d2 6d 09 bd 03 db f4 bd 72 c3 ef bd 03 5d a4 be
       -0.033552 -0.11955836 -0.117072 -0.32102212
0000e0 95 9b 5d be cc 74 1f be 38 06 86 be c3 f1 dc 3d
       -0.21641381 -0.15571898 -0.2617662 0.107883
0000f0 d8 3d c0 3d d2 6d 09 bd b9 ef f9 bd b6 b9 f3 bd
       0.09386796 -0.033552 -0.122039266 -0.11900656
000100 ee fe 13 3d c3 f1 dc 3d a0 a7 41 3c 88 c8 05 3e
       0.03613179 0.107883 0.01181975 0.13064778
000110 8e c8 77 3d 14 3d 30 be a1 73 f3 be 08 d8 a7 3d
       0.060494 -0.172108 -0.47549155 0.081955016
000120 b4 66 3c 3d 80 70 d7 3c 8e c8 77 3d 6e e7 05 3e
       0.045996383 0.026298761 0.060494 0.13076565
000130 2c 05 a1 be e9 5f 72 be 0c f8 0f 3e e8 a2 aa be
       -0.31449258 -0.236694 0.14059466 -0.33327413
000140 e9 5f 72 be a6 1e f9 bd 64 5c fb be c3 f1 dc 3d
       -0.236694 -0.12164049 -0.49093926 0.107883
000150 aa 7c ef bd b6 e3 8e be 6d b0 96 3d 72 51 ed 3d
       -0.116937 -0.27908105 0.07357869 0.115878
000160 4a 5f 25 be 99 df 80 3d f2 e6 be bd d2 6d 09 bd
       -0.16149631 0.06292648 -0.09321393 -0.033552
000170 b0 49 b9 3b e0 0f 9d 3c 0b 49 a7 bd e9 5f 72 be
       0.005654536 0.019172609 -0.08168229 -0.236694
000180 88 68 80 3c a7 d4 2b bd c3 f1 dc 3d 13 5b 0a 3e
       0.015674844 -0.041950848 0.107883 0.13511305
000190 28 46 b6 be 0d a8 77 3d 1c cf 0a 3e 86 59 a8 bd
       -0.356004 0.060463 0.13555568 -0.082202
0001a0 12 e6 07 be 46 0d 8f bd 86 59 a8 bd 90 72 89 bc
       -0.13271359 -0.069849536 -0.082202 -0.01677826
0001b0 27 6a 26 3e 8b 82 9f be c3 f1 dc 3d 6c 37 aa bc
       0.16251431 -0.31154284 0.107883 -0.02077838
0001c0 86 8d 60 bd c3 f1 dc 3d 40 55 83 3c 86 59 a8 bd
       -0.054822467 0.107883 0.016031861 -0.082202
0001d0 19 1e 64 bd 10 8a 1e be c0 5c ff bd 5e 0f 46 be
       -0.055692766 -0.15482354 -0.124688625 -0.193418
0001e0 04 64 69 3d ad ba a8 3e 8e c8 77 3d 55 4d 28 be
       0.056980148 0.32954922 0.060494 -0.1643575
0001f0 3c b8 97 bd c3 f1 dc 3d 24 0d ee 3d 7c 91 1f be
       -0.07408187 0.107883 0.116236 -0.15582842
000200 de ad 60 be 17 f0 2a 3e 04 5c ce bd c3 f1 dc 3d
       -0.21941325 0.1669315 -0.10076144 0.107883
000210 38 23 7b bd 86 59 a8 bd 94 0e c5 bd d0 66 74 bc
       -0.061312884 -0.082202 -0.09621921 -0.014917091
000220 0a 99 bb 3d c3 f1 dc 3d 97 88 e6 3d 37 bb 3f bd
       0.09160049 0.107883 0.11256521 -0.0468094
000230 c3 f1 dc 3d 57 c2 f6 bd 8e 11 ef be c3 f1 dc 3d
       0.107883 -0.12048786 -0.4669308 0.107883
000240 66 45 ae 3d b2 21 a3 3d c3 f1 dc 3d 24 0d ee 3d
       0.085093305 0.07965411 0.107883 0.116236
000250 32 43 d7 be 47 5a 48 be 8c 72 b4 bc b9 d0 c1 3e
       -0.42043453 -0.19565688 -0.022027276 0.37854555
000260 88 06 ba 3d 34 cf 37 bd 20 42 1a 3e c3 f1 dc 3d
       0.09083277 -0.04487534 0.15064287 0.107883
000270 14 3d 30 be 10 88 b5 3d 3a 1f 8f 3d e8 de da bc
       -0.172108 0.088638425 0.06988378 -0.026717618
000280 d2 2e 27 bd c3 f1 dc 3d 64 99 2f be d2 6d 09 bd
       -0.040816136 0.107883 -0.17148358 -0.033552
000290 81 0d dc bd 40 9d 5d bb d2 6d 09 bd 00 cc 96 3a
       -0.10744763 -0.0033815652 -0.033552 0.0011504889
0002a0 b9 c8 01 be 1e 48 55 3e 8e c8 77 3d 1b 93 12 be
       -0.12674226 0.20828292 0.060494 -0.14313929
0002b0 0b c0 0b bd e9 5f 72 be 39 cf 74 bd 86 59 a8 bd
       -0.034118693 -0.236694 -0.059767935 -0.082202
0002c0 3c 91 51 bd e0 38 6f 3d 56 1f 25 3d c3 f1 dc 3d
       -0.051163897 0.05840385 0.040313087 0.107883
0002d0 36 71 f3 bd 39 67 a5 3e 8e c8 77 3d 65 f1 0c 3e
       -0.11886828 0.32305315 0.060494 0.1376396
0002e0 da ae f7 be 0d a8 77 3d aa 7c ef bd de 2b 93 be
       -0.4837559 0.060463 -0.116937 -0.28744406
0002f0 7f f0 78 3d b7 9b 30 3e a4 cd 8a bd fc ae 29 3d
       0.06077623 0.172469 -0.06777504 0.041426644
000300 76 22 1a 3e 5d 7e 8c be c3 f1 dc 3d 90 62 a1 bc
       0.15052208 -0.27440158 0.107883 -0.019700319
000310 d2 6d 09 bd 4a 18 e4 3c 16 23 b4 3d 2f 8e af 3e
       -0.033552 0.027843613 0.087957546 0.34288165
000320 c3 f1 dc 3d 2a 9a 20 be 86 59 a8 bd a0 aa 07 bd
       0.107883 -0.15683809 -0.082202 -0.033121705
000330 5e f4 0b 3e 86 59 a8 bd bd 80 14 be 7e 2e 81 3d
       0.13667437 -0.082202 -0.14502235 0.06307696
000340 86 59 a8 bd bb 08 90 3d b7 9b 30 3e fd a0 4e bd
       -0.082202 0.07032915 0.172469 -0.0504465
000350 12 2d 5c be b7 9b 30 3e 1a 56 ac be 0e 0a 6f be
       -0.21501568 0.172469 -0.3365944 -0.2334368
000360 58 59 4e bc 4e 35 b4 3e 8e c8 77 3d f0 20 e5 3c
       -0.012594543 0.35196918 0.060494 0.027969807
000370 86 59 a8 bd 6c ec 59 3d a0 5d a4 bc c8 ca a0 3e
       -0.082202 0.053203985 -0.020064175 0.3140471
000380 8e c8 77 3d 9f 03 0d 3e d5 ca 6f 3e c3 f1 dc 3d
       0.060494 0.13770913 0.23417218 0.107883
000390 20 05 fd 3d 60 f1 91 be c3 f1 dc 3d da 85 f0 bd
       0.12354493 -0.28504467 0.107883 -0.1174428
0003a0 f0 27 ec 3d c3 f1 dc 3d 08 77 51 3c 67 77 ac 3e
       0.11531055 0.107883 0.012784727 0.33684847
0003b0 c3 f1 dc 3d 04 92 9f 3d d2 6d 09 bd ab 87 56 3d
       0.107883 0.07791522 -0.033552 0.052375477
0003c0 3c 72 1e 3e 32 f6 3f be 5e 0f 46 be 7e 0e 25 be
       0.15473264 -0.1874626 -0.193418 -0.1611881
0003d0 a8 b0 96 be c3 f1 dc 3d e0 da 85 bc 4e bb 5d bd
       -0.29431653 0.107883 -0.01633972 -0.054133706
0003e0 c3 f1 dc 3d 69 b7 14 be 64 7c 0d be c3 f1 dc 3d
       0.107883 -0.1452309 -0.13816983 0.107883
0003f0 b7 9b 30 3e 65 4b 15 bd 25 7a 1f be ed 42 1f 3e
       0.172469 -0.036448855 -0.15573938 0.15552874
