Assignment5/data/03001627/train/b7012b9baf6a71526cff9b44fdf0517e.npy (npy, 180128 bytes, 1 tensors)

array f4 [15000, 3]
0	0x3c4aec90	0.012385502
1	0x3e189be0	0.14903212
2	0x3e0f6449	0.140031
3	0x3b3c7a80	0.002875954
4	0x3ea07496	0.31338948
5	0x3e20bb6f	0.156965
6	0xbd432220	-0.047639966
7	0xbcefedcc	-0.029288195
8	0xbe2fabda	-0.171554
9	0xbe0db5f4	-0.13838941
10	0x3dc67ad9	0.096914
11	0xbdf43ae2	-0.119252935
12	0x3e1f3ba7	0.155501
13	0xbeae81d4	-0.34083426
14	0x3dfd296e	0.12361418
15	0xbe03f127	-0.12884961
16	0x3ef8984b	0.4855369
17	0x3e0f6449	0.140031
18	0x3df67bb6	0.12035315
19	0x3ddec1c2	0.108768
20	0x3e11cec8	0.14239037
21	0x3ddfd62c	0.10929522
22	0x3c4823e0	0.0122155845
23	0xbe3bcf4f	-0.183408
24	0xbcf14478	-0.029451594
25	0x3e7e2e3a	0.24822322
26	0x3e20bb6f	0.156965
27	0x3d902256	0.07037799
28	0x3e6f8924	0.23392159
29	0x3e20bb6f	0.156965
30	0xbdf307b2	-0.11866702
31	0x3ed59ffe	0.41723627
32	0x3e0f6449	0.140031
33	0xbc8511c0	-0.016243815
34	0xbe47578b	-0.19466989
35	0xbe3bcf4f	-0.183408
36	0x3da4fc84	0.08055976
37	0x3dc67ad9	0.096914
38	0xbe2bd0f1	-0.16778924
39	0x3e098398	0.13429105
40	0x3e5886cc	0.21145171
41	0x3e20bb6f	0.156965
42	0x3ddb4ad2	0.1070763
43	0x3ef68b35	0.48153082
44	0x3e20bb6f	0.156965
45	0x3cc3e360	0.023912132
46	0xbe7be4a1	-0.24598934
47	0xbe3bcf4f	-0.183408
48	0xbd3d4da0	-0.046216607
49	0xbe9210b4	-0.28528368
50	0xbe3bcf4f	-0.183408
51	0xbdf31b32	-0.118704215
52	0x3ec26494	0.3796736
53	0x3e0f6449	0.140031
54	0x3d9c24f3	0.07624235
55	0xbeb4449e	-0.352086
56	0xbe199f8e	-0.15002272
57	0x3d965510	0.07340443
58	0xbe311cf1	-0.17296197
59	0xbe3bcf4f	-0.183408
60	0xbe1a04fa	-0.15040961
61	0x3ec84ca8	0.39120984
62	0x3e20bb6f	0.156965
63	0x3dfb7366	0.1227787
64	0x3ee218f8	0.44159675
65	0x3e0f6449	0.140031
66	0xbdbe5ac6	-0.092946574
67	0xbeb185c5	-0.3467237
68	0x3e20bb6f	0.156965
69	0x3d1954d8	0.03743443
70	0x3e216ce0	0.15764189
71	0x3e20bb6f	0.156965
72	0xbcc99f30	-0.02461204
73	0x3dc67ad9	0.096914
74	0xbe1a26d9	-0.15053882
75	0xbb945800	-0.004527092
76	0x3de87ad6	0.11351554
77	0x3e0f6449	0.140031
78	0xbd8505ea	-0.06495269
79	0xbea9dd1a	-0.331765
80	0x3d547550	0.05186969
81	0x3b2afc00	0.0026090145
82	0xbea9dd1a	-0.331765
83	0xbdf0ac26	-0.11751585
84	0x3afdba00	0.00193578
85	0xbeb4449e	-0.352086
86	0x3db3e5fd	0.08784101
87	0xbd98e6b0	-0.07465875
88	0x3ddec1c2	0.108768
89	0xbdfe47c2	-0.124160305
90	0x3e15081b	0.14553873
91	0xbe677d1b	-0.22606318
92	0xbe3bcf4f	-0.183408
93	0x3dad17e3	0.08451822
94	0xbea99762	-0.33123308
95	0xbe3bcf4f	-0.183408
96	0x3d8138b9	0.06309647
97	0xbeb4449e	-0.352086
98	0xbda0cec6	-0.07851939
99	0x3ddefbe2	0.108878866
100	0x3f08b795	0.53405124
101	0x3e20bb6f	0.156965
102	0x3de6bacb	0.11266097
103	0xbea9dd1a	-0.331765
104	0x3c758ab0	0.014986679
105	0xbd062198	-0.03274688
106	0xbeb4449e	-0.352086
107	0xbded762d	-0.11594806
108	0x3c1e75f0	0.009671673
109	0xbea9dd1a	-0.331765
110	0xbe1abe30	-0.15111613
111	0xbd69518e	-0.056962542
112	0xbea9dd1a	-0.331765
113	0x3cc93d20	0.02456528
114	0xbd56c266	-0.052431487
115	0x3ddec1c2	0.108768
116	0xbb9508a0	-0.0045481473
117	0xbe10400a	-0.14086929
118	0xbd677cbc	-0.05651544
119	0xbe3bcf4f	-0.183408
120	0xbd9b7b3a	-0.07591863
121	0xbeb4449e	-0.352086
122	0x3dbba072	0.09161462
123	0x3d822a69	0.06355745
124	0xbea9dd1a	-0.331765
125	0x3cad35f0	0.021143883
126	0xbda3d934	-0.080004126
127	0x3dc2d831	0.095138915
128	0xbe2fabda	-0.171554
129	0xbd3cec86	-0.046124004
130	0xbe28737b	-0.16450302
131	0xbe3bcf4f	-0.183408
132	0x3dd45ae3	0.10368898
133	0xbea9dd1a	-0.331765
134	0x3e20558a	0.1565763
135	0xbdabbe19	-0.083858676
136	0xbeb4449e	-0.352086
137	0x3dacf216	0.08444612
138	0x3daab2b6	0.08334868
139	0xbe53b2eb	-0.2067372
140	0xbe3bcf4f	-0.183408
141	0x3de3fce2	0.11132218
142	0xbeb4449e	-0.352086
143	0x3c8f2998	0.017475888
144	0x3df7ee01	0.121059425
145	0x3d026b22	0.03184045
146	0xbe2fabda	-0.171554
147	0x3e040c34	0.1289528
148	0xbeb4449e	-0.352086
149	0xbdb68d0c	-0.08913621
150	0x3ddb5458	0.10709447
151	0xbead2222	-0.33815104
152	0xbe3bcf4f	-0.183408
153	0xbd5ed874	-0.054405645
154	0xbdbebf80	-0.093138695
155	0xbe3bcf4f	-0.183408
156	0xbe17eecf	-0.14837192
157	0x3e10d668	0.1414429
158	0x3e20bb6f	0.156965
159	0xbcb0cd18	-0.021582171
160	0x3e4c976e	0.19979641
161	0x3e0f6449	0.140031
162	0xbdf36100	-0.11883736
163	0x3ddec1c2	0.108768
164	0x3d1d2d84	0.038373485
165	0x3d85c5d2	0.06531872
166	0xbe9906be	-0.29887956
167	0xbe3bcf4f	-0.183408
168	0xbdfae323	-0.12250354
169	0x3dde4355	0.10852686
170	0xbe3bcf4f	-0.183408
171	0xbdc8a1a6	-0.09796457
172	0xbea9dd1a	-0.331765
173	0x3cebc2a0	0.028779328
174	0x3d3c8984	0.046029583
175	0xbd07e566	-0.033177756
176	0xbe2fabda	-0.171554
177	0x3d5a8106	0.053345703
178	0x3ea82ac2	0.32845122
179	0x3e0f6449	0.140031
180	0xbdd3bb76	-0.1033849
181	0x3ea4683e	0.3211078
182	0x3e20bb6f	0.156965
183	0xbcaaada8	-0.020834759
184	0xbea26afb	-0.31722245
185	0xbe3bcf4f	-0.183408
186	0x3da39783	0.07987883
187	0xbe3078e6	-0.17233619
188	0xbe2fabda	-0.171554
189	0x3e002ab5	0.12516291
190	0xbea9dd1a	-0.331765
191	0xbe2a30bd	-0.16620155
192	0x3c898b80	0.016790152
193	0x3dc67ad9	0.096914
194	0xbd313700	-0.043265343
195	0xbc95fa58	-0.01830785
196	0x3c38fcd0	0.011290744
197	0xbe3bcf4f	-0.183408
198	0x3dd17d98	0.10229033
199	0x3d99beba	0.07507081
200	0xbe3bcf4f	-0.183408
201	0xbc817f10	-0.015807658
202	0x3dd62196	0.10455625
203	0x3e20bb6f	0.156965
204	0xbe16005f	-0.14648579
205	0xbea7d3a5	-0.3277866
206	0xbe2fabda	-0.171554
207	0xbe12b2e3	-0.14326052
208	0xbeb4449e	-0.352086
209	0x3dcebb0e	0.100942716
210	0x3d8d7cae	0.069085464
211	0x3ddec1c2	0.108768
212	0x3dbcc0b8	0.09216446
213	0x3dcbf7f0	0.099594
214	0x3db45cf1	0.0880679
215	0xbe3bcf4f	-0.183408
216	0x3de99ed6	0.11407249
217	0x3ddec1c2	0.108768
218	0xbe102a8b	-0.14078729
219	0xbe19285b	-0.149568
220	0xbd910f80	-0.070830345
221	0xbe2fabda	-0.171554
222	0xbd8e1be4	-0.069389135
223	0xbeb4449e	-0.352086
224	0xbda8b960	-0.082384825
225	0x3d81171c	0.06303236
226	0x3f09085f	0.535284
227	0x3e12321c	0.14276928
228	0xbdd8cce0	-0.10585952
229	0xbea9dd1a	-0.331765
230	0xbdcbe308	-0.09955412
231	0x3e199e15	0.1500171
232	0x3c817840	0.01580441
233	0xbe3bcf4f	-0.183408
234	0xbc08ba40	-0.008345187
235	0x3ddec1c2	0.108768
236	0x3d826b74	0.06368151
237	0x3df3d4f6	0.119058535
238	0xbe0244e1	-0.12721588
239	0xbe3bcf4f	-0.183408
240	0x3db7146d	0.08939443
241	0xbe73927c	-0.23786348
242	0xbe2fabda	-0.171554
243	0xbd8ed608	-0.06974417
244	0xbe3b6f4e	-0.18304178
245	0xbe2fabda	-0.171554
246	0xbc46ac60	-0.012126058
247	0x3f05f6f9	0.52329975
248	0x3e0f6449	0.140031
249	0xbe06c147	-0.13159667
250	0x3de990bd	0.1140456
251	0x3e0f6449	0.140031
252	0x3e0e6426	0.13905391
253	0x3ebd67f2	0.36993366
254	0x3e0f6449	0.140031
255	0x3d0cd6ac	0.034384415
