Assignment5/data/03001627/train/b89952c6f2dbc1aea50b88953d263a42.npy (npy, 180128 bytes, 1 tensors)

array f4 [15000, 3]
-0.0019522381 -0.12062373 -0.040443175 0.015594609 0.019837 -0.15841012 0.11356714 0.043722
-0.051138654 0.14220925 0.03178 -0.054345727 0.013607681 0.019837 0.030461084 0.097600885
0.43110707 0.13724162 0.13033302 0.03178 -0.016012503 -0.0033694655 0.043722 -0.14793463
0.0065729916 0.1934853 0.16625299 0.11003367 0.3992099 0.12513952 0.12524855 0.03178
-0.11524782 -0.20329314 0.20960693 0.0013002194 -0.033535376 0.39775574 0.17701237 -0.12438044
0.4144833 0.12874286 0.037459143 0.019837 0.07777812 0.12097513 0.043722 -0.058446772
-0.19129048 0.1844401 -0.0990858 0.06427953 0.019837 -0.10863617 0.09398231 0.007894
-0.08015973 -0.18203421 -0.25341225 -0.008621495 -0.11793427 0.007894 -0.1828461 0.039676595
-0.18862742 -0.047109257 -0.10567632 0.019837 -0.101431996 -0.040617973 0.019837 -0.0121545
-0.072356686 0.026728727 -0.256284 0.11519326 0.007894 -0.19379532 0.009153672 0.007894
0.06121029 -0.070241354 0.019837 -0.25555515 0.0036830753 0.037844725 0.07694905 -0.0037620687
0.18286441 0.1649248 -0.07324793 0.007894 -0.058732633 -0.015499219 0.007894 -0.07338761
0.09249093 -0.21932068 -0.044425793 -0.014047548 0.03178 0.042415887 0.238515 -0.2758967
0.015925732 -0.18555295 0.39914933 0.18013284 0.052086428 0.14104512 0.1574995 0.096780896
0.043722 -0.009899631 0.17474687 0.4033192 0.108795054 -0.09363693 0.019837 -0.07062714
-0.06945544 -0.026966471 0.09993944 0.08661734 0.03178 -0.16571265 0.07611639 0.20196706
0.16425014 -0.016312554 0.043722 -0.106608786 -0.20918511 0.3454772 0.1360047 0.17197092
0.19480927 -0.069223315 -0.00228 -0.0063619656 0.036892116 0.005075261 -0.19092043 -0.10767778
-0.0029018908 -0.05630952 -0.0878826 -0.06545566 0.03178 -0.20716488 -0.12935957 -0.0047923117
0.12848888 0.15361191 0.034971498 0.049243398 0.16072825 0.03178 -0.025296405 -0.11389023
0.18819217 0.1589546 0.10808471 0.007894 -0.0074905753 -0.095499694 0.1986479 0.11178268
0.0436548 0.03178 -0.20908472 0.046880007 0.03178 -0.22594401 0.14522402 0.03178
0.04932203 0.15541591 0.17491056 0.14536579 -0.10178918 0.019837 0.06142734 -0.14692672
0.03178 -0.0120489495 -0.09171833 0.38784915 0.12617077 -0.038628757 0.35100278 0.12586969
-0.13127789 0.019837 0.013682812 -0.11166824 0.03178 -0.12199501 0.10501885 0.03178
-0.2531714 -0.17289196 0.023204718 0.023316378 0.1561121 0.03178 -0.09925401 0.17208977
0.03178 -0.005131632 0.1357809 -0.24624005 -0.237296 0.011364788 0.019837 0.0003169923
0.16364124 -0.23770592 -0.24523444 -0.12094357 0.31250057 0.17607571 -0.13105877 0.019837
-0.2352511 -0.18467067 0.20585784 -0.08240127 0.16918398 0.025158275 0.020497035 -0.077883594
0.03178 -0.09107222 -0.22715592 0.18839888 -0.08496702 0.11532397 0.019837 0.07276067
-0.09945691 0.019837 -0.22928287 0.121120304 0.043722 -0.23168564 0.00832233 -0.27415037
0.16495457 -0.1351911 0.160307 0.15197968 0.104809545 -0.21993645 -0.039429832 0.0883722
00000000: 3ee2 ffba 9309 f7bd bea7 25bd 8880 7f3c
00000010: 3481 a23c 4336 22be e495 e83d d715 333d
00000020: c476 51bd 4d9f 113e bf2b 023d a099 5ebd
00000030: c0f2 5e3c 3481 a23c 8689 f93c f9e2 c73d
00000040: 11ba dc3e 1189 0c3e 0576 053e bf2b 023d
00000050: a72c 83bc 40d2 5cbb d715 333d 2d7c 17be
00000060: 4062 d73b 0321 463e 393e 2a3e 5559 e13d
00000070: 3d65 cc3e 9324 003e 2841 003e bf2b 023d
00000080: 0d07 ecbd 142c 50be 33a3 563e 206c aa3a
00000090: 645c 09bd a4a6 cb3e bb42 353e 2cbb febd
000000a0: 2837 d43e 2bd5 033e c26e 193d 3481 a23c
000000b0: 234a 9f3d cfc1 f73d d715 333d e265 6fbd
000000c0: a7e1 43be dedd 3c3e 7fed cabd fca4 833d
000000d0: 3481 a23c a47c debd cc79 c03d d655 013c
000000e0: c92a a4bd 2d67 3abe 40bf 81be 2c41 0dbc
000000f0: 8687 f1bd d655 013c 023c 3bbe ed83 223d
00000100: 8c27 41be a3f5 40bd d46c d8bd 3481 a23c
00000110: 94bb cfbd 085f 26bd 3481 a23c ab23 47bc
00000120: be2f 94bd 34f6 da3c a837 83be 72ea eb3d
00000130: d655 013c 4872 46be 48f9 153c d655 013c
00000140: a4b7 7a3d b3da 8fbd 3481 a23c 20d8 82be
00000150: c05f 713b 1203 1b3d 7797 9d3d 0a8d 76bb
00000160: cf40 3b3e 0ce2 283e 0303 96bd d655 013c
00000170: a191 70bd 70f0 7dbc d655 013c 3e4c 96bd
00000180: e26b bd3d 9a95 60be d2f7 35bd b027 66bc
00000190: bf2b 023d 48bc 2d3d 473d 743e 5542 8dbe
000001a0: ae76 823c 9801 3ebe 4d5d cc3e be74 383e
000001b0: 9458 553d 226e 103e 8d47 213e 1035 c63d
000001c0: d715 333d 1032 22bc d8f0 323e db7f ce3e
000001d0: f1cf de3d b8c4 bfbd 3481 a23c f6a4 90bd
000001e0: a73e 8ebd cae8 dcbc 0dad cc3d 6f64 b13d
000001f0: bf2b 023d 94b0 29be e9e2 9b3d 74d0 4e3e
00000200: 3031 283e e8a1 85bc d715 333d b555 dabd
00000210: 9f34 56be 63e2 b03e d144 0b3e 2519 303e
00000220: 157c 473e f4c4 8dbd 0d6c 15bb 0978 d0bb
00000230: 301c 173d 604e a63b a580 43be 2b86 dcbd
00000240: a62d 3ebb d0a4 66bd cbfb b3bd 9e0d 86bd
00000250: bf2b 023d 0823 54be d676 04be d308 9dbb
00000260: 9792 033e 714c 1d3e 463e 0f3d 72b3 493d
00000270: f295 243e bf2b 023d 683a cfbc 483f e9bd
00000280: 73b5 403e ffc4 223e 845b dd3d d655 013c
00000290: 8073 f5bb 5895 c3bd 5b6a 4b3e 51ee e43d
000002a0: 60cf 323d bf2b 023d 4e1a 56be 4005 403d
000002b0: bf2b 023d de5d 67be 9bb5 143e bf2b 023d
000002c0: e605 4a3d 5925 1f3e c11b 333e c5da 143e
000002d0: d876 d0bd 3481 a23c 3c9b 7b3d f573 16be
000002e0: bf2b 023d f568 45bc d2d6 bbbd 2a94 c63e
000002f0: e932 013e 3039 1ebd a3b6 b33e fce3 003e
00000300: b66d 06be 3481 a23c e02d 603c 51b2 e4bd
00000310: bf2b 023d 85d8 f9bd 1f14 d73d bf2b 023d
00000320: af9f 81be 970a 31be d217 be3c fd01 bf3c
00000330: dadb 1f3e bf2b 023d b045 cbbd 4d38 303e
00000340: bf2b 023d 4027 a8bb 260a 0b3e 5a26 7cbe
00000350: b9fd 72be 6033 3a3c 3481 a23c fc31 a639
00000360: 9291 273e 2e69 73be bd1e 7bbe 43b1 f7bd
00000370: 1300 a03e 314d 343e 4534 06be 3481 a23c
00000380: aae5 70be 4f1a 3dbe 66cc 523e ffc1 a8bd
00000390: 913e 2d3e ba18 ce3c 66e9 a73c 6f81 9fbd
000003a0: bf2b 023d 1284 babd 909b 68be a3eb 403e
000003b0: 3003 aebd f92e ec3d 3481 a23c 8c03 953d
000003c0: 10b0 cbbd 3481 a23c 21c9 6abe ec0d f83d
000003d0: d715 333d 003f 6dbe 625a 083c 705d 8cbe
000003e0: dae9 283e 896f 0abe 8527 243e 90a0 1b3e
000003f0: 63a6 d63d 0537 61be 2d81 21bd 7cfc b43d
