Assignment5/data/03001627/train/b8af96d9c542e1bab34e8f502d7c7e1a.npy (npy, 180128 bytes, 1 tensors)

array f4 [15000, 3]
-0.1953089 -0.074362345 -0.25120166 -0.22687124 -0.056564223 -0.09829834 -0.234648 -0.03828334
-0.22470567 0.15498875 -0.07959729 0.2256691 -0.264603 -0.15716174 -0.27913597 -0.12092433
-0.015712492 0.20208088 0.19296658 0.08817613 0.1870056 0.065260306 -0.059963774 -0.06589307
-0.22047576 0.21484366 0.24949944 0.21191385 0.018955693 0.25147974 0.1096609 0.15295166
0.21896383 0.034316227 -0.0061009037 -0.11258596 -0.038405463 -0.045083996 -0.20773052 0.099717215
0.09111308 0.1884546 0.2068797 0.062064484 0.17412291 -0.047180742 0.088813715 0.23388177
-0.16232727 0.16609734 0.29001558 -0.18100089 -0.025897643 -0.31891063 0.2382906 -0.091115385
-0.15111913 0.088805184 -0.042013817 -0.23699619 -0.17858098 -0.0011497643 -0.18378088 0.08477034
0.18342921 0.23400052 -0.040543064 -0.05235087 0.154772 -0.234648 -0.05166135 0.08873064
-0.12131809 -0.009448341 -0.064451486 -0.1892455 0.22829324 0.25625437 0.08226329 0.22792566
0.2560479 0.02854915 -0.040967967 -0.24705397 -0.13047208 -0.04960451 -0.24724884 -0.26311734
-0.0737524 -0.28328824 0.234648 0.1727657 0.2334102 0.2267959 0.14685632 0.2159566
-0.17976026 -0.081901975 0.17769305 0.030566037 -0.003318776 -0.15259157 -0.234648 -0.048844345
0.031265073 0.048662484 -0.0049158228 -0.12962684 0.17574342 0.22693694 0.28990874 0.19527754
0.2170887 0.27833343 0.16939183 0.1791859 0.2934434 -0.16719955 0.21116354 0.30181825
-0.19973417 -0.022031602 0.11648952 0.19775203 0.08512614 0.18550083 0.234648 -0.2457608
-0.29741523 0.0029778183 0.08577114 0.26897845 0.09143613 -0.054143183 -0.28032818 -0.20155135
-0.07121176 0.18519586 -0.19936721 -0.050323702 -0.1577844 -0.005794674 -0.0049115377 -0.12968846
-0.022505745 -0.09889909 0.22061403 -0.18750453 -0.011649154 -0.03280489 0.011389941 0.2140735
0.2969274 0.038827643 0.004010178 0.20808128 0.1142858 -0.07368046 -0.28327858 0.234648
0.23608188 0.2688733 0.234648 -0.08578611 0.08772487 -0.20271663 0.081106916 0.2677569
-0.25784102 -0.09604558 -0.10402836 -0.03900461 -0.013254585 -0.009719595 0.234648 -0.31702137
0.27163532 -0.14427422 0.0031278306 -0.30326435 0.234648 -0.10847093 0.068932325 0.24438858
-0.059957087 -0.06595677 0.264603 -0.078212604 -0.12318672 -0.234648 0.032210253 0.17338084
0.16795188 0.12245678 0.24411729 -0.234648 -0.098593295 -0.06275745 -0.026619866 -0.046528988
-0.19395654 -0.19826245 0.23735626 0.27806348 -0.10219227 -0.07471399 -0.2512578 -0.16876955
-0.07003984 -0.2827288 0.16161862 0.0006506812 -0.30716062 -0.056905597 0.19929183 0.2987091
-0.21848351 -0.07401011 0.1715718 0.20492223 0.14768824 0.2851943 -0.055557534 -0.080143325
-0.2562257 -0.19039822 0.17105296 0.2589021 0.16683905 -0.08256314 0.14952932 0.25306445
-0.06776646 0.008483961 -0.234648 -0.074669525 -0.20748988 -0.07550663 -0.0042838845 -0.13871378
-0.264603 0.14193934 0.25307548 -0.08083178 -0.0044463035 -0.13637829 0.234648 -0.043331478
-0.2519407 -0.039354935 0.04322198 0.1648266 -0.24959522 -0.07402709 -0.25114813 0.15719008
00000000: 0eff 47be 494b 98bd 819d 80be ef50 68be
00000010: e3af 67bd a450 c9bd 9147 70be fece 1cbd
00000020: 3e19 66be 5fb5 1e3e e703 a3bd cd15 673e
00000030: 0b7a 87be 02ef 20be e9ea 8ebe 2da7 f7bd
00000040: 7cb7 80bc 4aee 4e3e 0899 453e b095 b43d
00000050: 657e 3f3e 32a7 853d 939c 75bd f2f2 86bd
00000060: 66c4 61be faff 5b3e c87c 7f3e f2ff 583e
00000070: f848 9b3c f4c1 803e e595 e03d 5c9f 1c3e
00000080: 0e38 603e 2c8f 0c3d 17ea c7bb 7893 e6bd
00000090: 0c4f 1dbd ffa9 38bd 4fb7 54be 8a38 cc3d
000000a0: 7f99 ba3d 3efa 403e 46d8 533e 5437 7e3d
000000b0: 474d 323e 9840 41bd f7e3 b53d b47e 6f3e
000000c0: 1f39 26be 6c15 2a3e ec7c 943e 4c58 39be
000000d0: 4b27 d4bc 4148 a3be 7302 743e b49a babd
000000e0: f9be 1abe 7edf b53d ae16 2cbd 21af 72be
000000f0: efdd 36be b0b3 96ba 0e31 3cbe 129c ad3d
00000100: ded4 3b3e d59d 6f3e 7c10 26bd de6d 56bd
00000110: 8d7c 1e3e 9147 70be da9a 53bd 69b8 b53d
00000120: 9e75 f8bd 37cd 1abc 24ff 83bd 93c9 41be
00000130: b4c5 693e c633 833e a879 a83d 5865 693e
00000140: b618 833e e8df e93c 07ce 27bd b7fb 7cbe
00000150: 799a 05be 192e 4bbd cd2e 7dbe 51b7 86be
00000160: 800b 97bd 280b 91be 9147 703e 7ee9 303e
00000170: 1503 6f3e 2f3d 683e 8161 163e ba23 5d3e
00000180: 1313 38be 39bc a7bd 2bf5 353e a065 fa3c
00000190: d27f 59bb f740 1cbe 9147 70be 0211 48bd
000001a0: ce0f 003d 5052 473d e914 a1bb e6bc 04be
000001b0: 15f6 333e 2862 683e eb6e 943e d6f6 473e
000001c0: 804c 5e3e b881 8e3e 0d75 2d3e 827c 373e
000001d0: 373e 963e 5c36 2bbe 413b 583e ec87 9a3e
000001e0: 1d87 4cbe 9e7b b4bc 0f92 ee3d 827f 4a3e
000001f0: 9d56 ae3d eef3 3d3e 9147 703e b8a8 7bbe
00000200: cf46 98be 8027 433b c8a8 af3d 8bb7 893e
00000210: de42 bb3d 3ec5 5dbd 2d87 8fbe 7a63 4ebe
00000220: 79d7 91bd fca3 3d3e eb26 4cbe 3a20 4ebd
00000230: 3c92 21be 40e1 bdbb f7f0 a0bb 0dcd 04be
00000240: f85d b8bc 9b8b cabd a5e8 613e 3001 40be
00000250: 18dc 3ebc 6c5e 06bd e09c 3a3c 1536 5b3e
00000260: de06 983e bc09 1f3d d067 833b 4213 553e
00000270: ac0e ea3d c8e5 96bd e409 91be 9147 703e
00000280: 73bf 713e c3a9 893e 9147 703e a1b0 afbd
00000290: 19a9 b33d f394 4fbe 621b a63d 6f17 893e
000002a0: bd03 84be 8cb3 c4bd d20c d5bd 4cc3 1fbd
000002b0: c229 59bc f03e 1fbc 9147 703e a050 a2be
000002c0: c913 8b3e 9fbc 13be 4afc 4c3b 7745 9bbe
000002d0: 9147 703e 0226 debd 642c 8d3d 0041 7a3e
000002e0: 9095 75bd 5814 87bd 0b7a 873e ee2d a0bd
000002f0: 5249 fcbd 9147 70be e6ee 033d bf8a 313e
00000300: 94fb 2b3e 9fca fa3d e2f9 793e 9147 70be
00000310: 48eb c9bd fa86 80bd e811 dabc 2e95 3ebd
00000320: 8b9c 46be 5005 4bbe 850d 733e 565e 8e3e
00000330: 2e4a d1bd a603 99bd dda4 80be edd1 2cbe
00000340: 0c71 8fbd d4c1 90be 5a7f 253e 7a92 2a3a
00000350: 2844 9dbe d815 69bd 2813 4c3e 66f0 983e
00000360: 24ba 5fbe 9d92 97bd 85b0 2f3e 22d7 513e
00000370: 963b 173e fd04 923e 4c90 63bd 2f22 a4bd
00000380: 0430 83be c0f7 42be 8228 2f3e d18e 843e
00000390: dbd7 2a3e dd16 a9bd 371e 193e aa91 813e
000003a0: 24c9 8abd 5000 0b3c 9147 70be 56ec 98bd
000003b0: 3a78 54be 38a3 9abd d45f 8cbb fc0a 0ebe
000003c0: 0b7a 87be 8c58 113e 1c93 813e 228b a5bd
000003d0: 4cb2 91bb c0a6 0bbe 9147 703e 597c 31bd
000003e0: 5ffe 80be a432 21bd 8809 313d 4ec8 283e
000003f0: e495 7fbe 849b 97bd 7d96 80be 70f6 203e
