Assignment5/data/03001627/train/b8ca8a0c021d152887bcae7a654cc37.npy (npy, 180128 bytes, 1 tensors)

array f4 [15000, 3]
-0.023250952 -0.064559 -0.21999215 -0.13777186 0.022728756 0.0544725 -0.18509556 -0.07715656
-0.259885 -0.13194188 -0.106568426 0.065450035 0.041418716 -0.064559 0.018815054 -0.1624532
-0.071786076 -0.259885 -0.22387788 0.06789693 0.029837836 0.16048959 -0.283636 0.084449664
-0.23715356 0.3459765 0.16687925 0.02936995 0.30288243 0.16381535 0.13258266 0.30229133
0.13078699 0.012406195 -0.11616331 -0.25120875 -0.0763947 0.27004313 0.15106046 -0.27169344
0.061557785 -0.0073322197 0.15355548 0.25832224 0.113709584 0.23323944 -0.064559 -0.21732719
0.2671142 0.023253722 -0.065838374 0.23669957 0.24753095 0.1421823 -0.020622473 0.20493196
0.12577108 0.18430258 -0.007328 -0.055562645 0.20762338 0.01612451 0.011568345 0.087395966
-0.09665163 -0.233191 0.1232675 -0.15443954 -0.19899674 0.25259915 0.30315784 0.14573626
0.059312277 -0.064559 -0.084908396 -0.049077667 -0.007328 -0.14799413 -0.123701245 -0.007328
-0.012405172 0.23456027 -0.007328 -0.09097135 -0.28802526 0.07005784 -0.12399556 -0.2596797
0.009684112 -0.09031939 -0.26094323 -0.01812518 -0.06134124 -0.018082976 -0.06948347 -0.23067446
0.13417605 -0.16220094 -0.010242123 -0.17562371 -0.16294615 -0.22830603 -0.12006098 0.21133871
0.09546135 0.06360989 0.124729894 0.094620086 0.06471545 0.24908298 0.14291981 -0.007591263
0.10205859 0.0663937 -0.033805095 -0.064559 -0.11889913 0.14893983 -0.11146923 -0.23511723
-0.22977036 -0.16017272 -0.21811296 -0.04497385 -0.064559 -0.09363845 0.27463335 0.09160388
-0.03219274 0.07965358 0.3352361 0.17637831 -0.101703465 -0.055552423 0.050798662 -0.26651326
0.06280379 -0.11493518 0.14887698 -0.09849845 -0.259885 0.10148961 0.0069600777 0.048339605
0.07546144 0.06293786 0.070110984 -0.1457255 0.33703196 0.17707846 0.17651097 0.1741356
0.11380984 -0.078782275 -0.07066957 -0.23168302 -0.07571531 -0.007328 -0.07405819 0.043142796
-0.064559 -0.18831255 0.1022421 -0.064559 -0.11913947 0.06537009 0.25464708 0.14508095
0.22494051 0.26140416 0.11490688 0.14932112 -0.064559 -0.045374975 -0.17767765 0.089206584
0.05839532 -0.18956389 -0.0071617905 0.024276068 -0.09347865 0.32169107 0.17112038 -0.2441261
-0.007328 -0.008441836 0.080616705 0.017346065 0.033054445 -0.204787 -0.09338269 -0.259885
0.04496257 0.022278734 0.054297477 0.16561818 -0.283636 0.0890701 0.12402575 0.06776279
0.051142767 -0.021820342 0.18198721 0.1168593 0.2915223 0.103602 -0.15840408 0.21202356
0.22645725 0.13413163 0.030955954 0.09824487 0.08341204 0.12712696 -0.16372089 -0.1915563
-0.17284818 -0.064559 -0.065736726 -0.13299754 0.088419504 0.058553904 -0.22939992 -0.018453434
-0.2597212 0.07384646 0.21354844 0.129118 0.16010153 -0.023065463 0.07578658 -0.15530801
-0.1553563 -0.21789762 0.13402587 0.33896518 0.14540954 0.21266764 -0.007328 -0.07640897
-0.17453177 0.1205649 0.10509158 -0.21604426 -0.007328 -0.02834092 0.014328187 -0.06969822
-0.23088922 0.00464198 -0.16087303 -0.21831304 -0.1475956 0.23841465 0.10597743 -0.036861002
00000000: c878 bebc 8237 84bd 9f45 61be 1114 0dbe
00000010: a831 ba3c 8e1e 5f3d b189 3dbe 4204 9ebd
00000020: a60f 85be c61b 07be 8c40 dabd ab0a 863d
00000030: aca6 293d 8237 84bd 0722 9a3c 225a 26be
00000040: 9404 93bd a60f 85be 3e40 65be 8c0d 8b3d
00000050: 7a6e f43c 6257 243e bd38 91be f2f3 ac3d
00000060: 62d8 72be d523 b13e 65e2 2a3e 4099 f03c
00000070: 6813 9b3e 36bf 273e c0c3 073e eec5 9a3e
00000080: 06ed 053e 5a43 4b3c 08e7 edbd 6f9e 80be
00000090: d374 9cbd 1843 8a3e 98af 1a3e 671b 8bbe
000000a0: 0424 7c3d 1e43 f0bb a63d 1d3e d042 843e
000000b0: 92e0 e83d 52d6 6e3e 8237 84bd 058b 5ebe
000000c0: 31c3 883e 977e be3c 45d6 86bd 5f61 723e
000000d0: c178 7d3e 3d98 113e 76f0 a8bc afd9 513e
000000e0: 22ca 003e d1b9 3c3e b81f f0bb a895 63bd
000000f0: 399b 543e 8c17 843c 2889 3d3c a8fc b23d
00000100: 4af1 c5bd 9fc9 6ebe ac73 fc3d 6625 1ebe
00000110: cdc5 4bbe ad54 813e 8137 9b3e e33b 153e
00000120: 6ef1 723d 8237 84bd 74e4 adbd aa05 49bd
00000130: b81f f0bb c68b 17be 1457 fdbd b81f f0bb
00000140: 103f 4bbc 9130 703e b81f f0bb 304f babd
00000150: 0c78 93be 7c7a 8f3d 62f1 fdbd bdf4 84be
00000160: 1caa 1e3c 5ff9 b8bd 5a9a 85be 427b 94bc
00000170: f440 7bbd c022 94bc 594d 8ebd ed35 6cbe
00000180: 7265 093e 0118 26be 94ce 27bc b4d6 33be
00000190: 5bdb 26be 0ec9 69be 88e2 f5bd 2d69 583e
000001a0: 3e81 c33d e745 823d 6372 ff3d 2dc8 c13d
000001b0: 8989 843d 9c0f 7f3e 9259 123e 21c0 f8bb
000001c0: 1804 d13d 6cf9 873d 3677 0abd 8237 84bd
000001d0: 6381 f3bd af83 183e fb49 e4bd 92c2 70be
000001e0: ec48 6bbe 5104 24be 0159 5fbe 8036 38bd
000001f0: 8237 84bd 84c5 bfbd be9c 8c3e d19a bb3d
00000200: 89dc 03bd 6b21 a33d 11a4 ab3e 849c 343e
00000210: e849 d0bd f08a 63bd 4212 503d 6d74 88be
00000220: 469f 803d 2363 ebbd 3573 183e 8eb9 c9bd
00000230: a60f 85be c9d9 cf3d 5d11 e43b c0ff 453d
00000240: 878b 9a3d 91e5 803d 5996 8f3d 1139 15be
00000250: 748f ac3e 0e54 353e 4bbf 343e 9a50 323e
00000260: 2215 e93d 9a58 a1bd 35bb 90bd 503e 6dbe
00000270: a110 9bbd b81f f0bb d2ab 97bd 80b6 303d
00000280: 8237 84bd 01d5 40be 4e64 d13d 8237 84bd
00000290: 65ff f3bd c1e0 853d 1a61 823e 1a90 143e
000002a0: ce56 663e c4d6 853e 4c54 eb3d a3e7 183e
000002b0: 8237 84bd 1cdb 39bd 21f1 35be f1b1 b63d
000002c0: ee2f 6f3d 091d 42be 74ad eabb 9bde c63c
000002d0: bc71 bfbd b1b4 a43e 2e3a 2f3e 31fc 79be
000002e0: b81f f0bb a04f 0abc 5f1a a53d 5619 8e3c
000002f0: 1964 073d afb3 51be 6c3f bfbd a60f 85be
00000300: ac2a 383d e481 b63c 0867 5e3d d097 293e
00000310: bd38 91be 626a b63d 3601 fe3d 38c7 8a3d
00000320: 147b 513d 93c0 b2bc db5a 3a3e ee53 ef3d
00000330: 6942 953e 492d d43d ae34 22be b41c 593e
00000340: 69e4 673e cd59 093e 5797 fd3c 9b34 c93d
00000350: eed3 aa3d 922d 023e 73a6 27be 5627 44be
00000360: 1dff 30be 8237 84bd faa0 86bd 8230 08be
00000370: 4915 b53d 38d6 6f3d d0e7 6abe a82b 97bc
00000380: 2dfa 84be d03c 973d 71ac 5a3e 8237 043e
00000390: a8f1 233e c8f3 bcbc ff35 9b3d 1009 1fbe
000003a0: b915 1fbe 8e20 5fbe 143e 093e d88c ad3e
000003b0: 3de6 143e 8cc5 593e b81f f0bb 4e7c 9cbd
000003c0: 75b8 32be bbea f63d 413a d73d b53a 5dbe
000003d0: b81f f0bb 382b e8bc c6c0 6a3c f1bd 8ebd
000003e0: 396e 6cbe c01b 983b e6bb 24be 748d 5fbe
000003f0: 4d23 17be f822 743e b20a d93d 90fb 16bd
