Assignment5/data/03001627/train/b8e4d2f12e740739b6c7647742d948e.npy (npy, 180128 bytes, 1 tensors)

array f4 [15000, 3]
0.16617933 0.5400245 0.223879 -0.15627256 0.5777684 0.17256422 0.04151547 0.204298
0.13536495 -0.20447698 -0.05947271 0.221029 -0.11521971 0.4298442 0.160044 -0.10305631
0.204298 0.076004095 -0.19874933 0.145741 0.19966972 0.19667053 0.15610413 -0.049340382
0.07251501 0.204298 0.06546809 0.13852 0.04195257 0.19826941 0.04270774 0.144233
0.036850646 -0.16922414 0.39868426 0.223879 0.19306514 0.5415701 0.223879 -0.19954982
0.41363692 0.160044 -0.18813473 0.033540435 0.221029 0.010048643 0.23885044 0.223879
0.18736008 -0.032328054 0.166811 0.11314033 0.59789795 0.18640408 0.019749537 0.144233
-0.104927465 0.19399446 0.48283577 0.223879 -0.10428165 0.144233 -0.030730173 -0.205544
0.093057185 0.1763469 -0.147237 -0.08806816 0.21947192 -0.19631158 0.144233 0.16763772
-0.19368874 0.48062426 0.160044 0.16818137 -0.13088462 -0.18477 -0.050835937 0.57658964
0.223879 -0.11342482 0.144233 0.013184473 0.14605322 0.204298 0.15524697 0.0014929175
0.16873206 0.223879 0.090866774 0.23590943 0.160044 -0.13775611 0.144233 0.094170704
0.10120261 0.2830613 0.223879 -0.08308424 0.144233 -0.1515139 -0.05062811 0.144233
0.05281745 -0.072629824 0.144233 0.008181736 0.1787603 0.144233 0.15826362 0.194816
0.5510053 0.20075314 -0.16801576 0.204298 -0.2087484 -0.15594724 0.527817 0.160044
-0.19999406 0.3972507 0.160044 0.16702928 0.093854055 0.169825 -0.037531823 0.58146197
0.17474176 -0.16543229 0.074564636 0.162723 0.14390549 0.15820278 -0.243076 0.15591271
0.5200231 0.223879 -0.072813235 0.144233 0.021970168 -0.06931034 0.26579586 0.160044
0.19666915 0.15755007 -0.05177073 -0.14927837 0.43925434 0.223879 -0.09503419 0.57937264
0.223879 0.19658838 0.17267321 -0.19371219 -0.206795 0.14773883 -0.1829255 -0.066910416
0.38296 0.160044 -0.066343814 0.46956724 0.160044 -0.022579059 0.43654755 0.160044
0.19176047 0.47675556 0.160044 0.1455723 0.144233 0.16762751 0.196562 0.07582767
-0.20013417 0.11337611 0.41757923 0.223879 -0.083048165 0.50512606 0.160044 0.003933236
0.144233 -0.044046894 0.13852 0.06569874 0.17553344 0.19670628 0.17247018 0.013489619
0.14386061 -0.0076488256 -0.18477 0.15794936 0.05983474 -0.18477 -0.17553379 0.17736444
0.223879 -0.1807433 0.204298 -0.1149538 -0.12847187 0.144233 0.22145323 -0.14173803
0.6118406 0.223879 0.18998761 -0.08681661 -0.18477 0.12157574 0.204298 -0.08877194
0.16630599 0.204298 0.08759844 -0.206795 0.5886303 0.21915208 0.15457271 -0.091557935
0.166811 -0.12607375 0.20432508 0.160044 0.0023729056 0.204298 -0.07484269 0.085917294
0.54712296 0.223879 0.1451314 -0.157209 0.20546836 0.106981665 0.204298 -0.017357662
0.17745298 0.443188 0.223879 -0.11152261 0.4101561 0.160044 -0.1490955 0.21460006
0.223879 0.050760955 0.144233 -0.028590128 0.19604897 0.2911018 0.19920601 -0.051393434
00000000: ea2a 2a3e 0c3f 0a3f 8940 653e ea05 20be
00000010: a1e8 133f adb4 303e 200c 2a3d 7f33 513e
00000020: 1c9d 0a3e 6a62 51be a899 73bd 6d55 623e
00000030: 50f8 ebbd 8a14 dc3e 93e2 233e 300f d3bd
00000040: 7f33 513e 09a8 9b3d f284 4bbe 213d 153e
00000050: 3876 4c3e 0064 493e c3d9 1f3e 2419 4abd
00000060: c082 943d 7f33 513e 2214 863d 30d8 0d3e
00000070: 75d6 2b3d 2307 4b3e 50ee 2e3d d1b1 133e
00000080: b4f0 163d 1849 2dbe 5820 cc3e 8940 653e
00000090: deb2 453e 57a4 0a3f 8940 653e ca56 4cbe
000000a0: 38c8 d33e 93e2 233e 64a6 40be b261 093d
000000b0: 6d55 623e 10a3 243c 3695 743e 8940 653e
000000c0: 52db 3f3e 6c6a 04bd 81d0 2a3e 1eb6 e73d
000000d0: d70f 193f b6e0 3e3e c8c9 a13c d1b1 133e
000000e0: 36e4 d6bd 7ca6 463e 4036 f73e 8940 653e
000000f0: 9e91 d5bd d1b1 133e d8bd fbbc 207a 52be
00000100: c494 be3d 4894 343e 4cc5 16be 145d b4bd
00000110: 3fbd 603e e705 49be d1b1 133e 39a9 2b3e
00000120: 5756 46be 6214 f63e 93e2 233e bd37 2c3e
00000130: 9e06 06be 5934 3dbe 5839 50bd 619b 133f
00000140: 8940 653e 464b e8bd d1b1 133e b003 583c
00000150: fa8e 153e 7f33 513e 10f9 1e3e 00ae c33a
00000160: 19c8 2c3e 8940 653e 5c18 ba3d 3e92 713e
00000170: 93e2 233e f00f 0dbe d1b1 133e 92dc c03d
00000180: 5043 cf3d 69ed 903e 8940 653e 1228 aabd
00000190: d1b1 133e 7626 1bbe 6c5f 4fbd d1b1 133e
000001a0: 1c57 583d f2be 94bd d1b1 133e b00c 063c
000001b0: f10c 373e d1b1 133e dc0f 223e d87d 473e
000001c0: af0e 0d3f 3b92 4d3e 530c 2cbe 7f33 513e
000001d0: 24c2 55be a2b0 1fbe 041f 073f 93e2 233e
000001e0: 3ecb 4cbe 7264 cb3e 93e2 233e b909 2b3e
000001f0: 8e36 c03d 9be6 2d3e f8ba 19bd b1da 143f
00000200: 81ef 323e 1567 29be 58b5 983d dca0 263e
00000210: f65b 133e e9ff 213e eae8 78be 95a7 1f3e
00000220: 3c20 053f 8940 653e 1b1f 95bd d1b1 133e
00000230: c8fa b33c 94f2 8dbd 6516 883e 93e2 233e
00000240: a363 493e ce54 213e 8c0d 54bd 6edc 18be
00000250: f2e5 e03e 8940 653e 49a1 c2bd c451 143f
00000260: 8940 653e 774e 493e 3fd1 303e 7d5c 46be
00000270: 12c2 53be d948 173e d350 3bbe 5408 89bd
00000280: 5513 c43e 93e2 233e 44df 87bd 1e6b f03e
00000290: 93e2 233e b8f7 b8bc 2983 df3e 93e2 233e
000002a0: db5c 443e 4e19 f43e 93e2 233e e810 153e
000002b0: d1b1 133e 8ca6 2b3e 8d47 493e 8a4b 9b3d
000002c0: f9ef 4cbe bc31 e83d f2cc d53e 8940 653e
000002d0: 2815 aabd f14f 013f 93e2 233e 60e2 803b
000002e0: d1b1 133e 846a 34bd 30d8 0d3e 108d 863d
000002f0: 0abf 333e 5f6d 493e 069c 303e 9003 5d3c
00000300: 3250 133e 00a3 fabb 5934 3dbe 7abd 213e
00000310: 4615 753d 5934 3dbe 21bf 33be 069f 353e
00000320: 8940 653e c614 39be 7f33 513e e66c ebbd
00000330: 218e 03be d1b1 133e a3c4 623e c623 11be
00000340: 96a1 1c3f 8940 653e 1d8c 423e e8cc b1bd
00000350: 5934 3dbe b4fc f83d 7f33 513e 10ce b5bd
00000360: 1e4c 2a3e 7f33 513e d066 b33d 12c2 53be
00000370: 7ab0 163f 6769 603e 4f48 1e3e ba82 bbbd
00000380: 81d0 2a3e 7a19 01be 983a 513e 93e2 233e
00000390: c082 1b3b 7f33 513e 2047 99bd 68f5 af3d
000003a0: 4010 0c3f 8940 653e 539d 143e 65fb 20be
000003b0: 4c66 523e 3419 db3d 7f33 513e a831 8ebc
000003c0: 3cb6 353e 8ae9 e23e 8940 653e f765 e4bd
000003d0: fbff d13e 93e2 233e 7eac 18be 1ec0 5b3e
000003e0: 8940 653e b8ea 4f3d d1b1 133e d835 eabc
000003f0: 10c1 483e 4c0b 953e a9fc 4b3e ec81 52bd
