Assignment5/data/03001627/train/b8f2712e8330ba6b3c9fe3a963c6d73b.npy (npy, 180128 bytes, 1 tensors)

array f4 [15000, 3]
00000000: 023f 7c3d e4e2 713e 3d6b 803d 3ea7 9f3d
00000010: 1c67 1b3d 4711 a53d 0481 0e3e cf66 fbbc
00000020: f085 39be cb19 f93d 84cf d9bc 61a7 983d
00000030: e088 acbd 5ebd ea3e 69fb 953d 2ab6 e33d
00000040: 785f e1bd 6cd0 07be 2252 e53d fa62 09be
00000050: 6cd0 07be 2dc3 ebbd 5298 f73a a070 0abe
00000060: 418c e33d 3468 3c3e d9ef 553d eaa8 a73d
00000070: f016 c8bc b10e b2bd c444 e33d 6a4e 9e3d
00000080: c0c2 543d c3d7 27be 96a9 babc b4d5 803d
00000090: ea0c 09bd b7d3 063f 1051 ad3d dd2a a7bd
000000a0: 5298 f73a 2077 003c 4695 d4bd f016 c8bc
000000b0: ad8a cabd 4e3d e13d d263 8d3d 25ad 483d
000000c0: 0c3d d03d e6ca 89be c111 423d 2949 143c
000000d0: 9034 1f3e 6139 be3d f53d 133e b7d3 063f
000000e0: 3875 243d 1d5b f03d a20f 383e b22e 6d3d
000000f0: 4324 cdbd b7d3 063f bdc2 c13c 0185 f9bd
00000100: 73cb 483c a194 423d cac7 d0bd 95d8 35bd
00000110: acfa 883d 3e7d afbc 003b 0dbc 59ef f03d
00000120: a643 20be b7d3 063f 0f70 6b3d fcda 7fbd
00000130: df61 9d3d 10e7 b03d d558 a5bd f016 c8bc
00000140: c812 2abe e55d e13d 7b70 373e 7f20 333d
00000150: 6f00 353e 5ebd ea3e aee9 7c3d e9bf e23d
00000160: c92e d93e 125a 2b3d 19cd a63d 0c09 b73d
00000170: d6b5 9c3d f2b5 fc3d 99c7 b83b 5367 703d
00000180: 36ad 043e 21c4 a5be 31ec 10be 4f04 1cbe
00000190: f016 c8bc 6644 09be fec6 a13d ddd3 713e
000001a0: aa1f 7e3d 526e 8b3d 5ebd ea3e 3a42 8d3d
000001b0: 94d8 ac3c 69d0 a03e 5f8c 963d 4780 8ebd
000001c0: 3f33 de3d 3b86 a63d deca d73d 1125 94be
000001d0: bd81 593d 6ea3 a03d 02c1 033f 9392 ca3d
000001e0: 11cd 3ebe deb4 fc3e 525e 323d 3404 5cbd
000001f0: 4e97 bdbb 30bc 36be e6d3 723d f016 c8bc
00000200: 7934 1abe fd16 ddbd 9c2c f3bd 3649 603d
00000210: 6660 803d ee27 af3d 9e30 a43d 63ca 853d
00000220: e0be a13e 49b3 753d 4a0c f43d 5ebd ea3e
00000230: 2bcc 353d a009 cb3b 5298 f73a b2db d2bd
00000240: 6436 d23d b7d3 063f 84ee 023d bbd5 233e
00000250: b5a0 d5bc 62f0 ea3c 31fd 073e 2e35 c43e
00000260: 4380 293d 8693 8a3d f016 c8bc c89f ae3c
00000270: 4d23 f9bd 30d3 3f3d e27a 423d 519f 02be
00000280: f016 c8bc 71bd e8bd 29ad 8abd f578 b03e
00000290: 5008 ab3d cac5 09be f016 c8bc 5631 33be
000002a0: f4e7 453e b7ab 003f bc05 613c 488a 4abd
000002b0: 5298 f73a 2f6f b4bd 0bf6 84bd b01a 833e
000002c0: 38b6 823d 3834 17ba 395a e23e 1e35 a13d
000002d0: 5c7e acbb 5298 f73a 2433 c43d df53 aebd
000002e0: 5298 f73a 08e8 0a3d fd16 ddbd 0555 05be
000002f0: ad15 0fbe ea04 9c3d d37b ad3e 8b43 a73d
00000300: ae28 e0bd 5ca7 f73a df6a 763d eeee a03d
00000310: 5298 f73a 4dfb 90bd 2856 003e f9a4 b8bd
00000320: 77f3 d43c eacb d23d fefb 0fbe a2ac 593d
00000330: d905 3fbe b7d3 063f 8715 313d 5b4c 053e
00000340: c693 32be 8b6b 3c3d ae1c d83d 5014 95be
00000350: 1807 4d3d fa8c 113e 5298 f73a ec14 e6bd
00000360: 5894 173e 5ebd ea3e a287 8a3c 2830 743d
00000370: 4257 b53b bd57 863d 6840 1c3e 5ebd ea3e
00000380: 756e 6a3c e971 00be c221 13be e868 25be
00000390: 6c5e c23d 95d8 35bd 03f8 05be bc0d 09be
000003a0: 7307 3b3e 3beb 743d 0741 153e 14da 27bc
000003b0: 5923 ac3d 5f21 20be 95d8 35bd 9554 bf3c
000003c0: fd4f 0f3e f016 c8bc 2b0f b1bd fd17 3bbc
000003d0: 64c1 013f 8140 d53d 45fc 0abe 5298 f73a
000003e0: 4000 acba 1f01 9a3d cd33 f33e f7ed 073d
000003f0: b713 babd 73b2 fa3e 5dae b33d 8b88 ffbd
0.061583526 0.23621708 0.06270454 0.07795571 0.03794013 0.08059936 0.13916403 -0.030688671
-0.181175 0.12163123 -0.026588209 0.074538 -0.08424544 0.458476 0.07323343 0.111187294
-0.11004537 -0.132631 0.11197306 -0.13416663 -0.132631 -0.11511836 0.001889 -0.13519526
0.11110736 0.18399125 0.05223069 0.08186515 -0.024425 -0.086942084 0.110971004 0.077298
0.05194354 -0.163909 -0.022785943 0.06290761 -0.03345958 0.526668 0.08462727 -0.081624724
0.001889 0.007840902 -0.10380034 -0.024425 -0.098897316 0.10998021 0.06903805 0.04899325
0.10167894 -0.26912612 0.047380213 0.009050646 0.15547395 0.09288288 0.14379103 0.526668
0.04015085 0.117361285 0.17974713 0.05790586 -0.10016682 0.526668 0.023652429 -0.121835716
0.012255537 0.047505025 -0.10194357 -0.044396 0.06688437 -0.021422025 -0.008620024 0.11764402
-0.15650806 0.526668 0.057479914 -0.0624647 0.07684683 0.08637822 -0.08073584 -0.024425
-0.16608727 0.11004237 0.17914002 0.043732163 0.17675947 0.458476 0.06174629 0.1107176
0.42418507 0.041833945 0.08144588 0.089372724 0.0765187 0.12339391 0.0056390283 0.058692288
0.129567 -0.32376197 -0.141526 -0.15236019 -0.024425 -0.13404998 0.07899283 0.23615976
0.062041916 0.06808151 0.458476 0.06897397 0.021099366 0.31409004 0.073509924 -0.06958061
0.10849618 0.08131071 0.10536741 -0.2893453 0.053102244 0.07843672 0.5146638 0.09891238
-0.18632914 0.4935674 0.043546982 -0.053714946 -0.005785859 -0.17845225 0.059284113 -0.024425
-0.15059079 -0.107954 -0.11873743 0.05475732 0.062683865 0.08552538 0.080170855 0.06532743
0.3159094 0.059985433 0.119164065 0.458476 0.044384163 0.0061962157 0.001889 -0.1029581
0.102642804 0.526668 0.031965747 0.159995 -0.026077608 0.028679077 0.13280179 0.38321823
0.041382086 0.06766419 -0.024425 0.021316424 -0.12164936 0.046832263 0.04748047 -0.12756087
-0.024425 -0.11364258 -0.06771309 0.34467283 0.08351195 -0.13454357 -0.024425 -0.17499289
0.19326764 0.50262016 0.013734277 -0.04944828 0.001889 -0.08810269 -0.064922415 0.25606298
0.06382412 -0.0005767974 0.4420946 0.078714594 -0.0052640866 0.001889 0.09580067 -0.08512091
0.001889 0.03391269 -0.107954 -0.13020714 -0.13973112 0.07618125 0.33883533 0.0816718
-0.10945259 0.0018894481 0.060160514 0.07858072 0.001889 -0.07079182 0.12532866 -0.09015841
0.025995 0.102928 -0.14060971 0.05314315 -0.18654574 0.526668 0.04323342 0.13017409
-0.17439184 0.046001 0.10552345 -0.2911706 0.050055593 0.14213935 0.001889 -0.11234459
0.14802682 0.458476 0.016910378 0.059616238 0.0055340836 0.065597035 0.15258944 0.458476
0.014308562 -0.12543453 -0.14368346 -0.161533 0.09490666 -0.044396 -0.1308289 -0.13384145
0.1826456 0.059794646 0.14575587 -0.010244865 0.084051795 -0.1563773 -0.044396 0.023355762
0.13995357 -0.024425 -0.08645471 -0.0114192935 0.50685716 0.10412694 -0.13572796 0.001889
-0.0013122633 0.07519745 0.47500458 0.033185925 -0.090857916 0.4896427 0.087734915 -0.124772154
