Assignment5/data/03001627/train/b9415bc240e074837e76245c0a9e51ab.npy (npy, 180128 bytes, 1 tensors)

array f4 [15000, 3]
0.08015257 0.019469474 0.21120164 0.191397 -0.04462216 -0.23657607 0.068700016 -0.09788638
0.032376476 -0.223048 0.056141227 -0.21277668 0.19975373 -0.38075 -0.11222044 -0.20806277
-0.2654089 -0.247216 -0.19062385 -0.1534174 0.09323593 0.17202215 0.035661355 0.048085414
-0.18815817 -0.079140335 -0.065103345 -0.191167 0.049016744 -0.11507481 -0.16736153 -0.065539464
-0.13582814 -0.1293634 -0.34887 0.19416669 0.1978904 -0.38075 0.1874526 -0.191167
-0.13406566 -0.24518692 0.01591231 -0.08933951 -0.247216 0.191397 -0.10628362 -0.17568591
-0.22014159 0.065574 -0.19610356 -0.191167 -0.37354705 0.014707163 -0.20626658 -0.26439503
-0.247216 0.191397 -0.3783703 0.16138095 -0.223048 -0.2092881 -0.21887676 0.2077229
-0.27585042 -0.215336 -0.223048 -0.3371475 0.19314215 -0.191167 -0.095670514 -0.016448751
0.13281912 -0.014711766 0.20455882 -0.20982842 0.08751 -0.04947713 -0.18361588 -0.14693406
0.122688286 -0.085130535 -0.06264027 0.14630139 -0.037190348 -0.12019765 0.16432355 -0.22278693
-0.033464797 -0.247216 -0.191167 -0.35455945 -0.13432787 0.15846208 0.20386712 0.19849458
-0.20235331 -0.08567977 0.199106 0.16120146 -0.11966027 -0.10620812 0.1812613 0.04177381
0.21553639 -0.16159801 -0.12095166 -0.099404775 -0.19347471 0.065574 0.046150625 0.069773436
-0.10699862 0.17562206 -0.14929254 0.038684364 0.16673031 0.223277 0.056415245 0.0029186308
0.191397 -0.37178385 -0.10832693 -0.191167 -0.11527898 0.049854398 -0.20692128 -0.38075
-0.23112485 -0.191167 -0.144403 0.10902636 -0.0658388 -0.08500163 -0.034624502 0.089225754
-0.09080455 0.12664701 0.10646355 0.18656741 0.24367598 -0.20565008 -0.10070416 -0.215336
-0.22088246 0.02522409 0.071587 0.08468099 0.27871737 0.21288815 0.21285963 -0.081375465
0.167226 0.20165136 0.065574 0.15099907 -0.191167 -0.15600912 0.17311463 0.11762616
-0.05096424 -0.2632851 0.19164868 -0.089569926 0.167226 -0.20581175 -0.2448495 -0.215336
0.09851849 -0.10565662 0.17663811 0.223277 -0.35863394 -0.24707763 0.06359461 -0.12348725
-0.215336 0.191397 -0.37831455 0.043910332 0.19696294 -0.051119477 -0.247216 0.191397
-0.053087916 -0.25526693 0.191397 0.26754498 0.24066618 -0.19342603 0.033694 -0.067968264
-0.036878616 -0.055597577 -0.18752615 -0.21103598 0.011474818 0.199106 -0.191167 -0.29872704
0.18037446 -0.026870757 0.028663263 0.21298793 0.19815895 -0.38075 -0.121472016 0.17774922
-0.15330973 0.0940156 -0.012514517 0.01294828 0.16178003 -0.075309776 0.053533763 0.21782124
0.052404776 -0.13744882 -0.012493737 0.20032749 0.033694 0.16429712 0.1930611 -0.1786461
-0.215336 -0.15000077 -0.113703355 -0.215336 -0.18008919 0.29833484 0.2578132 -0.06590314
-0.08786958 -0.019711144 -0.14335726 -0.379445 0.199106 0.111399546 -0.0941964 0.0131885
-0.223048 -0.2684628 0.17903814 -0.223048 0.036180638 -0.034358017 -0.191167 -0.3522156
0.0020558536 0.11333572 -0.13869476 -0.0059297606 -0.22418498 0.083643556 0.013931721 0.12759194
00000000: 0827 a43d 727e 9f3c 3e45 583e 93fd 433e
00000010: bac5 36bd ff40 72be 98b2 8c3d a878 c8bd
00000020: 329d 043d b266 64be 58f4 653d 21e2 59be
00000030: 3e8c 4c3e aaf1 c2be d4d3 e5bd 680e 55be
00000040: ade3 87be 3126 7dbe e632 43be 7319 1dbe
00000050: 7bf2 be3d 9326 303e a411 123d 36f5 443d
00000060: 89ac 40be 5414 a2bd e754 85bd 48c1 43be
00000070: c8c5 483d 58ac ebbd d260 2bbe 8e39 86bd
00000080: 8816 0bbe d777 04be 179f b2be a2d3 463e
00000090: c8a3 4a3e aaf1 c2be 93f3 3f3e 48c1 43be
000000a0: 8248 09be 4812 7bbe 885a 823c a2f7 b6bd
000000b0: 3126 7dbe 93fd 433e 3aab d9bd 02e7 33be
000000c0: cc6c 61be a94b 863d 5fcf 48be 48c1 43be
000000d0: 8f41 bfbe 50f6 703c 8c37 53be c95e 87be
000000e0: 3126 7dbe 93fd 433e c1b9 c1be 0c41 253e
000000f0: b266 64be 9f4f 56be 3b21 60be 50b5 543e
00000100: 443c 8dbe 0a81 5cbe b266 64be 999e acbe
00000110: 0ec7 453e 48c1 43be e7ee c3bd 88bf 86bc
00000120: bc01 083e 9e09 71bc de77 513e 43dd 56be
00000130: 7138 b33d 88a8 4abd cd05 3cbe e275 16be
00000140: ff43 fb3d eb58 aebd 8b49 80bd 08d0 153e
00000150: e854 18bd 2f2a f6bd 6f44 283e 4222 64be
00000160: 6212 09bd 3126 7dbe 48c1 43be d188 b5be
00000170: 3f8d 09be e243 223e 8bc2 503e 2a42 4b3e
00000180: b535 4fbe e078 afbd 71e2 4b3e ff11 253e
00000190: 7210 f5bd a583 d9bd 909c 393e 041b 2b3d
000001a0: 92b5 5c3e f379 25be 81b5 f7bd bb94 cbbd
000001b0: 3c1e 46be a94b 863d 7008 3d3d 60e5 8e3d
000001c0: 1822 dbbd 45d6 333e 25e0 18be 7f73 1e3d
000001d0: 5abb 2a3e baa2 643e ac13 673d 8046 3f3b
000001e0: 93fd 433e 745a bebe 82da ddbd 48c1 43be
000001f0: 6317 ecbd 2034 4c3d 2ce3 53be aaf1 c2be
00000200: feab 6cbe 48c1 43be 61de 13be 3649 df3d
00000210: 7ed6 86bd 5615 aebd 6cd2 0dbd febb b63d
00000220: bcf7 b9bd c1af 013e 9009 da3d 870b 3f3e
00000230: 3286 793e ef95 52be fc3d cebd 0a81 5cbe
00000240: 032f 62be c0a2 ce3c 349c 923d 3a6d ad3d
00000250: 0bb4 8e3e 5aff 593e e0f7 593e 2ea8 a6bd
00000260: 4b3d 2b3e b27d 4e3e a94b 863d 809f 1a3e
00000270: 48c1 43be dbc0 1fbe f644 313e fce5 f03d
00000280: e1bf 50bd 4ecd 86be 8d3f 443e 7070 b7bd
00000290: 4b3d 2b3e 51c0 52be d4b9 7abe 0a81 5cbe
000002a0: 10c4 c93d 7f62 d8bd 9fe0 343e baa2 643e
000002b0: de9e b7be eb01 7dbe e43d 823d e2e6 fcbd
000002c0: 0a81 5cbe 93fd 433e 72b2 c1be 52db 333d
000002d0: a7b0 493e a862 51bd 3126 7dbe 93fd 433e
000002e0: b772 59bd 59b2 82be 93fd 433e a8fb 883e
000002f0: 3271 763e 7911 46be b802 0a3d f232 8bbd
00000300: 080e 17bd 49ba 63bd db06 40be d119 58be
00000310: e000 3c3c 71e2 4b3e 48c1 43be c0f2 98be
00000320: 15b4 383e 1020 dcbc 38cf ea3c 8219 5a3e
00000330: 2eea 4a3e aaf1 c2be 52c6 f8bd e403 363e
00000340: 3afd 1cbe 408b c03d b009 4dbc 0625 543c
00000350: aaa9 253e 033c 9abd 3846 5b3d 880c 5f3e
00000360: 64a6 563d 62bf 0cbe 88b2 4cbc a622 4d3e
00000370: b802 0a3d 813d 283e cfb1 453e 01ef 36be
00000380: 0a81 5cbe cd99 19be 4edd e8bd 0a81 5cbe
00000390: 4d69 38be 58bf 983e 1700 843e 3af8 86bd
000003a0: f7f4 b3bd 4479 a1bc 3fcc 12be 9d46 c2be
000003b0: 71e2 4b3e 7225 e43d 0bea c0bd 9414 583c
000003c0: b266 64be f573 89be c655 373e b266 64be
000003d0: 2632 143d feba 0cbd 48c1 43be 9a55 b4be
000003e0: 80bb 063b 8f1c e83d 0006 0ebe 704e c2bb
000003f0: bf90 65be 504d ab3d e041 643c 76a7 023e
