Assignment5/data/03001627/train/b960544cfd0ff09f26b2c6e6d8c1e1ab.npy (npy, 180128 bytes, 1 tensors)

array f4 [15000, 3]
000000 26 5a 20 be 20 fc a2 3e 33 17 78 3e 01 b4 64 3e
       -0.15659389 0.3183298 0.242276 0.22334291
000010 ef 39 30 bb b2 f7 f7 3d 08 00 d0 bc 04 41 3e 3e
       -0.002689 0.12107791 -0.02539064 0.18579489
000020 8c c1 2a 3e e9 d1 58 be 42 eb cb bd 76 88 2f 3e
       0.16675395 -0.21173824 -0.09956981 0.171419
000030 10 71 18 3c 5e 80 cb 3e c1 c8 2b 3e 07 d2 65 be
       0.0093043 0.39746374 0.167758 -0.224434
000040 44 4b 4c bd a6 53 1e 3e 46 3f 1a 3e d5 ae 85 3e
       -0.049876466 0.15461597 0.150632 0.2610995
000050 84 da 5b 3e 17 bc 68 3e 65 43 41 bb 9d 10 a2 3d
       0.21470076 0.22728 -0.0029489633 0.07913325
000060 7f 07 3d be 73 7f b5 be 39 6a 33 3e 04 15 ad 3d
       -0.18459891 -0.354488 0.1752099 0.08451274
000070 0f ac ca 3e c1 c8 2b 3e 07 d2 65 be ca 38 4f 3e
       0.39584395 0.167758 -0.224434 0.20236507
000080 23 2f 74 3e a0 22 76 bc 99 d4 bf 3e 33 17 78 3e
       0.23846106 -0.015022904 0.37466887 0.242276
000090 17 bc 68 3e 06 19 0b bc d8 65 d9 bc c1 47 4f be
       0.22728 -0.008489853 -0.02653782 -0.20242216
0000a0 d7 d1 31 bd da 95 2a be af 8a 5c be 1f 9f 11 3e
       -0.04341301 -0.16658726 -0.21537279 0.14220856
0000b0 33 17 78 3e d4 ab 6e 3d 91 2b f5 3b 42 7d 02 be
       0.242276 0.058269337 0.007482 -0.12743095
0000c0 43 f9 0d 3e 91 2b f5 3b b0 16 ba bc 18 75 27 3e
       0.13864617 0.007482 -0.022715896 0.16353261
0000d0 05 e2 cd 3e 2a e5 75 3e e1 ad 0f 3e b8 1e d5 3e
       0.40211502 0.240132 0.14031173 0.41625
0000e0 dd 2e 45 3e 44 9f 5b be 40 c6 39 3e 34 f2 29 3e
       0.19256158 -0.21447474 0.18142033 0.165963
0000f0 d8 dc 38 be 53 ae 83 bd 44 b4 37 be b0 17 17 be
       -0.18052995 -0.06429734 -0.1793986 -0.1475513
000100 da c9 30 3e 6e 88 76 3e fa 96 b2 bd 91 2b f5 3b
       0.172645 0.24075481 -0.08720203 0.007482
000110 63 fb 47 3e b2 48 23 be 91 2b f5 3b e0 40 24 bd
       0.1952949 -0.159457 0.007482 -0.040100932
000120 0b 74 57 3e f7 ad 66 3e d9 97 37 3e f6 33 64 be
       0.2104036 0.225273 0.17929019 -0.22285447
000130 f6 a8 90 3e 7f 25 35 3e b1 08 2a 3e 26 1c 65 bd
       0.28253907 0.17690085 0.16604878 -0.055935048
000140 0b 0d 3a be 75 2e 5f bd 91 2b f5 3b 5e ae a6 3d
       -0.18169038 -0.054487664 0.007482 0.08138727
000150 07 d2 65 be 58 db e7 3c 04 74 57 3e a0 8f b1 3b
       -0.224434 0.028302833 0.2104035 0.0054187328
000160 f6 cc c0 3e c1 c8 2b 3e a6 15 30 be 77 f9 68 3e
       0.37656373 0.167758 -0.17195758 0.22751413
000170 08 09 36 3e 60 1e ac 3d 99 fc d3 3e c1 c8 2b 3e
       0.17776883 0.08404231 0.41403654 0.167758
000180 17 bc 68 3e 8d 99 45 bb 0b 08 a6 3d 94 d6 92 3d
       0.22728 -0.0030151338 0.08107003 0.07169834
000190 9c 78 4b 3e af 26 2b 3e 62 d7 95 3d b8 1e d5 3e
       0.19870228 0.16713975 0.07316472 0.41625
0001a0 d5 a4 39 3e 5b 6d 51 3e 91 2b f5 3b 10 cf 49 bc
       0.18129285 0.20451872 0.007482 -0.012317434
0001b0 16 f8 b9 bd a6 99 ae bd 64 44 22 be ce 73 0c 3e
       -0.09080522 -0.085254 -0.15846401 0.13716051
0001c0 91 2b f5 3b 90 ae 59 bd 17 bc 68 3e 70 18 6a 3e
       0.007482 -0.05314499 0.22728 0.22860885
0001d0 78 cb 48 3e d0 7d 61 3e 23 08 9b 3e dd ad 37 3e
       0.19608867 0.2202065 0.30279645 0.17937417
0001e0 dc 60 ab bd fd 3f 48 3e d3 84 2a 3e ea a3 38 3e
       -0.08368084 0.1955566 0.16652231 0.18031278
0001f0 ce 25 30 be 33 17 78 3e e8 c2 37 3e 88 54 75 bc
       -0.17201921 0.242276 0.17945445 -0.014973767
000200 33 17 78 3e 46 3f 1a 3e 48 32 21 3e 63 32 2f 3e
       0.242276 0.150632 0.15741837 0.17109065
000210 07 d2 65 be d7 c3 06 be a0 92 4f 3e 60 5a 04 be
       -0.224434 -0.13160644 0.20270777 -0.129251
000220 8e 70 35 be e1 5d 68 3e a2 a3 67 3e a8 26 27 be
       -0.17718717 0.22692062 0.22621015 -0.1632334
000230 29 f7 f5 bd 9a 49 96 bd 50 71 6c 3e e7 c0 65 3e
       -0.12010033 -0.07338257 0.230901 0.22436868
000240 b1 fc 35 be d0 46 40 bd 2e ae 38 be 22 17 f2 3d
       -0.17772175 -0.046942532 -0.18035194 0.118208185
000250 91 2b f5 3b 9c 4c 7d 3d 1a 5d ca 3d 91 2b f5 3b
       0.007482 0.06184064 0.09881039 0.007482
000260 89 9c 29 be 2f c8 38 be 91 2b f5 3b a0 79 26 3c
       -0.1656362 -0.18045114 0.007482 0.010160834
000270 f4 0e 66 be 89 9c 50 3e 78 79 65 3e de d6 62 be
       -0.22466642 0.20372213 0.22409618 -0.22152278
000280 e8 4f 24 3d 34 f2 29 3e 69 c8 5c be 02 46 76 bd
       0.040115267 0.165963 -0.21560825 -0.06012536
000290 7c 4a 1a be 07 d2 65 be 8c 26 d2 bc 50 79 ad 3c
       -0.15067476 -0.224434 -0.025653146 0.02117601
0002a0 90 5b 27 3e 41 7f 4a be 76 88 2f 3e 07 d2 65 be
       0.16343522 -0.19775106 0.171419 -0.224434
0002b0 ba fd 55 be d5 8c 3f 3e 1b ae 2f 3e 74 97 db 3d
       -0.2089757 0.18706067 0.1715626 0.10722247
0002c0 33 17 78 3e 8d f2 fd bd a2 27 c1 3e c1 c8 2b 3e
       0.242276 -0.123997785 0.3772555 0.167758
0002d0 97 04 5a be 8e 68 f6 3d 34 f2 29 3e 19 6d 30 3e
       -0.21290813 0.12031661 0.165963 0.17229117
0002e0 00 40 a4 bb 1c b3 38 be 17 bc 68 3e 43 7d 49 be
       -0.005012512 -0.18037075 0.22728 -0.1967669
0002f0 18 65 55 3e 0c 04 4e be be 29 cf bd b3 b1 2b be
       0.20839345 -0.20118731 -0.101153836 -0.16767006
000300 b3 7b 3e 3e 91 2b f5 3b c4 fd b5 3d a6 30 4e be
       0.18601875 0.007482 0.088862926 -0.20135745
000310 9a 5d 40 3e 34 f2 29 3e 13 2b 46 be d0 30 89 be
       0.18785706 0.165963 -0.19352369 -0.26795053
000320 95 6b 31 be ac 13 6e bd da c9 30 3e 42 80 49 3e
       -0.17326196 -0.05812423 0.172645 0.19677833
000330 6c 5f 3b 3e 91 2b f5 3b 7e 37 36 3d 07 d2 65 be
       0.1829812 0.007482 0.044486515 -0.224434
000340 25 51 40 3e a9 26 72 3e 30 9c 61 bd 91 2b f5 3b
       0.18780954 0.2364756 -0.055080593 0.007482
000350 04 d6 55 bd 68 21 55 be 94 37 35 be 33 17 78 3e
       -0.052206054 -0.20813525 -0.17696983 0.242276
000360 1b 12 49 be 91 2b f5 3b 68 1a 8d bd c6 86 44 bd
       -0.19635813 0.007482 -0.06889802 -0.047980092
000370 a6 99 ae bd f0 25 36 be b3 5f 57 be bb a9 c7 3b
       -0.085254 -0.1778791 -0.210326 0.0060932315
000380 a8 63 73 bd 34 9b 02 be 91 75 89 bd 33 17 78 3e
       -0.05942121 -0.12754518 -0.06711877 0.242276
000390 6c 08 3d be fc 12 f8 bd 33 17 78 3e f6 5b fd 3d
       -0.18460244 -0.12112996 0.242276 0.12371056
0003a0 91 2b f5 3b 7a 13 52 bd 07 d2 65 be 53 0c 81 be
       0.007482 -0.051288106 -0.224434 -0.25204715
0003b0 5a f0 6a 3e 57 cf 49 be fe 86 82 be 33 17 78 3e
       0.2294325 -0.19708 -0.25493616 0.242276
0003c0 2d 54 d2 3c 91 2b f5 3b a0 d7 57 3e 46 3f 1a 3e
       0.025674904 0.007482 0.21078348 0.150632
0003d0 2a 8d 93 3e d0 98 39 3e e8 c0 a5 3d 1d b1 7e bc
       0.28818637 0.181247 0.080934346 -0.015545157
0003e0 33 17 78 3e c1 1c 0d 3e 09 41 05 be 92 8f 1a be
       0.242276 0.137805 -0.1301309 -0.1509383
0003f0 19 14 3f be 23 73 4d bd 78 37 35 be 38 57 62 3d
       -0.1866001 -0.05015863 -0.17696941 0.05525896
