Assignment5/data/03001627/train/b967ac98b1cbd8fe36a7a71199dc2cb3.npy (npy, 180128 bytes, 1 tensors)

array f4 [15000, 3]
-0.04014246 0.10822567 0.10285129 0.035548773 0.23165478 0.12879677 -0.16227497 0.095440984
-0.13133703 0.067618944 0.10605468 0.042555287 -0.064667314 0.086990505 -0.051357403 0.12404175
-0.34147575 -0.1847258 0.123165935 -0.4148857 -0.19628693 0.021525167 0.08489236 -0.0137356
-0.15133826 0.05619186 -0.12292052 -0.014634657 0.2694795 0.1377516 -0.09503078 0.25670582
0.13048027 -0.15115577 -0.059402835 -0.13726662 0.00062879175 0.11343873 -0.112912476 -0.15680449
-0.041859563 -0.12535441 -0.091399565 0.07161412 0.117143705 -0.0013535321 0.09315935 -0.15881343
-0.05748424 0.08628975 -0.031831414 -0.081231706 0.03652058 0.10402325 -0.10306989 0.11464509
-0.10440989 0.051537752 0.10690822 0.06853205 -0.08068478 0.10296404 0.107629366 -0.1082429
-0.24297081 0.10708992 0.045278132 0.10668659 0.098312356 -0.08937788 -0.08835082 0.09558548
0.1296746 0.26560333 0.1045952 -0.013150513 0.11116758 -0.08648529 -0.06828052 0.11440344
-0.10895893 -0.08500342 -0.038284484 0.1100567 -0.027701616 0.08472843 0.0072347075 -0.10014462
0.08918242 0.08343606 -0.009462684 0.11321023 -0.108486205 0.06882478 -0.1692008 0.03075174
-0.028385833 0.08389968 0.033284932 -0.128957 -0.45254382 0.10083461 -0.121059716 -0.34338158
0.10378126 -0.032555044 0.10998434 -0.070234984 0.11184547 0.04670037 -0.17519663 -0.056861237
0.10720253 0.04787653 -0.013349488 0.1059317 -0.03196983 -0.110842586 -0.15729456 -0.102821216
-0.04753556 0.30132934 0.1400683 0.1212149 0.09282145 0.0050829053 -0.026083335 0.089232944
-0.13367891 0.11687989 0.11043552 -0.009444192 0.0076408386 0.11661154 -0.15716882 -0.044082478
0.109077565 -0.058460355 -0.055903956 0.08310408 0.0669471 -0.08929975 0.088380136 -0.08673182
-0.062604174 0.10909756 -0.054907948 0.006133796 0.25233775 0.130881 -0.09298265 0.15555957
0.1196805 0.13891734 0.36917666 0.105359 -0.08896989 0.13734941 0.108243294 -0.10075951
-0.19690162 0.0930881 0.12703727 0.27732652 0.09246847 -0.09047912 0.086924 -0.04096839
0.122522525 0.2496999 0.10558807 -0.091876864 -0.08664258 0.0952662 0.08043386 0.085017405
-0.036615632 -0.17136075 -0.34965998 -0.14675862 -0.13548335 0.11704109 -0.12444572 0.05786352
0.08226792 0.05634574 0.07462905 0.113374405 -0.12726732 -0.07815285 0.08838232 -0.09039129
-0.18244626 -0.33679396 -0.14510462 -0.15718198 0.117154114 -0.120232955 -0.09575365 -0.22656766
0.09652881 0.11794659 0.008236023 -0.16356121 0.024173072 0.33089098 0.13297063 0.12630127
-0.33432335 0.06389074 0.021090109 0.33144608 0.14048888 0.021354869 0.11634903 -0.15340973
0.085469395 0.1898704 0.10625222 0.047073275 0.08659447 -0.07501573 0.05822766 0.107167855
0.075552836 -0.10255901 -0.2513442 0.10809746 -0.08211339 0.22235893 0.11796528 0.13064508
-0.30684003 0.0751073 0.12418886 -0.16025232 0.075581126 0.015893871 0.24029706 0.12837638
0.11314738 -0.10443126 0.07819996 -0.08188118 0.011771064 0.10253332 0.06721628 -0.16598518
0.035015874 0.15159321 -0.4650438 0.06324871 0.109610744 -0.13680382 -0.17066042 0.14088792
00000000: 6c6c 24bd 6ca5 dd3d b2a3 d23d 979b 113d
00000010: e936 6d3e 4de3 033e 692b 26be 9076 c33d
00000020: 377d 06be cd7b 8a3d 3233 d93d 744e 2e3d
00000030: 4c70 84bd 1428 b23d 245c 52bd 9a09 fe3d
00000040: e9d5 aebe c328 3dbe 6c3e fc3d e66b d4be
00000050: 71ff 48be 8c55 b03c 0cdc ad3d 480b 61bc
00000060: 6bf8 1abe 7029 663d c1bd fbbd 33c6 6fbc
00000070: 38f9 893e c10e 0d3e 7f9f c2bd f26e 833e
00000080: 9f9c 053e 94c8 1abe 6350 73bd 9f8f 0cbe
00000090: 80d5 243a 9152 e83d a83e e7bd 5b91 20be
000000a0: ef74 2bbd e85c 00be b22f bbbd 6caa 923d
000000b0: 0ae9 ef3d 0069 b1ba 54ca be3d fd9f 22be
000000c0: 9874 6bbd aeb8 b03d a861 02bd cf5c a6bd
000000d0: 9b96 153d 240a d53d 4e16 d3bd 0ccb ea3d
000000e0: dad4 d5bd 4019 533d b2f2 da3d 885a 8c3d
000000f0: 103e a5bd d0de d23d c96c dc3d 74ae ddbd
00000100: 57cd 78be f651 db3d 9075 393d 807e da3d
00000110: fd57 c93d c00b b7bd 46f1 b4bd 52c2 c33d
00000120: 6bc9 043e 29fd 873e 0236 d63d 4075 57bc
00000130: d4ab e33d 331f b1bd a8d6 8bbd 5a4c ea3d
00000140: dc25 dfbd 4616 aebd 31d0 1cbd 6865 e13d
00000150: 80ee e2bc 1986 ad3d 2011 ed3b 9f18 cdbd
00000160: 46a5 b63d 86e0 aa3d 6009 1bbc c4da e73d
00000170: 042e debd 02f4 8c3d f942 2dbe 13eb fb3c
00000180: 6889 e8bc 98d3 ab3d c855 083d 4e0d 04be
00000190: d3b3 e7be 6082 ce3d 28ee f7bd b6cf afbe
000001a0: 458b d43d 7058 05bd 783f e13d 5cd7 8fbd
000001b0: 3d0f e53d e348 3f3d bf66 33be 54e7 68bd
000001c0: 008d db3d 2e1a 443d d0b7 5abc b8f2 d83d
000001d0: ccf2 02bd 7001 e3bd d311 21be ee93 d2bd
000001e0: a6b4 42bd d747 9a3e 106e 0f3e 843f f83d
000001f0: 2c19 be3d 808e a63b b8ac d5bc c3bf b63d
00000200: 20e3 08be b95e ef3d 052c e23d d0bb 1abc
00000210: 0060 fa3b 08d2 ee3d ddf0 20be d48f 34bd
00000220: 0f64 df3d 2074 6fbd 8cfb 64bd 7932 aa3d
00000230: 901b 893d cae2 b6bd a500 b53d 74a0 b1bd
00000240: 9e36 80bd 8b6e df3d 28e7 60bd 03fe c83b
00000250: 6a32 813e ab05 063e b06d bebd 024b 1f3e
00000260: 0d1b f53d 5940 0e3e b904 bd3e 76c6 d73d
00000270: d835 b6bd 53a5 0c3e a9ae dd3d 015b cebd
00000280: 94a0 49be f9a4 be3d 0f16 023e befd 8d3e
00000290: 1c60 bd3d 1e4d b9bd 3605 b23d 78ce 27bd
000002a0: 17ed fa3d 55b1 7f3e 8f3e d83d f029 bcbd
000002b0: aa71 b1bd ed1a c33d 82ba a43d 9b1d ae3d
000002c0: 46fa 15bd 3179 2fbe a206 b3be e447 16be
000002d0: 26bc 0abe 3db3 ef3d 66dd febd 4c02 6d3d
000002e0: 157c a83d caca 663d 1ed7 983d d730 e83d
000002f0: 5d52 02be 9a0e a0bd ca01 b53d 121f b9bd
00000300: 31d3 3abe 4270 acbe 4e96 14be 50f4 20be
00000310: 7fee ef3d b23c f6bd 7d1a c4bd 5a01 68be
00000320: e6b0 c53d fb8d f13d 62f0 063c 977c 27be
00000330: 9b06 c63c 8b6a a93e 7429 083e 1f55 013e
00000340: 6e2c abbe 26d9 823d 2ac5 ac3c 4db3 a93e
00000350: 51dc 0f3e 68f0 ae3c 6648 ee3d 7117 1dbe
00000360: 940a af3d 636d 423e c49a d93d e8cf 403d
00000370: 7158 b13d d9a1 99bd 2080 6e3d d27a db3d
00000380: 72bb 9a3d 750a d2bd 30b0 80be 3362 dd3d
00000390: 112b a8bd 0fb2 633e c897 f13d d3c7 053e
000003a0: 231a 9dbe dbd1 993d bb56 fe3d 2f19 24be
000003b0: 47ca 9a3d dd33 823c 6f10 763e 1975 033e
000003c0: d0b9 e73d 0ee0 d5bd 4d27 a03d 52b1 a7bd
000003d0: 6cdb 403c fdfc d13d b0a8 893d 05f8 29be
000003e0: ce6c 0f3d 403b 1b3e 391a eebe 8a88 813d
000003f0: 997b e03d 4d16 0cbe 9bc1 2ebe ec44 103e
