Assignment5/data/03001627/train/b9a7bbf1e0b08853bed1bd9593e318c.npy (npy, 180128 bytes, 1 tensors)

array f4 [15000, 3]
000000 1d 59 77 3e ea 4a b7 3e 22 c9 36 be ae 94 d1 3d
       0.24155088 0.35799342 -0.17850164 0.102334365
000010 35 fd 97 3e 5d 51 ea 3d 81 9f 74 be 31 e1 29 bd
       0.2968537 0.114413 -0.23888971 -0.041474525
000020 b5 e9 38 be 96 c5 ce bd c4 22 56 3e 6a 91 9d bd
       -0.18057902 -0.1009628 0.209117 -0.07693751
000030 3c 0e 56 be ab b5 cb 3e 9a cc 1e 3d 3b 24 39 be
       -0.20903867 0.3978704 0.038769342 -0.18080227
000040 c4 22 56 3e 18 03 80 be 4c 2f 23 3c 32 20 3b 3e
       0.209117 -0.2500236 0.009960007 0.18274
000050 97 93 88 3d ae 38 d5 bc 27 cd 7c 3e 5d 51 ea 3d
       0.066687755 -0.026028004 0.24687634 0.114413
000060 88 96 18 3e c4 22 56 3e 40 f0 f5 3b a9 75 c1 bd
       0.14901173 0.209117 0.0075054467 -0.0944627
000070 78 ef d3 3e 93 3f 24 3e 24 ae 69 be 76 f8 20 3e
       0.41393638 0.16039877 -0.22820336 0.1571978
000080 74 d7 2d be 41 77 78 be 5d d0 bb 3e ce 36 c5 bd
       -0.1697672 -0.24264242 0.36682406 -0.09629594
000090 e1 6c 63 3e 2f e1 35 3e 6e 6f 2b be 17 b6 56 be
       0.22209503 0.17761682 -0.16741726 -0.209679
0000a0 bb de 42 3e 50 58 da bd d2 07 d5 3b c4 22 56 3e
       0.19030277 -0.106613755 0.0065011764 0.209117
0000b0 56 2b 9e 3d 4b 9e 72 be 83 55 ae 3e af 15 3c be
       0.077231094 -0.23693196 0.34049615 -0.18367647
0000c0 c0 70 8b 3d f3 8a b8 3e 5d 51 ea 3d 20 5d 88 bd
       0.06808615 0.3604351 0.114413 -0.06658387
0000d0 c4 22 56 3e 08 f3 fa 3c dc 6e 98 3d c4 22 56 3e
       0.209117 0.030633464 0.0744302 0.209117
0000e0 20 ed a2 bc 5a 12 5c 3d c4 22 56 3e 27 dd c3 bd
       -0.01988846 0.05372844 0.209117 -0.09563666
0000f0 b0 88 05 bc c4 22 56 3e c3 e4 60 be 01 e8 fa 3d
       -0.008150265 0.209117 -0.21962266 0.122512825
000100 6d a0 cf 3e d3 61 cd 3d f4 ae 54 be 32 20 3b 3e
       0.40552083 0.10028424 -0.20769864 0.18274
000110 16 89 42 be ca 52 39 bd 68 cf 45 3e b8 cf 2f 3e
       -0.18997607 -0.04524497 0.193174 0.17169082
000120 c0 e9 ac bb c4 22 56 3e bc 81 2a be 2f 5d 2d 3e
       -0.0052768886 0.209117 -0.16651052 0.16930078
000130 c4 22 56 3e 00 ec 12 bd c0 48 b8 bc c4 22 56 3e
       0.209117 -0.0358696 -0.022495627 0.209117
000140 e6 8b 5b be ec db 76 3e bf 0b 34 3e 91 f5 37 be
       -0.21440086 0.24107331 0.17582606 -0.1796477
000150 93 b4 68 3e 30 b3 58 3e b7 35 36 be de ee aa bd
       0.22725134 0.21162105 -0.17793928 -0.083463416
000160 c4 22 56 3e 56 bf 0f be f5 fe 73 3e 1e 3f 52 3d
       0.209117 -0.14037833 0.23827727 0.051329724
000170 7d 84 2b be e4 94 6e bd 32 20 3b 3e a6 df 72 be
       -0.16749759 -0.058247462 0.18274 -0.23718128
000180 af d9 50 be c4 22 56 3e b6 87 83 be aa e2 01 bd
       -0.2039554 0.209117 -0.25689477 -0.031710304
000190 2e 27 36 3e 0e 55 b0 bd be cd a5 3d 43 d7 b8 3e
       0.17788383 -0.08609973 0.08095883 0.36101732
0001a0 5d 51 ea 3d 52 94 94 3d 32 20 3b 3e aa 1d 05 bd
       0.114413 0.07254852 0.18274 -0.032498993
0001b0 91 f3 f2 bc 54 2b 7e 3e b9 44 31 3e 8f 4e 60 3e
       -0.029657157 0.24821216 0.17311372 0.21904968
0001c0 13 7c c8 3e ae e1 1d 3d 35 d7 33 bd 46 df 9f 3e
       0.3915716 0.038545303 -0.04390641 0.31225032
0001d0 23 86 39 3e f7 55 54 be dd df c9 3e fb 9c 9d 3c
       0.18117575 -0.20735918 0.39428607 0.019239893
0001e0 25 4e dd bd c4 22 56 3e 32 28 96 bd 17 b6 56 be
       -0.108059205 0.209117 -0.073318854 -0.209679
0001f0 a9 d6 52 3e a0 dc 5d be 4b 4f 79 be a6 15 b5 3e
       0.20589699 -0.21666193 -0.24346654 0.3536808
000200 6a 13 34 be 60 5b 1c 3e c4 22 56 3e 93 cd d7 bd
       -0.17585531 0.15269232 0.209117 -0.10537257
000210 04 46 16 3d c4 22 56 3e 8d eb 86 be 29 5d 8e bd
       0.036687866 0.209117 -0.26351586 -0.06951363
000220 c4 22 56 3e 60 3f 9f 3b e9 bf 2e be 32 20 3b 3e
       0.209117 0.00485985 -0.17065395 0.18274
000230 02 79 da 3b 9c 4d 11 be c4 22 56 3e 7c c3 5f bd
       0.0066672573 -0.14189762 0.209117 -0.054629788
000240 16 8d 3d 3d a3 66 bb 3e 5d 51 ea 3d d4 a4 4c bd
       0.04627713 0.36601743 0.114413 -0.04996188
000250 32 20 3b 3e 31 5b 3a bd 55 b2 09 bd 6e f1 3e 3e
       0.18274 -0.045497123 -0.033617336 0.18646786
000260 18 96 01 be 94 72 03 bd bf a1 35 3e d0 47 0d 3c
       -0.12654912 -0.032091692 0.17737482 0.008623078
000270 01 bf 56 3e fe 95 44 3e 22 2c 05 be 22 77 9f 3d
       0.209713 0.19197842 -0.13005117 0.07786395
000280 95 4c 35 3e 05 ad 2b be 4b 2d 30 3e c4 22 56 3e
       0.17704995 -0.1676522 0.17204778 0.209117
000290 99 39 7c 3c 3e b1 77 be f8 91 31 be fa 51 2d be
       0.015394592 -0.24188706 -0.17340839 -0.16925803
0002a0 cc a4 0f bd b4 f1 59 3e 67 16 3b 3e 9c 1e aa bd
       -0.035069272 0.21283609 0.18270265 -0.083066195
0002b0 32 20 3b 3e 8a d6 be bc 17 b6 56 be 90 1f 41 3e
       0.18274 -0.02329566 -0.209679 0.18859696
0002c0 32 da 45 be 3a 41 0a 3e 25 09 d2 3e 70 8c 0f 3e
       -0.19321516 0.13501444 0.41022602 0.14018416
0002d0 40 7c 3d be c4 22 56 3e 99 dc 37 be a5 58 08 3d
       -0.18504429 0.209117 -0.17955245 0.033287663
0002e0 41 1a 0a 3d 9c c7 39 3e 04 34 6a 3e a2 c2 32 be
       0.033716444 0.18142551 0.22871405 -0.17457059
0002f0 dc 0e 35 be a8 96 33 bd f4 bb 57 3e ff 6f 2d 3e
       -0.1768145 -0.04384485 0.21067792 0.16937254
000300 18 fb 1d 3d f3 0b 94 bd 75 4e 2c 3e 7a c1 dd bd
       0.03856954 -0.07228842 0.16826804 -0.10827918
000310 c4 22 56 3e 58 dd 43 be 27 67 be 3d 32 20 3b 3e
       0.209117 -0.19127405 0.092970185 0.18274
000320 c1 cc e8 bd 64 87 cb 3c 21 9c d7 3e bf 60 29 3e
       -0.11367179 0.024844833 0.42111304 0.16540812
000330 d4 fd 6e bc 32 20 3b 3e 24 ba ad 3d 6c a4 08 3d
       -0.0145868845 0.18274 0.08482769 0.03335993
000340 41 b4 fc 3e c2 4d c6 3d e6 e3 bc bd 26 3b d6 3e
       0.49356273 0.096828 -0.09223156 0.41842002
000350 a1 5a 1a 3e 60 5f f8 3a c4 22 56 3e 6c b2 8f bc
       0.15073635 0.0018949322 0.209117 -0.017541133
000360 00 db 52 3e 84 4a 52 3e 70 b2 29 bd 9b 3c 13 3d
       0.20591354 0.20536238 -0.041429937 0.03594647
000370 72 dc 09 3e 32 59 2b 3e 8e 75 5e be 96 51 ca 3e
       0.13463 0.16733244 -0.21724531 0.3951537
000380 3c d0 6d 3d 44 c4 f2 bc df 05 79 3e 79 bd 34 3e
       0.058059916 -0.029634602 0.24318646 0.17650403
000390 0c b3 31 3e 32 20 3b 3e 17 75 28 bd 85 c4 57 3e
       0.17353457 0.18274 -0.04112729 0.2107106
0003a0 11 3d c7 3e 38 1e cf 3c 94 75 1c be 32 20 3b 3e
       0.38913777 0.025282964 -0.15279227 0.18274
0003b0 b7 23 56 be 18 2d 27 3d c3 ad 3e 3e 88 11 cf 3c
       -0.20912062 0.04081449 0.18620972 0.025276914
0003c0 14 82 c1 bd 32 20 3b 3e 8e 2a 5c 3d 17 b6 56 be
       -0.094486386 0.18274 0.05375152 -0.209679
0003d0 26 75 3e 3e 90 95 73 bd e6 b0 11 3e 32 20 3b 3e
       0.18599376 -0.059468806 0.14227638 0.18274
0003e0 8e cb 9d bc 4f b2 49 be c4 22 56 3e 48 c3 40 bd
       -0.019262102 -0.19696926 0.209117 -0.047061235
0003f0 30 46 07 bb 32 20 3b 3e 14 9c b8 bc 79 61 6b be
       -0.00206412 0.18274 -0.022535361 -0.22986402
