Assignment5/data/03001627/train/b9c0dcc854da8c7d60558e0a9a66f173.npy (npy, 180128 bytes, 1 tensors)

array f4 [15000, 3]
0.03768269 -0.07578629 0.259193 0.198949 -0.076733865 0.051736087 0.15560018 -0.093604
0.11386033 -0.037036777 -0.022315 -0.1340858 0.05857204 -0.093604 0.25279555 0.11336303
0.051879942 0.259193 -0.215478 -0.35872653 0.2167459 -0.09332397 -0.022315 0.004464835
-0.031382985 0.02912 0.045243748 0.13946837 -0.022315 -0.17497703 0.18196732 -0.10767573
-0.223036 -0.215478 -0.033173632 0.09156425 -0.21161708 -0.093604 0.011008233 0.06714624
-0.022315 -0.08297713 0.12761489 -0.24861608 -0.148262 0.0054085404 0.27852646 0.259193
0.198949 0.11751151 0.2517495 -0.19009459 0.11396387 0.177374 0.16102143 0.3604183
0.177374 0.124463715 -0.093604 0.05068399 0.13474664 0.10920684 0.259193 0.124175
-0.2747764 -0.16662651 0.198949 -0.22509211 0.2005767 0.09786892 -0.093604 -0.048772246
0.198949 -0.05869978 0.15012108 -0.000693053 -0.093604 -0.09338361 -0.19829571 -0.34133318
-0.223036 0.1632807 0.18568438 0.259193 0.063797414 -0.008146545 0.177374 0.17865428
-0.0708088 -0.223036 -0.08058296 0.116591364 0.259193 -0.05248986 0.26922265 0.259193
0.030917706 0.02912 0.05466227 -0.09476076 0.16353413 0.177374 -0.10121089 -0.093604
-0.094213545 0.098354906 0.07680945 0.259193 0.198949 -0.092301145 0.099531434 0.16164106
0.042725623 0.259193 -0.19283374 -0.18056855 0.259193 0.008952677 0.32529572 0.177374
0.09220822 0.12171367 0.177374 0.16860476 -0.022315 -0.17999285 0.198949 -0.2597017
0.1968026 0.01347141 0.02912 -0.030426282 -0.215478 -0.36544505 0.22263597 0.124175
-0.30899632 0.23845509 -0.176107 -0.022315 0.15984601 -0.071078405 0.050606 0.09012119
0.17946565 -0.08413178 -0.223036 -0.092343375 0.0014772415 0.259193 0.198949 -0.23356552
-0.20938131 -0.16343427 -0.14691827 -0.148262 -0.13704173 -0.093604 0.17809145 -0.215478
0.1660015 0.20350477 -0.12445228 0.23242943 0.259193 -0.07734363 0.2107177 0.259193
0.15667483 0.020105213 0.259193 0.08234446 -0.05864408 -0.044244 0.14034346 -0.022315
-0.019763976 0.19719163 0.387991 0.20950976 -0.056818172 -0.022315 0.17169322 0.198949
-0.37935373 0.24169798 -0.001580894 0.02912 0.039076246 0.12890461 -0.24708834 0.259193
-0.13681419 -0.022315 -0.02207768 -0.215478 -0.06429396 -0.20798492 -0.18266499 0.31991458
0.177374 0.045465857 0.027444582 0.177374 0.13658048 -0.37352747 0.184419 -0.18503234
-0.3202561 0.184419 0.15396006 -0.022315 -0.12583376 0.16158922 -0.107913315 0.259193
0.09667968 -0.093604 -0.165951 0.19001777 -0.31837216 -0.148262 -0.19286044 -0.27265176
-0.148262 -0.2015481 -0.2015828 -0.223036 0.17580737 -0.022315 -0.044567898 0.198949
-0.074748516 -0.20794164 0.198949 0.1875248 0.23199369 0.0907141 0.006630227 0.259193
0.18506686 -0.3012409 0.259193 -0.140704 -0.24855709 0.22004236 -0.16743363 -0.00597769
0.177374 0.198949 -0.06135997 -0.037704952 0.087141454 -0.093604 0.09363587 0.15346423
00000000: 2a59 1a3d d835 9bbd f2b4 843e 49b9 4b3e
00000010: a526 9dbd 38e9 533d a755 1f3e 74b3 bfbd
00000020: 9b2f e93d e0b3 17bd f2cd b6bc ca4d 09be
00000030: 3ce9 6f3d 74b3 bfbd 6b6e 813e e02a e83d
00000040: 1080 543d f2b4 843e 44a6 5cbe 01ab b7be
00000050: a3f2 5d3e a320 bfbd f2cd b6bc c04d 923b
00000060: 728b 00bd 118d ee3c 8251 393d ccd0 0e3e
00000070: f2cd b6bc 2e2d 33be a455 3a3e 1885 dcbd
00000080: 8d63 64be 44a6 5cbe 13e1 07bd 0a86 bb3d
00000090: 26b2 58be 74b3 bfbd e05b 343c f883 893d
000000a0: f2cd b6bc eaef a9bd 7aad 023e 3795 7ebe
000000b0: fed1 17be 203a b13b 059b 8e3e f2b4 843e
000000c0: 49b9 4b3e e0a9 f03d 4fe5 803e 28a8 42be
000000d0: e465 e93d 88a1 353e cde2 243e bf88 b83e
000000e0: 88a1 353e d5e6 fe3d 74b3 bfbd 049a 4f3d
000000f0: 06fb 093e d6a7 df3d f2b4 843e 764f fe3d
00000100: 7eaf 8cbe 24a0 2abe 49b9 4b3e 8c7e 66be
00000110: fa63 4d3e 806f c83d 74b3 bfbd 68c5 47bd
00000120: 49b9 4b3e 2e6f 70bd 57b9 193e 00ae 35ba
00000130: 74b3 bfbd e83f bfbd 080e 4bbe 39c3 aebe
00000140: 8d63 64be 0e33 273e 0c24 3e3e f2b4 843e
00000150: 38a8 823d 1679 05bc 88a1 353e 26f1 363e
00000160: 3404 91bd 8d63 64be ae08 a5bd 74c7 ee3d
00000170: f2b4 843e 9cff 56bd 8dd7 893e f2b4 843e
00000180: 2147 fd3c 118d ee3c 8be5 5f3d ee11 c2bd
00000190: 7e75 273e 88a1 353e a847 cfbd 74b3 bfbd
000001a0: 08f3 c0bd 4c6e c93d 464e 9d3d f2b4 843e
000001b0: 49b9 4b3e 6208 bdbd 23d7 cb3d 3c85 253e
000001c0: 1001 2f3d f2b4 843e 3576 45be f6e6 38be
000001d0: f2b4 843e 40ae 123c 298d a63e 88a1 353e
000001e0: aad7 bc3d 0445 f93d 88a1 353e baa6 2c3e
000001f0: f2cd b6bc 0c50 38be 49b9 4b3e 9ff7 84be
00000200: 9f86 493e 30b7 5c3c 118d ee3c 8a40 f9bc
00000210: 44a6 5cbe 9d1b bbbe affa 633e 764f fe3d
00000220: c434 9ebe 922d 743e 6555 34be f2cd b6bc
00000230: acae 233e 8e91 91bd 3d48 4f3d 7591 b83d
00000240: d8c5 373e 484d acbd 8d63 64be 861e bdbd
00000250: 00a0 c13a f2b4 843e 49b9 4b3e cd2b 6fbe
00000260: 0e68 56be 505b 27be be71 16be fed1 17be
00000270: ab54 0cbe 74b3 bfbd 9b5d 363e 44a6 5cbe
00000280: 4cfc 293e 8e63 503e d6e0 febd fb01 6e3e
00000290: f2b4 843e 5666 9ebd 61c6 573e f2b4 843e
000002a0: 5e6f 203e b0b3 a43c f2b4 843e 36a4 a83d
000002b0: c634 70bd 3239 35bd 32b6 0f3e f2cd b6bc
000002c0: 10e8 a1bc 9aec 493e c2a6 c63e ba89 563e
000002d0: 2cba 68bd f2cd b6bc 59d0 2f3e 49b9 4b3e
000002e0: a73a c2be ad7f 773e 0036 cfba 118d ee3c
000002f0: 6a0e 203d 92ff 033e ba04 7dbe f2b4 843e
00000300: 0519 0cbe f2cd b6bc 40dc b4bc 44a6 5cbe
00000310: 8dac 83bd 00fa 54be 880c 3bbe d8cb a33e
00000320: 88a1 353e 683a 3a3d 76d3 e03c 88a1 353e
00000330: c1db 0b3e fe3e bfbe 56d8 3c3e 1e79 3dbe
00000340: 9cf8 a3be 56d8 3c3e b5a7 1d3e f2cd b6bc
00000350: 91da 00be a577 253e a801 ddbd f2b4 843e
00000360: ffff c53d 74b3 bfbd 0fef 29be 0594 423e
00000370: ad01 a3be fed1 17be 357d 45be 0399 8bbe
00000380: fed1 17be a062 4ebe b96b 4ebe 8d63 64be
00000390: d906 343e f2cd b6bc d48c 36bd 49b9 4b3e
000003a0: c015 99bd a7ee 54be 49b9 4b3e 8006 403e
000003b0: c18f 6d3e 50c8 b93d 6042 d93b f2b4 843e
000003c0: 2b82 3d3e 3f3c 9abe f2b4 843e b614 10be
000003d0: c085 7ebe c952 613e b973 2bbe 80e0 c3bb
000003e0: 88a1 353e 49b9 4b3e 9854 7bbd 8270 1abd
000003f0: 3877 b23d 74b3 bfbd 2ac4 bf3d ba25 1d3e
